saved/models/Mnist_LeNet/0502_095806/checkpoint-epoch1.pth (torch, 362006 bytes, 32 tensors)

conv1.weight f4 [10, 1, 5, 5]
00000000: e356 2dbe 74ee edbd 97e7 45be 4f21 1ebd
00000010: 1270 87be 6c78 c23d 92f5 88be 81f9 a0be
00000020: b029 90be 34f4 04bc 4022 bfbc c614 bd3d
00000030: b1df 2abe a790 07be 61a5 1fbd 4a9e 9b3d
00000040: 18bc a5bc d4b0 8e3e fa95 b83d d12f 423e
00000050: c855 863e bf38 403e e3e3 623e f76e b23e
00000060: 46ec 193d ed0a e43d cefc 9cbc c9d9 6d3e
00000070: b2eb 653e 21ff 31be cd5a 453e 737c 233e
00000080: 7aab 443e 89ac 383e 4f3d 493e f52d 93bd
00000090: cd08 10be ecda d43c 312a 15bd 41c2 953d
000000a0: 4d17 02be d6a0 cfbd 026b e13c ccb1 8a3e
000000b0: 4a74 583d a252 a6bd e3ef 45bd fadf 693d
000000c0: 5113 773e b2d4 553e ae32 463e 8a72 293e
000000d0: 023f 043e 7deb e43d e1a0 76bd 88e7 19bd
000000e0: 03a0 d6ba 7b2d 553e bce3 79bd 2810 83be
000000f0: 14c8 1c3e db74 8b3e 2cb6 13be 1968 71be
00000100: c5ae 1fbe 11ff e43d 668e d03c f145 ccbd
00000110: 4e64 a4be df2f 3e3d 1172 8e3e f3c9 133e
00000120: a881 93be a5c4 98be d28d 533d 3e7f 693c
00000130: 545a af3d 4d83 15be f161 bf3d 2f1b 833e
00000140: 100f 1d3d 7738 84bc f771 c93d dc8e b73d
00000150: 178f 8bbc 442e 25be 127c eebd a0d5 863e
00000160: 8ca5 5f3e c3a8 f33d e456 3ebe dcab 5a3e
00000170: c795 343e 1a6f 743e 70af 79bd ba32 de3d
00000180: 3e4d 883e 958e 4f3e 7374 483e 8cad 71bd
00000190: f118 4e3e 0e23 18be 1f05 dd3b 675e fdbd
000001a0: a5ad 3dbd 40e0 20bd f375 ae3c 46e4 4c3e
000001b0: 16ee d43d aa2f 82bc 100d 0a3e c385 e4bd
000001c0: 2d41 f43d e4c7 243c 8449 18ba 8e0e 8abb
000001d0: b9d1 24be 553a 843d e1d8 243e 0247 8c3e
000001e0: 5551 97bd 33da e53d fe76 873e 57c6 27bc
000001f0: d931 8b3e 8df0 5b3d 85d2 803e 8b41 5c3e
00000200: b3e4 283e 2629 853e 9848 753c 718a 253e
00000210: 67d0 c93d b500 98bd 1589 ea3c 0136 38be
00000220: a6ef 803d 0bbf 233d 3339 7b3d 8400 e13a
00000230: c1fd 14be cc86 3dbe 0e66 dfbc 88e9 363e
00000240: f9ae ca3d cf56 8cbe 7702 9dbe f6a3 23be
00000250: f731 8abe 7887 35be e69a 44be f400 28be
00000260: a0d7 8cbd 8b08 9e3d 312b 563d 0064 fb3d
00000270: bdbc 32be ae86 c8bc cefc 39be 57f6 0a3e
00000280: 4c18 9f3d c8cd 753e 5bc5 c2bd bfdf 6e3e
00000290: 9225 803e 4ab1 573e d7ce e63d 3069 873e
000002a0: b827 613e 016e 6b3e b143 41bd b327 0bbe
000002b0: 2d33 0e3c 2b26 423d bf69 00be 1960 42be
000002c0: 4738 88be 3379 44bc 6fb8 833e 34cc dc3d
000002d0: 4aa4 1ebe 3399 03be 8256 3d3e 3879 4abd
000002e0: 6874 35bd 13b9 56be ede1 4fbe 5654 343e
000002f0: fde3 833e acef d8bd 797e 8bbe 44dd 56be
00000300: ae19 203e 7358 893e acc6 bdbd b2d8 3cbe
00000310: d513 953d bafa 67bd a9ed 873e 905d f03d
00000320: e33d 9bbd 919d 8abd 7735 a4bd 3341 71be
00000330: fe4d 8abe a100 6abd 6349 f5bd f55e 23be
00000340: 7f6e 3bbe 1d65 bc3d c8c5 2fbe 0559 3cbe
00000350: e6ff 90bd 59ed 3cbe 8180 f63d 26c2 37be
00000360: 5617 32bd ee34 32be e038 8f3d 5195 ff3d
00000370: 8a72 a4be b0ee 6dbe 7f38 d13d b10f 283d
00000380: b788 5e3e dd5a 8cbe 6282 4bbe f911 a1be
00000390: e91e a5bc 75bd 023d 6549 13be 8a1b 11be
000003a0: dfc3 89be 686c bb3c 3087 973d 93af 79be
000003b0: b9e2 a93b 1ce3 5abd 3922 0fbe b734 533e
000003c0: cb29 773c 29dc a2bd 7927 00be 1164 d43d
000003d0: be48 863e 372e 113e 1595 0ebe 3a86 5bbc
000003e0: 0fe5 873e e9cb 653e
-0.16927676 -0.11617747 -0.19326626 -0.038605984 -0.2645269 0.09495625 -0.26749855 -0.31440356
-0.28156805 -0.008114863 -0.023331761 0.09232478 -0.16686894 -0.13238774 -0.038976077 0.075985506
-0.020231292 0.27869284 0.09012981 0.18963553 0.2623732 0.18771647 0.22157244 0.34850284
0.037578844 0.111348964 -0.019163515 0.2322761 0.22453192 -0.1738248 0.19272919 0.15965442
0.19206038 0.18034567 0.19652294 -0.071865 -0.14065857 0.025983296 -0.03641719 0.073124416
-0.12704201 -0.10138099 0.027516846 0.27088773 0.052845277 -0.0812123 -0.048324477 0.057098366
0.24128462 0.20881918 0.1935527 0.165476 0.1291466 0.11177728 -0.06021202 -0.03757432
-0.0016374592 0.2081813 -0.0610082 -0.25598264 0.15310699 0.2723759 -0.14424962 -0.23574866
-0.15594013 0.111814626 0.025458526 -0.09974278 -0.32107776 0.046432372 0.278214 0.14432506
-0.28809857 -0.29837528 0.051648922 0.014251528 0.085621506 -0.14600869 0.09344853 0.25606677
0.038344443 -0.016140206 0.0983619 0.08962795 -0.017036004 -0.1613093 -0.11644758 0.26334858
0.21840495 0.11897423 -0.18587834 0.21354622 0.1763526 0.23870507 -0.060958326 0.10849519
0.2662143 0.20269234 0.19575672 -0.059003398 0.20126702 -0.14857122 0.0067449952 -0.123715214
-0.04630818 -0.03927636 0.021296477 0.20008954 0.10396974 -0.015891869 0.13481545 -0.111583255
0.11926494 0.010057423 -0.00058092945 -0.004213161 -0.16095628 0.064564385 0.16098358 0.27397925
-0.0738856 0.11223259 0.2645797 -0.010240159 0.27186468 0.053696204 0.25160614 0.21509378
0.16493492 0.26007956 0.014970921 0.16166092 0.09854203 -0.0742201 0.028629819 -0.17989351
0.06295709 0.039977115 0.061333846 0.0017166291 -0.14549924 -0.18508452 -0.027270343 0.17862523
0.09896655 -0.2740998 -0.30665943 -0.15980515 -0.26991245 -0.17727458 -0.19199714 -0.16406614
-0.06877065 0.07716473 0.052287284 0.12274933 -0.1745481 -0.024478283 -0.18162844 0.13570534
0.07768306 0.2400428 -0.09510299 0.2332754 0.25028664 0.21063724 0.1126992 0.2644744
0.21987808 0.22991182 -0.047183696 -0.13589363 0.008679193 0.04739968 -0.12540339 -0.18981971
-0.26605436 -0.011991787 0.2572665 0.10781136 -0.15492359 -0.1285141 0.18490031 -0.04943201
-0.044300467 -0.20969038 -0.20301028 0.17610297 0.2575988 -0.10592589 -0.27244928 -0.20982844
0.15634796 0.26825294 -0.09266409 -0.18442038 0.07279173 -0.056635596 0.26548508 0.11736596
-0.07580163 -0.06768335 -0.0801801 -0.23560028 -0.27012628 -0.057129506 -0.11976888 -0.15954192
-0.1830387 0.09198973 -0.17165291 -0.18393333 -0.07080059 -0.18449916 0.12036229 -0.17945156
-0.043479286 -0.17403004 0.0699327 0.12479652 -0.32118636 -0.23235583 0.10215854 0.04103059
0.2173184 -0.27413073 -0.19873956 -0.31459025 -0.02015634 0.03191896 -0.14383467 -0.14170662
-0.2690725 0.02287884 0.07398832 -0.24383382 0.005184498 -0.053439245 -0.13977899 0.20625578
0.015085648 -0.079521485 -0.12515058 0.10370649 0.26227373 0.14177786 -0.13924058 -0.013398701
0.26541945 0.22441067

conv1.bias f4 [10]
00000000: 767e 703e 9bf0 03bd 6373 653e 5e58 d4bd
00000010: ba8c b53d 08d2 e03d be93 043e cd6b ffbd
00000020: 8327 6f3e 123d 863e
0.23485741 -0.03221188 0.22407298 -0.10368417 0.08864732 0.1097756 0.12946984 -0.12471733
0.23354916 0.26218468

conv2.weight f4 [20, 10, 5, 5]
00000000: 39e5 2e3d 2ea2 493d 3112 b3bc 5955 443d
00000010: 3cb5 9ebb ccaa 033e 25cf fc3d b270 483d
00000020: 6f08 aa3c aaca 97bd 5a1b cabc 9c4d c13c
00000030: da5e 113c fca4 6cbd 039e 18bc 8577 54bd
00000040: b367 88bc 3318 c6bd d996 d1bd a86d a2bd
00000050: 7e8c f53d fc73 76bd 3db7 07bd 1dc4 d1bd
00000060: 2ff3 d8bc 6691 c5bb 6394 46bd d608 29bd
00000070: 7623 32bd 0983 11bd 3d34 963d 8c9c 25bd
00000080: aeb7 623d 472c f3bb 8113 47bc dcf4 ac3d
00000090: 9c3c 473d b9b9 6b3d 7114 873d 9c01 073c
000000a0: 8ef3 e93c 33bc ad3d 8c58 c63d 097f 1e3d
000000b0: 60eb 27bd 4cd2 98bc 0d9b a0bc 3bc8 4bbd
000000c0: 9273 80bc 9975 c7ba 71ee 143d b93c 5c3d
000000d0: a714 0aba d482 cf3d 09ef 05bd d59d 97bd
000000e0: 2b0a bdbd 768e ffbc 3da6 8c3d 777f e23c
000000f0: 953c f5bd 8416 b2bd d7b0 8bbb 1d09 8c3d
00000100: d824 8a3d a6ab 39bd ac70 99bb 90c0 f83c
00000110: 0727 8bbc 3d34 c93c 09bc 793c aadf 35bd
00000120: cf77 f93c fc04 953d 99bb 303d f4dd a13c
00000130: b21d 8dbd 7c44 a1bd 4f11 8d3d 7c8f 343d
00000140: ca38 023d c287 533d f36d dfbc 4522 1ebd
00000150: 1129 65bd 5371 0a3d 1ce8 7abc 0461 5c3d
00000160: b2a0 9c3d 8755 a73c 5d0a f03b bf15 8abb
00000170: b924 cc3d 2c4f 99bb 89f4 2ebc 909c beba
00000180: 2426 84bc c0c0 533d bd09 353c e279 11bd
00000190: 5559 283d 0f81 e93b 9799 7cbd 5330 d23b
000001a0: b0c3 e03b a81f e73d 34d1 7b3d 33dc 783d
000001b0: 78da 103d e1fe 8abd dd15 a23d dd8a f03c
000001c0: 2025 ba3d d96c 823d 5f65 2dbd 8530 c4bc
000001d0: 38c0 203d 239a 6b3d c7f2 3dbd 030a e1bb
000001e0: 4be3 93bb 5b86 603c ef56 ca3c 36b8 f4b9
000001f0: 1618 b9bd 5295 55bd 3ae1 11be c1ab d9bd
00000200: ee8c 8ebd 5bc0 1cbd 872b 1e3d 9cd6 09bd
00000210: bfc2 d3bd b14a d8bc 6a08 a83b a378 213d
00000220: 1cf0 863b dda6 0b3d 4ef3 56bd b7b0 b9bd
00000230: 46f1 073e c66d df3c 83a6 a2bc 18fc 953d
00000240: aa28 6bbd dbc2 1abc ff8b 5d3d 12df dabc
00000250: 20d0 993d b0db 2a3d 3187 e83c 0994 e4bc
00000260: 52ad abbd dd76 0b3d bf61 a9bc 5a90 053c
00000270: 21f3 1a3c 2cb7 5f3d ed92 213c fafa de3c
00000280: ceb4 913d 3d77 153d 8a05 953d 9102 11bd
00000290: ab87 83bd d1b7 7fbd 13ed 453d 6580 b13d
000002a0: 816f 56ba ca27 e03c 2c36 72bd 37a8 2f3c
000002b0: ce5c df3b dc60 adbc 0cf7 87bd 60f7 c43b
000002c0: b0c1 12bd 55e2 80bd 0690 6e3d f007 c439
000002d0: fa64 3b3d 8a0f cabb 25ca babd a74f f2bc
000002e0: 0f52 033d 07a2 afbd ed18 aabd b8b6 76bd
000002f0: b078 acbb b544 693a f4b1 8fbd edb8 09be
00000300: 8d09 df3c 9c01 9d3d a97b ccbc 7414 d1bc
00000310: 43a8 1cbd 3da6 663d dc5f e639 2ec5 0b3d
00000320: c6cd 513d 901f d7bd bb97 9f3b e90e c23c
00000330: cc82 fd3d ec00 94bd daf8 8bbd 85bf b6bb
00000340: 2ba0 5ebd 2459 503d cfc7 11be 32b2 afbd
00000350: fd85 93bd ce73 dcbd c167 c9bc 1409 69bd
00000360: b624 f7bc d6a8 b8bc a6c2 a1bc d45d 5b3d
00000370: 3968 8c3d 410a e1bb 11cb 6dbc bcc5 983d
00000380: 8324 18bd 1cc5 edbc d7c9 9cbd 96f7 2b3d
00000390: b349 8d3d c9fe 193d 1a96 7bbd aa5b 8ebd
000003a0: 2da3 c33c 6328 673d 54cf e5bb 1cec dabd
000003b0: de52 8dbd b8ee 32bc ded0 263c 94b8 113d
000003c0: 0e34 14bd 7fd0 8dbb 6fa3 bc3c e62f 123b
000003d0: ef2a 79bd c933 03bc 163c 22bd c346 4c3d
000003e0: a14a b93c b49e 103d 666a 273c 7e0a 23bc
000003f0: f012 383c 7bf9 e5bd aa4f ffbc 6d4b 2d3d
0.042699073 0.049226932 -0.02185926 0.047932956 -0.004843382 0.12858123 0.12344197 0.0489356
0.020755975 -0.07411702 -0.024671245 0.023596577 0.008872712 -0.05777453 -0.009315017 -0.051871795
-0.01665101 -0.096725844 -0.1023385 -0.079310715 0.119896874 -0.060169205 -0.033133734 -0.10242484
-0.026483146 -0.0060292957 -0.048481356 -0.041268192 -0.04349085 -0.035525355 0.073341824 -0.040432498
0.05535095 -0.0074210498 -0.012150646 0.08445141 0.048641786 0.057550166 0.06595696 0.00824013
0.028558519 0.08483162 0.09684858 0.03869537 -0.040995955 -0.018654965 -0.019605184 -0.0497515
-0.015680108 -0.0015217542 0.036360208 0.053768847 -0.00052673597 0.10132375 -0.032698665 -0.07403151
-0.09230455 -0.03119586 0.06867645 0.02764867 -0.11974446 -0.08695701 -0.0042630243 0.06837676
0.06745309 -0.045329712 -0.004682621 0.030365258 -0.016986383 0.024561042 0.015242585 -0.044402756
0.030452637 0.07276341 0.043147657 0.019759156 -0.068904296 -0.078743905 0.06888067 0.04408215
0.03179244 0.05164314 -0.027274108 -0.0386069 -0.055947367 0.03379948 -0.015314128 0.05380346
0.07647838 0.020426525 0.007325454 -0.004214018 0.09967942 -0.0046786275 -0.010678419 -0.0014542509
-0.016131468 0.051697493 0.011049685 -0.035516627 0.04110082 0.0071259807 -0.061669912 0.006414452
0.0068592653 0.11285335 0.06147881 0.060756873 0.035364598 -0.067868955 0.07914326 0.02936309
0.09089112 0.06368417 -0.042333003 -0.023948917 0.039245814 0.057520043 -0.04637411 -0.0068676486
-0.0045131794 0.013703908 0.024699656 -0.00046676554 -0.09037797 -0.052144356 -0.14246073 -0.106284626
-0.06960474 -0.038269382 0.03861573 -0.033651933 -0.10339879 -0.026402803 0.005127956 0.03942169
0.0041179787 0.03409468 -0.052478127 -0.09066909 0.13275632 0.027274024 -0.01985479 0.07323474
-0.057411827 -0.009445871 0.05408859 -0.026717696 0.075104 0.041713417 0.028384777 -0.02790262
-0.083826676 0.034048904 -0.020676492 0.008152092 0.0094573805 0.054618046 0.00986169 0.027219284
0.07114564 0.036490668 0.07276447 -0.03540284 -0.06422361 -0.06243116 0.048321795 0.086670674
-0.00081800675 0.027362723 -0.059133694 0.010721258 0.006816483 -0.02116435 -0.06638917 0.0060109347
-0.035829246 -0.062931694 0.05824282 0.00037389947 0.045750596 -0.006166403 -0.09120587 -0.029578997
0.03206068 -0.08575826 -0.083055355 -0.060232848 -0.0052634105 0.0008898483 -0.07016364 -0.1344945
0.027226234 0.076663226 -0.02496131 -0.025522448 -0.038246404 0.05631088 0.0004394044 0.034123592
0.05122163 -0.10504067 0.0048703826 0.02368875 0.12378463 -0.07226738 -0.06834574 -0.00557703
-0.054351967 0.05086626 -0.14236377 -0.0857891 -0.072032906 -0.107642755 -0.024585607 -0.056893423
-0.030168872 -0.022541445 -0.019746136 0.05355628 0.068558164 -0.0068676774 -0.014513747 0.0745959
-0.037144195 -0.029024653 -0.076556854 0.041984163 0.06898823 0.037596498 -0.061422445 -0.06951077
0.02388152 0.056435 -0.007013241 -0.106895655 -0.06900571 -0.010921173 0.010181634 0.035576418
-0.036182456 -0.004327833 0.02302715 0.0022306382 -0.06083196 -0.008007952 -0.039608084 0.04987217
0.022618594 0.0353076 0.010218238 -0.009951232 0.011234984 -0.11229225 -0.031165916 0.04230826

conv2.bias f4 [20]
00000000: 1ab2 f1bb f834 3bbd 02e4 013d bea1 90bb
00000010: 25e8 953c d5ff 923c 5bfb 5b3c 0324 3e3d
00000020: 044a 9d3c 5d32 7b3d f2e5 5fbd 457f 433d
00000030: 690c 46bd 39fa a4bc 328e 223d f24e 183d
00000040: 0928 debc 092c 4abd 44a4 4abd 396f 7b3d
-0.0073759677 -0.04570481 0.031711586 -0.0044138124 0.018299172 0.017944256 0.013426627 0.046421062
0.019200332 0.061327327 -0.054662652 0.047728796 -0.04835168 -0.020138847 0.03968639 0.037184663
-0.0271187 -0.0493584 -0.049473062 0.061385367

fc1.weight f4 [50, 320]
00000000: fcb9 753d a0cc de3b e8ce 38bd b916 4f3d
00000010: 8f82 653d 61cc 083d 76a6 b5bb 3703 3f3d
00000020: 02c5 033d a2dd 38bd 8b7a 83bd 9819 dabc
00000030: bfe0 84bc 1481 f0bc b661 9f3c 433e 7fbb
00000040: 29df 573d 31af 123c 753e c23c 3705 343d
00000050: efab 1ebd 612c 14bd e3db a33d db56 acbb
00000060: 46d3 b23c 0fd5 cbbb d347 253d 47ec 1b3d
00000070: 4489 22bb 3cfc 6bbc 8af7 9cbd 802c 50bd
00000080: 70d1 9a3b 0536 2c3c ab73 dabc d642 c23b
00000090: c20b 913c 7c7b 95bb 54dd 233c f3c5 27bc
000000a0: 6d45 a33c 5950 f23c f197 a5bc c5e6 25bc
000000b0: 13b8 183d 144b 393c 6ece 46bd 9bc9 d1bc
000000c0: ad7f d8bc 2e26 f03c 029d d5bd bd16 92ba
000000d0: 65c7 473d fd22 c8bc 698d 283b c176 1ebc
000000e0: 8caf 0a3c a3a2 70bc 206b 263d 02ae 913d
000000f0: c273 8fbc ebe3 c23d 2166 773c 2f7e c83c
00000100: 3fca bdbc 9249 02bd 5ef5 47bd 6ef4 1a3c
00000110: 4eaa c6bc e0b5 4cbd 9263 5e3d 052f d23d
00000120: 4a3a a43d 279c a4bc f402 0cbc e100 18bc
00000130: e37c d63d e746 703b f612 6fbd 3776 3ebd
00000140: f360 7a3d 6740 263c ffb6 3dbd 493b bbbc
00000150: 30c8 f53c 5eb9 8fbd 960d 923b 1cb0 07bc
00000160: ecf8 cfbd e00b 743c a0bc a9bc 36c2 bebd
00000170: a4fe a53a d157 0f3d 5e9e af3c f4d3 a5bd
00000180: 0073 3b3b d4a4 463d f128 87bc 3d81 cc3c
00000190: 9be0 19bd 166d bc3c 63b8 093c c1d2 cdbd
000001a0: 363e a0bd 76fb 393b 7750 573d 5e8a 1bbd
000001b0: a36f ed3c 3b14 ad3c 8378 0bbd 3433 103c
000001c0: dff3 733d 7813 3bbc 74ba 8e3b 3087 b53d
000001d0: b9b2 ac3c 763d 1dbd a82b 94bb 19fa 6e3d
000001e0: c28b 1a39 b6c7 1f3d 37b9 c8ba 9c5e 6f3d
000001f0: 4dd2 3f3d c11a 37bd af3a 22bd bff0 6a3b
00000200: e4ee 05bc 8707 3cbd 317c 59bc 3282 89bb
00000210: 7230 323c 2baa c73c e43a 86bd 152f 24bc
00000220: e066 053c ce8c 863d 3200 86bd 3304 08bd
00000230: 837f 923d c668 de3d 8380 a8bc 918c f4bb
00000240: f443 f53c 9cd9 91bd 1736 52bc 8dd9 943d
00000250: 1785 923d b6ef 8dbd c5b5 83bc f405 853d
00000260: 2d88 f23c ee2b 79bd 888d b2bd 0417 62bd
00000270: a3c2 70bc 9098 00bc 3062 d8bd fea8 1fbd
00000280: 22d9 1ebb b941 aeba a85b f5bc 5569 36bc
00000290: c1bc e1bc ec90 573b ce2e 5dbd cf09 99bc
000002a0: 6697 3c3c 0ff6 983b f2ee b1bd d583 a5bb
000002b0: 843d 193d e8ee eb3d c419 20bc 3e35 02bb
000002c0: 19e7 3a3d f80e ce3c 262b 10bd 3c34 b3bc
000002d0: cb13 81bd 9296 08bd c7f4 d2bd 2b6e e83c
000002e0: 3deb edbc 9bdc 1bbc 42e9 65bd 59f7 4bbd
000002f0: 20a9 21bd f69a bb3d 3968 c63c 338b a6bd
00000300: e9be 313d 93d0 e63b 7f3b 75bc 027c 21bc
00000310: 6773 0d3c 5e27 5f3d 7ed6 1fbb 034d 563d
00000320: 1dc7 cf3d 44d3 dd3c 8466 9cbc 836d 7b3c
00000330: 2db1 a53c 72cd 43bd 9c8f cdbc 66f7 48bd
00000340: 487c 22bd 8eec aabc 74d8 793b c4e2 97bc
00000350: c5ea 62bc e5db cd3b 3c0d 0bbd ef11 4fbc
00000360: b256 f73c fa83 763b 621c 5fbd 59d3 d03c
00000370: 24ba b03c 56f6 39bc 6919 5c3d 09f4 cabb
00000380: 22a8 1d3b 7d14 a93c 8f09 893b 8c0f 0d3d
00000390: b641 d43c 9133 643d 3968 523d 9d9a 1ebd
000003a0: 3009 5e3c e600 643d 1821 27bd 923c 57bc
000003b0: da3f 6b3b fa22 483d 2864 e93c 1fb3 b63c
000003c0: 56c3 28bd 802a 1339 4c23 e83c f8a1 433d
000003d0: 4b47 173d dbfc 153c 85de c63d 541b 913b
000003e0: 6b9f 2cbd 1636 0c3d ba2d 95bc 8e44 3a3d
000003f0: 6110 b53a 244a bb3d e6eb acbc ef06 39bc
0.05999182 0.0067992955 -0.045119196 0.05055878 0.056032714 0.033398036 -0.0055435253 0.046633925
0.032170303 -0.04513324 -0.064198576 -0.026623532 -0.016220449 -0.029358424 0.019455772 -0.0038947023
0.052703056 0.008952902 0.023711422 0.043950286 -0.038738187 -0.036175136 0.080009244 -0.0052593774
0.021829259 -0.006220467 0.0403517 0.03806713 -0.0024801055 -0.014403399 -0.07664402 -0.05082369
0.004724674 0.010510926 -0.026666483 0.0059283776 0.017705802 -0.0045618396 0.010001499 -0.010240066
0.019930566 0.029579328 -0.020214053 -0.0101258205 0.03728492 0.011309404 -0.04853671 -0.025608828
-0.026428068 0.02931508 -0.104303375 -0.0011145693 0.04877414 -0.024430746 0.0025719053 -0.009671868
0.008464705 -0.014687213 0.040629506 0.071132675 -0.017511252 0.09516128 0.015100033 0.024474232
-0.023167728 -0.031808443 -0.048817985 0.009457691 -0.02425113 -0.049978137 0.054294176 0.102628745
0.0801893 -0.02009399 -0.008545626 -0.009277553 0.10473039 0.0036663355 -0.058367692 -0.046499457
0.061127614 0.010147191 -0.046317097 -0.022855418 0.030002683 -0.07017778 0.004457186 -0.008281734
-0.101549 0.014895409 -0.020719826 -0.093143865 0.001266439 0.034995858 0.02143782 -0.080970675
0.002860248 0.048497036 -0.016499015 0.02496397 -0.037567716 0.023001235 0.008405778 -0.10049964
-0.07824366 0.0028378642 0.05256697 -0.037973754 0.028983897 0.02112781 -0.034050476 0.00880127
0.059558745 -0.011418216 0.004355723 0.088636756 0.021081315 -0.03838869 -0.004521806 0.05834398
0.00014738648 0.03900882 -0.0015313987 0.058439836 0.046831418 -0.04470325 -0.039606746 0.0035849062
-0.008174632 -0.045905616 -0.013274238 -0.0041964287 0.010875808 0.024373135 -0.06554201 -0.010020991
0.008142203 0.06569825 -0.06543006 -0.03320713 0.07153227 0.10859828 -0.020569092 -0.007463046
0.02993963 -0.07121584 -0.012830279 0.07268057 0.07154291 -0.06930487 -0.016077885 0.06495276
0.02960595 -0.06083291 -0.08718401 -0.05519773 -0.0146948425 -0.007848874 -0.10565603 -0.038979523
-0.0024238308 -0.0013294733 -0.029950932 -0.011133512 -0.027555825 0.0032892777 -0.053999715 -0.018681435
0.011510706 0.0046680043 -0.08688153 -0.005051116 0.03741218 0.11520177 -0.009771768 -0.001986816
0.04563055 0.025153622 -0.0351974 -0.021875493 -0.06302603 -0.03334672 -0.10300594 0.028372845
-0.029042834 -0.009513046 -0.056130655 -0.049796436 -0.03946793 0.09160416 0.02421962 -0.08132019
0.043394957 0.007043907 -0.014967798 -0.009856226 0.008633471 0.054480903 -0.0024389322 0.052319538
0.101454 0.027078278 -0.019091852 0.015345934 0.020226086 -0.04780335 -0.025092892 -0.049064063
-0.039669305 -0.020864751 0.00381234 -0.018540747 -0.013849919 0.006282317 -0.03394817 -0.012638553
0.030192707 0.0037615285 -0.054470427 0.025491403 0.021573134 -0.011350235 0.05373517 -0.006193642
0.0024056514 0.020639652 0.0041820477 0.034438655 0.02591024 0.05571324 0.051368926 -0.03872167
0.013551995 0.05566492 -0.040803045 -0.013137 0.0035896213 0.04886148 0.028490141 0.022302208
-0.041201912 0.00014034845 0.028337143 0.047761887 0.036933225 0.009154524 0.09710411 0.0044283066
-0.04214422 0.034231268 -0.01821028 0.045475535 0.0013814085 0.091450006 -0.021108579 -0.011293157

fc1.bias f4 [50]
00000000: e01c c53c 602e 54bd 5261 163d 1d90 a73c
00000010: 0142 8fbc c767 9d3c f51c 82bc 40ee 133d
00000020: 43cd 013d 2c4b 05bd fe0c bc39 a3ca a2bc
00000030: 1217 8c3d f943 743d 185d 613d 87f6 4c3d
00000040: bd5d ee3c 3a2c c93c 6a86 48bd 6ed4 313d
00000050: d0a6 733d 0e56 293d 6c08 a23c f577 c0bc
00000060: 77e8 8bbc 914f 24bb 2207 26bd 53e5 0f3d
00000070: 023b 6dbc 7b44 59bb f3f8 8cbc b3e7 cd3b
00000080: 5867 e03b 5ed0 b73a d73f 3b3b 8fc1 5fbb
00000090: 4740 5f3d caba 6d3c 5223 8b3c 0b6c b03c
000000a0: 6682 0a3b f0d6 9e3c 2358 a1bc dad5 07bd
000000b0: afc3 1d3d 6f01 f23c b8ed 903c 4d87 4a3c
000000c0: 3780 a43b fb7c f33c
0.02406162 -0.05180204 0.036713906 0.02045446 -0.017487528 0.019214524 -0.015882948 0.036115885
0.031689893 -0.032542393 0.00035867834 -0.019872015 0.06840338 0.059635136 0.05502042 0.050039794
0.029097432 0.024557222 -0.048956312 0.04341548 0.059485257 0.041341834 0.019779406 -0.0234947
-0.017078621 -0.002507184 -0.040534146 0.03513081 -0.014479401 -0.003315239 -0.017208552 0.006283724
0.006848257 0.001402389 0.0028571987 -0.003414247 0.05450466 0.014509866 0.016984615 0.021535894
0.0021134852 0.0193896 -0.019695347 -0.03316293 0.038516697 0.0295417 0.017691478 0.01236136
0.005020167 0.029722681

fc2.weight f4 [10, 50]
00000000: 9c03 323e 94c7 c3bd 8a7d e63d 715d 17be
00000010: 097c 43be 8478 01be f891 a53d 24a7 13be
00000020: a0dc c5bd d80e 4ebd f5ed 2dbe 7ed4 a13d
00000030: 35c1 36bd 7996 e8bd f34e 70bd a3b3 0ebe
00000040: 5b79 53be a88e 4fbe abc7 dc3d 909e ccbd
00000050: ba18 0d3e 48d2 7d3a d6a9 d2bd e28a 623d
00000060: 6d93 0fbe d147 db3d 664a 17be c132 c4bd
00000070: d08c b7bd aa85 f63d 21a3 1fbe 6424 94bc
00000080: 9382 df3d 06dd 383d b87d d43c dec1 9d3d
00000090: d754 023e 3982 ec3d e75d 393e 33d8 ef3d
000000a0: 0928 403d caa2 fa3d 173e 55bd dbcd 263e
000000b0: a719 07be c5db aebb 5d2d 103e c4cf 46bd
000000c0: eccf 9a3b 28da 8f3d ca16 aebd 41ff 5ebd
000000d0: 16c8 12be 792c 413e 549f c53d b45b a53d
000000e0: fec6 043e a2a0 213e dfb7 3fbe 0a78 18be
000000f0: 627b c9bb 1a65 69bd 84be 663d b929 a43d
00000100: f8b6 2fbe 5e17 163e b735 9dbd 27b4 153e
00000110: 3fb7 e93d 4f46 e43d b540 c9bd cfa2 49be
00000120: 8da7 41be 16ea 193e 3e5e cf3d 70ba 2fbe
00000130: 8394 b7bd b3e9 01be f9b4 a73d b006 d23c
00000140: 192f 4b3d c4d5 dd3d ead2 bc3d 3b1a 6d3d
00000150: b6db 7abd 4d50 f7bd 631c 14be 4134 16bd
00000160: d18a 30be a869 07be 93f7 2ebe 7432 06bd
00000170: 1a0c 0fbe 50ab 46bc eda2 b13d 95c9 4fbe
00000180: 7df5 0e3e 8629 29be c83d 42bc c2fd 46be
00000190: 9e2d 86bb f714 7ebd 4f16 3bbe 59bd 7bbc
000001a0: 6866 6abd baf5 70be dc51 083e 205e c7bd
000001b0: 4ad8 1bbe c0fd d73d 0937 81bc 44df c13d
000001c0: 085b 8abd 8077 06be e89a 2cbe ee04 833d
000001d0: 480d cdbd 985b 1abe 6b3b 153e 697a 023e
000001e0: 3739 00be 49e3 23bb f512 aebc eee1 0a3d
000001f0: dec3 093e 1035 e43d 110e b43d 8301 c0bd
00000200: 4962 cc3d 2636 d03d 5374 b63d fa59 bb3d
00000210: 6538 003e 2fce 5b3d e9e1 5ebe 59c6 a93b
00000220: 1a38 03be 2776 e33d ca21 02bc 725e 2f3b
00000230: 0e64 07bc 752f 713d 2f22 c43d c9dc 0d3e
00000240: ee8f 4dbb 32ac b63d 9c0d 11be b3b5 14be
00000250: 0b9f adbd 2e70 d0bd 68b7 febd 13a8 96bd
00000260: 7c43 10be c8a8 c0bd 4c8e 83bd 145a b9bd
00000270: e901 00be 5777 3abe 0c71 b93d 9cfe c43d
00000280: 7d70 c33d 6cc8 e63d bf36 d53d b836 32be
00000290: 5827 f3bd 3369 2a3e 7313 933d 16fc db3d
000002a0: cce2 863d c3b2 d03c 29f0 03be 10cd fa3d
000002b0: f23c 2fbe 2219 d5bd f238 17bd e341 c3bd
000002c0: f185 cabd 8b80 ce3d 1bde d93d 21e3 023e
000002d0: 64c4 8d3d 059c e5bc cfeb 0abe d374 b83d
000002e0: 1cca 063d 2320 93bd 409f 733c 9f9d 073e
000002f0: f718 09be 4177 e93c 93f0 e4bb 9814 9e3d
00000300: db27 8dbd d1c3 7fbb 31c8 a13d 1e7c 9ebc
00000310: 6752 e5bd cf66 14be 2b2b 8dbd f09f 743d
00000320: 37e6 743d 71bd 7c3d d69e 21be 5734 903d
00000330: b332 fb3d 3c18 81bd e5e0 f13d 77fc 183e
00000340: 5216 703d f75e f53d ff70 903d 3307 23be
00000350: 0bfb e73b 0ab3 243d 7512 893d ad3d ff3d
00000360: 37fa c63d ed24 33bd e3f7 253c 9a98 27be
00000370: edf1 dd3b c0e1 11bd 88bd d63d 7b5e 163e
00000380: 0448 cabd 34ba 9e3d 764d 0c3e 0e52 063e
00000390: 4999 92bd 9ae8 b9bd 735e f8bd 250c 0bbd
000003a0: 12b4 393d d546 17be 19ce 8c3d b14c f7bd
000003b0: a9f8 d23d 165f aebd 247f 7c3d 630b 893d
000003c0: 2420 92bd b3a0 53be 83fc 52be 0be0 d9bd
000003d0: 267b 12be 42e5 a23d 406c dabd 8c48 0a3e
000003e0: e9ce 343e 9c64 68be c1f9 b8bd ec77 cf3d
000003f0: 432e e93d 1d0b 063d 77ec ff3d 3c3e 7b3c
0.1738419 -0.09559551 0.112544134 -0.14781739 -0.19090284 -0.1264363 0.08084482 -0.14419228
-0.096612215 -0.050307125 -0.16985305 0.07901858 -0.04461785 -0.113568254 -0.05866904 -0.13935713
-0.20651762 -0.20269263 0.10780271 -0.09991181 0.13778964 0.00096825184 -0.102863 0.05530823
-0.14021082 0.10707057 -0.14774475 -0.09579993 -0.08962405 0.12037213 -0.15589572 -0.018083759
0.10913577 0.04513266 0.025938854 0.07702993 0.12727676 0.115482755 0.18102227 0.117111586
0.04691318 0.12238081 -0.052061167 0.16289465 -0.1319338 -0.005336257 0.14079805 -0.048537984
0.0047244933 0.07024032 -0.085004404 -0.054442648 -0.14334139 0.18864621 0.0964953 0.080741316
0.12966534 0.15783933 -0.18722485 -0.14889541 -0.0061487416 -0.056981184 0.056334034 0.080157705
-0.17159641 0.14657351 -0.07676261 0.14619504 0.114119045 0.11146223 -0.09826795 -0.19691013
-0.18911572 0.15030703 0.10125397 -0.17160964 -0.08963873 -0.12686805 0.08188815 0.025637954
0.049605463 0.10831788 0.09219916 0.057886343 -0.06124469 -0.12075863 -0.14463954 -0.036670927
-0.17240454 -0.13223898 -0.1708663 -0.03276296 -0.1396946 -0.012125805 0.08673654 -0.20291741
0.13960834 -0.16519746 -0.01185555 -0.19432738 -0.0040947935 -0.062031712 -0.18270229 -0.015364968
-0.05722657 -0.23531237 0.13312477 -0.0973475 -0.15219226 0.10546446 -0.015773313 0.09466413
-0.06755644 -0.13131523 -0.16855967 0.06397425 -0.10012299 -0.15074003 0.14573447 0.12742008
-0.12521826 -0.0025007299 -0.021249274 0.03390687 0.13453624 0.11142933 0.087917455 -0.09375288
0.09979684 0.10166578 0.08908906 0.09148021 0.12521513 0.05366343 -0.21765865 0.0051811156
-0.1281437 0.1110652 -0.007942626 0.0026759175 -0.008263601 0.05888315 0.095768325 0.13853754
-0.0031366306 0.089195624 -0.14165348 -0.14522438 -0.08477601 -0.101776466 -0.12437326 -0.07356276
-0.14088243 -0.094071925 -0.06423625 -0.09050384 -0.12500729 -0.18209587 0.09054765 0.096188754
0.0954294 0.11268696 0.104108326 -0.17403686 -0.118727386 0.16641693 0.07181444 0.10741441
0.06586227 0.025475865 -0.12884583 0.12246144 -0.17113093 -0.10405184 -0.03691954 -0.09534051
-0.098888285 0.100831114 0.106380664 0.12781955 0.06922224 -0.028028497 -0.13566516 0.090066575
0.03290759 -0.07183864 0.014869511 0.13243721 -0.1338843 0.028499248 -0.0069866865 0.07718772
-0.068923675 -0.0039026628 0.078995116 -0.019346293 -0.111973576 -0.14492343 -0.06892999 0.05972284
0.059789862 0.061704103 -0.15783247 0.07041233 0.122655295 -0.063034505 0.11810473 0.14940058
0.058615036 0.11981004 0.07052802 -0.15920715 0.007079487 0.040209807 0.066929735 0.124629356
0.097156934 -0.043736387 0.010129902 -0.16366807 0.0067732246 -0.035615683 0.10485369 0.14684479
-0.09877017 0.07750359 0.13701424 0.13117239 -0.07158143 -0.09077568 -0.1212739 -0.03394713
0.045337744 -0.14773114 0.068752475 -0.120751746 0.103013344 -0.0851423 0.06164469 0.06691625
-0.071350366 -0.2066677 -0.20604138 -0.10638436 -0.1430479 0.07953884 -0.10665178 0.13504237
0.17657055 -0.2269463 -0.09032012 0.10130295 0.11385777 0.032725442 0.12496274 0.015334662

fc2.bias f4 [10]
00000000: f034 43be afcc 7a3d 8059 cf3d 4946 8e3c
00000010: 25ab 22be 0fc3 9a3d 734a d5bc dcf4 c8bc
00000020: 4544 2d3d 5eae dabd
-0.19063163 0.061230358 0.10124493 0.017367499 -0.15885599 0.07556736 -0.026036477 -0.02453082
0.042301435 -0.10677789

exp_avg f4 [10, 1, 5, 5]
00000000: 624b ad39 f0e6 93ba aa84 89b9 c828 b33a
00000010: acfb 913b bbe1 593a b7a4 ddba 1280 c939
00000020: 534d ae3b c27d 233c 24df 993a 4192 1dbb
00000030: 0ec5 283a a4b7 fb3b 794b 343c 0405 483b
00000040: ceae f4ba a8ff 783a 572f ce3b 50a3 d43b
00000050: 34b0 c73b fc85 9eba f427 12bb cf7c 75b9
00000060: 840e 073b 8418 683b e5b9 7c3b f5c8 b23b
00000070: d18b 873b 5182 223b 4473 023b 26a4 cd3a
00000080: c8a1 5c3b 4a21 1f3a 6416 c8ba 8763 823a
00000090: 57fd 3d3a 3a45 14b9 17b4 2ebb 1c48 56bb
000000a0: 8cb0 5e39 7cce 75ba afe4 b9ba 3d12 9fbb
000000b0: d48c cbbb 16b6 5fba 82c6 69bb 8825 35bb
000000c0: 7795 a1bb eb80 dbbb 94b0 36bb 25ae 5dbb
000000d0: 6984 18bb fdc7 183a 6596 e73a edcd c1ba
000000e0: 9296 5fbb fee8 33bb bda4 743a c848 9d3a
000000f0: b2d8 18bb b640 83bb eb99 4abb 1a7a 693a
00000100: fe4a 8eb7 69e4 57bb 3f66 95bb 8283 d5ba
00000110: b11d 9d3a 5dfd 03ba 2f3d 5ebb 276f 1dbb
00000120: 7f33 ae3a c504 083b 2846 733a 9eb8 743a
00000130: 838a f03a 38fc 033b ed2c cb3a 8dea eb3a
00000140: 5aa4 9e3b d938 cd3b 04d5 c23b 4490 293a
00000150: 0be9 6f39 3384 b33b 6877 de3b f480 803b
00000160: 8bed a3ba f912 fd3a f1bc 733b 427c fa3a
00000170: 54a3 23bb 7f1d 13bb 32e8 b23a 139c 733a
00000180: 9af7 adba 4ab2 2cbb 59c8 20bb 52a2 c73a
00000190: b7d2 083b 1f46 2d3b 4933 4e3b 41ab 823a
000001a0: e230 4f3a b338 d43b 497b b73b 2ad6 b43b
000001b0: bf7f 933b b0ea 803b fc72 023c 0e08 d93b
000001c0: 2c82 b73b 4f6c 5d3b 2faa db3a 9eaf c23b
000001d0: 3aad 963b db8b 693b 0c4c 4bba a271 48bb
000001e0: 3e80 563b f951 a2b9 d37e 93ba 3107 50bb
000001f0: 8318 95bb 402a ceba bbe7 b3bb f9dd acbb
00000200: b4e7 a4bb 0fee bdbb e7c2 a2bb c62e fabb
00000210: 3942 0abc f081 abbb 4d7a c1bb 8384 1cbb
00000220: b77c bebb 3f0a b9bb 0201 22bb 6947 d5bb
00000230: 9709 a6b9 7a9a 2fbb 953e 4c3a cc61 d23a
00000240: e4d4 8ebb 08f2 8aba 392d f83a b832 df3b
00000250: 64f8 af3b f728 0338 26bc 1d3b 0c4f 6a3b
00000260: 65b8 9a3b 7d58 c43b 6a0e 1e3b ef80 643b
00000270: 6657 483b 1d33 9f3b d2df a73b 19b8 0e3b
00000280: 838a 853a 5312 da3a 2dc1 663b 8b90 0c3b
00000290: 7d2f 89ba 274b bcba d7b4 e0ba 5ee0 0eb6
000002a0: b054 f6ba edc5 72bb e637 99b9 f89f a9ba
000002b0: 458e e8ba 78c7 28bb 6b6b 39bb 5adc 8a3b
000002c0: 63f2 523b 571c df3a c985 bcba 0709 853a
000002d0: 0f96 a23b 5060 873b b33e 9d3a 1f48 98bb
000002e0: cf52 20b8 4491 af3b 4577 9d3b b7a2 943a
000002f0: 2af6 78bb d80e 013b e1ea b33b c870 5c3b
00000300: aaf7 ddb9 1976 01bb d5b1 9d3b d03d 983b
00000310: d1b3 dc3a 9139 13bb a57c 61bb cd41 b43a
00000320: 61c9 53ba b014 a23a 4566 2b3b 5efd 1b3b
00000330: ab62 c53a e81b 07b9 4a41 093b 8f35 5d3b
00000340: a628 053b c964 9f39 3f07 413a 715e fd3a
00000350: 814f e93a 01ca 0bba d882 81bb 3ca4 363b
00000360: 379b 033b d6c7 aa3a 66d5 d3ba e98a c0bb
00000370: 0de5 3b3b ded4 c13a 3bf6 963a ac3d 17bb
00000380: dca5 a5bb 373a d038 9a3b 0f3a 907c 8b3a
00000390: 4d99 c938 6475 5fbb 296c b03a 5057 0e3b
000003a0: a21f 103b 755d df3a 6407 d6ba 14d0 203b
000003b0: 1a8d fa3a 1111 013b 8b3b cc3a 2282 d5ba
000003c0: f4ee 363b 9f3c 933a 8975 9b3a fcb1 1aba
000003d0: 123e faba b93e de3a 7348 afba 2424 07bb
000003e0: 1a07 abbb 9804 9fbb
0.00033053296 -0.0011284035 -0.0002622952 0.001366877 0.0044550505 0.00083115295 -0.0016910051 0.00038433127
0.0053192764 0.0099787135 0.0011739475 -0.0024043473 0.0006438055 0.007681804 0.011004322 0.0030520568
-0.0018667819 0.0009498545 0.0062922644 0.006489195 0.006094003 -0.0012094374 -0.0022301646 -0.00023411516
0.0020608017 0.0035415003 0.003856295 0.005456085 0.0041365405 0.0024796913 0.001990513 0.0015689179
0.0033665765 0.0006070329 -0.0015265462 0.0009947874 0.00072475284 -0.00014140169 -0.0026657635 -0.003269679
0.00021237339 -0.0009376777 -0.0014182533 -0.004854469 -0.0062118564 -0.0008533908 -0.0035671298 -0.0027640779
-0.0049311477 -0.006698718 -0.0027876245 -0.0033825722 -0.0023272282 0.00058281404 0.0017668722 -0.0014786102
-0.0034116847 -0.0027452107 0.0009332409 0.001199984 -0.002332252 -0.004005517 -0.0030914496 0.0008906439
-1.696264e-05 -0.003294254 -0.004559308 -0.0016289803 0.0011986998 -0.00050350075 -0.003391098 -0.002402255
0.0013290494 0.0020754796 0.00092801685 0.00093353714 0.0018351827 0.0020139348 0.001550106 0.0017998979
0.0048413696 0.0062628803 0.0059458036 0.00064683356 0.00022879631 0.005478406 0.0067891367 0.0039216224
-0.0012506706 0.0019308022 0.0037191475 0.0019110518 -0.0024969177 -0.0022448 0.0013649522 0.0009292971
-0.0013272644 -0.0026351386 -0.002453348 0.001523087 0.002087755 0.00264395 0.0031463674 0.000996925
0.00079037074 0.0064764856 0.0055994135 0.0055186944 0.0045013125 0.003934227 0.007961985 0.0066232746
0.0056002345 0.003378648 0.0016759093 0.0059413454 0.004598287 0.003563634 -0.00077551673 -0.0030585309
0.0032730247 -0.00030960122 -0.0011253007 -0.0031742568 -0.004550041 -0.0015729144 -0.005490271 -0.0052754846
-0.005032504 -0.005796201 -0.004967082 -0.0076349704 -0.00843864 -0.0052339956 -0.005904472 -0.0023882694
-0.005813207 -0.0056469734 -0.002471984 -0.006508757 -0.00031669132 -0.0026794956 0.0007791308 0.0016050874
-0.0043588746 -0.0010600695 0.0018934376 0.006811466 0.0053701866 3.1270985e-05 0.0024068444 0.0035752682
0.0047216886 0.005991994 0.0024117478 0.003486689 0.0030569672 0.004858388 0.005123117 0.0021777211
0.0010188374 0.0016637541 0.0035210357 0.002144846 -0.0010466423 -0.0014365659 -0.0017143738 -2.1290248e-06
-0.0018793549 -0.0037044242 -0.00029224082 -0.0012941351 -0.0017742595 -0.0025753658 -0.0028292786 0.0042376937
0.003218793 0.0017021996 -0.0014383133 0.0010149785 0.004961736 0.0041313544 0.0011996835 -0.0046472694
-3.8224094e-05 0.005357893 0.004805478 0.0011339997 -0.0037988522 0.0019692685 0.005490646 0.0033636559
-0.0004233693 -0.001975423 0.004812459 0.0046460405 0.0016838257 -0.0022464732 -0.003440657 0.001375252
-0.0008079019 0.0012365784 0.0026153487 0.0023802142 0.0015059313 -0.00012884999 0.0020943456 0.0033753847
0.0020318418 0.00030401934 0.00073634455 0.0019330514 0.0017800183 -0.000533253 -0.0039523654 0.0027868887
0.002008153 0.0013029526 -0.001616162 -0.0058759344 0.002867046 0.0014788171 0.0011517474 -0.002307753
-0.0050551724 9.929056e-05 0.00054638984 0.0010641981 9.6129814e-05 -0.003409707 0.0013459969 0.0021719523
0.002199151 0.0017041402 -0.0016329107 0.0024538087 0.0019115538 0.001969401 0.001558171 -0.0016289393
0.0027913423 0.0011233276 0.001186059 -0.00059011555 -0.0019091985 0.0016955949 -0.0013373032 -0.0020620907
-0.0052193524 -0.0048528425

exp_avg_sq f4 [10, 1, 5, 5]
00000000: b43e c638 8a71 8438 e079 1a38 3ac7 3438
00000010: 074b 9638 5028 cc38 c836 5b38 252e 1338
00000020: 50bc 5338 e389 ef38 086a f438 5bf0 c838
00000030: dff9 a738 d62f f738 3a81 4e39 9b46 4539
00000040: 5678 5939 5fa7 8139 429a 9939 1032 9e39
00000050: d59a 8439 05b0 9639 221f b939 d9ad cb39
00000060: eadf a239 ae51 b938 8f8d b338 b873 b438
00000070: 4532 a438 07af 8a38 3ae1 c038 4fee a038
00000080: ed57 9838 9369 a238 1526 9438 d007 8738
00000090: 2ac9 4438 af07 7b38 0657 a438 89c3 9238
000000a0: 3e95 5438 c302 3d38 5ada 8c38 fe3a b538
000000b0: 42f8 9e38 9de0 7738 7ea6 8238 3c8f b738
000000c0: d18a cc38 12f2 af38 7b7e a038 8c3a e538
000000d0: f25e eb38 2521 b538 f57b 8238 0c4e bd38
000000e0: 82b0 f038 4e7c c238 3e18 5038 e9be 1b38
000000f0: bb95 d538 dc8e d138 c5ca 2938 b074 a737
00000100: ed64 a537 4c85 ce38 a252 9338 97c9 c837
00000110: 3e6e 8237 8692 a537 623b c538 9931 5e38
00000120: 5394 e237 dded b637 e4b1 f037 0d57 8438
00000130: c577 8938 c681 9438 42b8 d138 e2fe f738
00000140: a97b 8238 7623 9038 5518 b938 a924 fe38
00000150: a611 e538 848e 6738 f9ad 8938 8083 db38
00000160: 93ec f438 9115 bd38 e0bf 5f38 9a81 ac38
00000170: 0405 f438 5ee6 d438 9190 9238 545b a238
00000180: 5eb5 e838 3e2a ff38 0d01 bc38 2356 8738
00000190: a736 b838 b643 9038 91f4 8b38 e315 8e38
000001a0: ff8b 9238 ce19 b838 95b6 b338 7cb5 b838
000001b0: b765 a738 a2b9 8e38 07a0 bb38 b317 ad38
000001c0: 12d5 a938 dfa2 9e38 2704 9038 a7c9 9938
000001d0: 50ca 9538 7527 a838 529f c138 2f6f cf38
000001e0: bc19 8e38 3d54 ac38 5665 c838 bb96 d038
000001f0: acd9 ca38 8918 2939 2f73 6039 57eb 6539
00000200: eee6 5539 74fd 5339 1649 2939 3241 4439
00000210: 3e49 4639 aaad 2c39 b336 2c39 31c5 ed38
00000220: 6bed fd38 502f 1039 63eb 1b39 aa1f 1a39
00000230: 443d 9738 bdda 9938 07d0 d238 067b 0039
00000240: 640c 0739 5a69 8838 2538 9e38 b235 e838
00000250: 5195 cd38 c799 c038 4cda 3438 131b 3a38
00000260: 8351 5638 05d6 7c38 4373 7938 c1da 7438
00000270: a32e 7838 9946 8338 ca9c 8438 9e87 8838
00000280: 49b2 a138 1922 a538 c1c8 9438 1652 9e38
00000290: 95f8 9638 6e43 9c38 fe72 9238 04f8 8638
000002a0: 1968 9438 725a 8838 a410 8138 3774 6538
000002b0: 13a3 6738 cdb7 8238 4686 4438 8707 dc37
000002c0: f589 f437 64ec 9838 fc0f 1a39 fc04 1539
000002d0: 59ba ce37 ed2d 0038 1f01 ce38 b93a 3639
000002e0: 0198 1139 2ca2 a537 dbb7 0138 6850 0c39
000002f0: 0d86 5539 004d 0339 ba93 a937 dfa2 5538
00000300: cc60 3339 2ec9 5639 c91d f238 a211 3738
00000310: a73c d738 ed86 3739 75b6 3939 2057 ea38
00000320: a560 bd37 1ac5 a037 db5e b337 3d79 da37
00000330: ec8e 3c38 026f 6c37 472f 4e37 d832 9437
00000340: 661d d337 7509 6338 86c4 3437 b883 5037
00000350: 084e 8937 30dc d337 541d a838 d143 3437
00000360: 71d4 5d37 5c89 9a37 bcb2 6838 4461 ef38
00000370: 082a 7a37 76b8 9e37 dba2 3438 c5ab c438
00000380: b350 0939 5bfe b737 6eda 8237 5114 e237
00000390: f5bc 7038 52ac cb38 921f 8937 25da 7037
000003a0: a48f e637 c6b6 8638 662b 0539 b95a ec37
000003b0: f4b2 0b38 7c1b 2f38 0ac0 aa38 6e3c 2b39
000003c0: 12fb 6c38 6c55 8138 87a5 9e38 5e8b 1039
000003d0: 4ba7 4939 2a4f 9a38 6a49 b038 f404 f338
000003e0: 3ef6 4239 05b0 4c39
9.453055e-05 6.315399e-05 3.6829966e-05 4.310089e-05 7.166532e-05 9.734987e-05 5.2264688e-05 3.5090507e-05
5.04817e-05 0.000114220915 0.000116545765 9.581513e-05 8.009723e-05 0.00011786788 0.00019693832 0.00018813687
0.00020739561 0.000247295 0.00029297365 0.00030173408 0.0002529236 0.00028741374 0.00035309145 0.00038848704
0.00031065877 8.8367015e-05 8.5617525e-05 8.604623e-05 7.829493e-05 6.612954e-05 9.197225e-05 7.673783e-05
7.264302e-05 7.744427e-05 7.064283e-05 6.438757e-05 4.691739e-05 5.985022e-05 7.836339e-05 6.998244e-05
5.068373e-05 4.5063684e-05 6.716391e-05 8.641741e-05 7.580269e-05 5.9098576e-05 6.229895e-05 8.7527995e-05
9.7533346e-05 8.3897394e-05 7.652953e-05 0.00010930476 0.00011223358 8.636926e-05 6.221972e-05 9.02676e-05
0.00011476969 9.2737944e-05 4.961364e-05 3.713268e-05 0.00010184521 9.992506e-05 4.0481584e-05 1.9962288e-05
1.971653e-05 9.847674e-05 7.024898e-05 2.393573e-05 1.5548543e-05 1.9737763e-05 9.404753e-05 5.2975116e-05
2.7010368e-05 2.1806854e-05 2.8693066e-05 6.310465e-05 6.554978e-05 7.081362e-05 0.00010000217 0.000118253534
6.2219166e-05 6.87306e-05 8.8260196e-05 0.00012118492 0.00010922858 5.520742e-05 6.565074e-05 0.000104672275
0.00011678892 9.016239e-05 5.334604e-05 8.225739e-05 0.00011635761 0.00010151857 6.98875e-05 7.741773e-05
0.00011096404 0.00012167216 8.964734e-05 6.453346e-05 8.7839835e-05 6.879067e-05 6.6735905e-05 6.7751644e-05
6.987899e-05 8.77861e-05 8.569394e-05 8.807608e-05 7.9821264e-05 6.8056645e-05 8.946662e-05 8.253697e-05
8.0982354e-05 7.564364e-05 6.8672285e-05 7.333169e-05 7.142557e-05 8.018214e-05 9.232633e-05 9.891239e-05
6.775881e-05 8.21729e-05 9.5556185e-05 9.9462886e-05 9.672655e-05 0.00016126236 0.00021405214 0.00021926813
0.00020399291 0.00020216947 0.00016144323 0.00018716304 0.00018910036 0.00016467893 0.00016423575 0.000113377704
0.00012108203 0.00013750535 0.0001486964 0.0001469838 7.211653e-05 7.336352e-05 0.000100523284 0.00012252861
0.00012879219 6.5046086e-05 7.544485e-05 0.000110726236 9.802974e-05 9.183917e-05 4.311865e-05 4.437107e-05
5.109749e-05 6.0280803e-05 5.9473572e-05 5.8377864e-05 5.917124e-05 6.2597166e-05 6.323455e-05 6.510246e-05
7.7102864e-05 7.874164e-05 7.094583e-05 7.549317e-05 7.1988594e-05 7.4512194e-05 6.9832415e-05 6.4358144e-05
7.07658e-05 6.501832e-05 6.154299e-05 5.4706088e-05 5.5226566e-05 6.2331186e-05 4.6855093e-05 2.6229549e-05
2.9151308e-05 7.291956e-05 0.00014692539 0.00014211604 2.4643889e-05 3.056035e-05 9.823054e-05 0.00017378748
0.00013884903 1.974505e-05 3.0927225e-05 0.00013381394 0.00020363201 0.00012521818 2.021516e-05 5.0934843e-05
0.0001710683 0.00020483576 0.00011545007 4.364702e-05 0.00010263296 0.00017502504 0.00017710945 0.00011174218
2.257556e-05 1.9165269e-05 2.1382633e-05 2.6044081e-05 4.49558e-05 1.4092542e-05 1.2289564e-05 1.766665e-05
2.516685e-05 5.4129825e-05 1.0774593e-05 1.2428434e-05 1.6368009e-05 2.5255693e-05 8.016327e-05 1.0744626e-05
1.3222089e-05 1.8422194e-05 5.547957e-05 0.00011414525 1.4910947e-05 1.8920964e-05 4.3067015e-05 9.378003e-05
0.00013095401 2.1933743e-05 1.5598922e-05 2.695076e-05 5.739644e-05 9.7118915e-05 1.6346374e-05 1.43559055e-05
2.7485024e-05 6.423662e-05 0.00012700036 2.8175638e-05 3.3306846e-05 4.1748848e-05 8.142002e-05 0.00016330343
5.6500612e-05 6.1671104e-05 7.564859e-05 0.00013784828 0.00019231175 7.358038e-05 8.4060084e-05 0.000115880655
0.00018593014 0.00019520528

max_exp_avg_sq f4 [10, 1, 5, 5]
00000000: 526c c638 3778 8438 e079 1a38 3ac7 3438
00000010: 074b 9638 5028 cc38 4569 5b38 0153 1338
00000020: 50bc 5338 21a7 ef38 086a f438 5bf0 c838
00000030: dff9 a738 d62f f738 3a81 4e39 9b46 4539
00000040: 5678 5939 5fa7 8139 429a 9939 1032 9e39
00000050: d59a 8439 05b0 9639 221f b939 8db5 cb39
00000060: eb26 a339 ae51 b938 8f8d b338 b873 b438
00000070: 4532 a438 07af 8a38 3ae1 c038 4fee a038
00000080: ed57 9838 9369 a238 1526 9438 e86c 8738
00000090: 3c48 4538 901e 7c38 16cd a438 1c3c 9338
000000a0: 839c 5438 c302 3d38 5ada 8c38 a370 b538
000000b0: 42f8 9e38 880b 7838 7ea6 8238 3c8f b738
000000c0: d18a cc38 12f2 af38 7b7e a038 8c3a e538
000000d0: 36b9 eb38 717c b538 f49e 8238 ef92 bd38
000000e0: 5bf3 f038 93c2 c238 e53d 5038 8103 1c38
000000f0: a918 d638 3801 d238 013f 2a38 b074 a737
00000100: ed64 a537 c2b8 ce38 cb96 9338 16fd c837
00000110: 3e6e 8237 8692 a537 623b c538 8f9d 5e38
00000120: 5394 e237 dded b637 e4b1 f037 0d57 8438
00000130: c577 8938 c681 9438 42b8 d138 e2fe f738
00000140: a97b 8238 7623 9038 5518 b938 a924 fe38
00000150: a611 e538 848e 6738 f9ad 8938 8083 db38
00000160: 93ec f438 9115 bd38 e0bf 5f38 d4a8 ac38
00000170: f52e f538 aa77 d538 9190 9238 4072 a238
00000180: 5eb5 e838 3e2a ff38 dc0f bc38 d365 8738
00000190: a736 b838 b643 9038 91f4 8b38 e315 8e38
000001a0: ff8b 9238 ce19 b838 95b6 b338 7cb5 b838
000001b0: b765 a738 a2b9 8e38 07a0 bb38 b317 ad38
000001c0: 12d5 a938 dfa2 9e38 2704 9038 a7c9 9938
000001d0: 50ca 9538 7527 a838 08d0 c138 a4ac cf38
000001e0: bc19 8e38 ac16 ad38 2a70 c838 bb96 d038
000001f0: 29f5 ca38 5841 2939 1ea2 6039 e321 6639
00000200: cc51 5639 475e 5439 1649 2939 3241 4439
00000210: 3e49 4639 aaad 2c39 b336 2c39 31c5 ed38
00000220: 6bed fd38 502f 1039 63eb 1b39 aa1f 1a39
00000230: 443d 9738 bdda 9938 07d0 d238 067b 0039
00000240: 640c 0739 b888 8838 c87c 9f38 0e64 e838
00000250: 7c9d cd38 17ca c038 4cda 3438 131b 3a38
00000260: 8351 5638 05d6 7c38 4373 7938 c1da 7438
00000270: a32e 7838 9946 8338 ca9c 8438 9e87 8838
00000280: 49b2 a138 1922 a538 c1c8 9438 1652 9e38
00000290: 95f8 9638 4d79 9c38 8697 9238 04f8 8638
000002a0: 1968 9438 b598 8838 9653 8138 3774 6538
000002b0: 13a3 6738 cdb7 8238 4686 4438 8707 dc37
000002c0: f589 f437 d92a 9938 ad24 1a39 fc04 1539
000002d0: 59ba ce37 e15b 0038 88b9 ce38 5e93 3639
000002e0: 0198 1139 2ca2 a537 dbb7 0138 58c8 0c39
000002f0: 9141 5639 004d 0339 ba93 a937 a667 5638
00000300: f71d 3439 92cd 5739 c91d f238 053a 3738
00000310: f4ab d738 2f19 3839 7139 3a39 6887 ea38
00000320: a560 bd37 f339 a137 c88f b337 f1d3 da37
00000330: ec8e 3c38 792f 6d37 472f 4e37 d832 9437
00000340: adf4 d337 ef06 6438 86c4 3437 b883 5037
00000350: 084e 8937 79c6 d437 541d a838 d143 3437
00000360: 71d4 5d37 15ab 9a37 bcb2 6838 4461 ef38
00000370: 082a 7a37 76b8 9e37 dba2 3438 c5ab c438
00000380: b350 0939 3c22 b837 912a 8337 5114 e237
00000390: f5bc 7038 52ac cb38 921f 8937 25da 7037
000003a0: ca36 e737 cd0a 8738 864d 0539 b95a ec37
000003b0: f4b2 0b38 f948 2f38 61f1 aa38 5195 2b39
000003c0: 12fb 6c38 6c55 8138 fdb9 9e38 b3bc 1039
000003d0: 7bfb 4939 2a4f 9a38 6a49 b038 f404 f338
000003e0: 3ef6 4239 05b0 4c39
9.461552e-05 6.316642e-05 3.6829966e-05 4.310089e-05 7.166532e-05 9.734987e-05 5.231171e-05 3.5124835e-05
5.04817e-05 0.00011427538 0.000116545765 9.581513e-05 8.009723e-05 0.00011786788 0.00019693832 0.00018813687
0.00020739561 0.000247295 0.00029297365 0.00030173408 0.0002529236 0.00028741374 0.00035309145 0.00038854443
0.0003111878 8.8367015e-05 8.5617525e-05 8.604623e-05 7.829493e-05 6.612954e-05 9.197225e-05 7.673783e-05
7.264302e-05 7.744427e-05 7.064283e-05 6.457587e-05 4.7035734e-05 6.0109945e-05 7.8583296e-05 7.0207025e-05
5.06905e-05 4.5063684e-05 6.716391e-05 8.651733e-05 7.580269e-05 5.9138547e-05 6.229895e-05 8.7527995e-05
9.7533346e-05 8.3897394e-05 7.652953e-05 0.00010930476 0.000112401714 8.6539316e-05 6.2284904e-05 9.039591e-05
0.0001148942 9.286883e-05 4.964871e-05 3.719656e-05 0.000102089085 0.00010013807 4.0589835e-05 1.9962288e-05
1.971653e-05 9.857259e-05 7.0375936e-05 2.395971e-05 1.5548543e-05 1.9737763e-05 9.404753e-05 5.3075662e-05
2.7010368e-05 2.1806854e-05 2.8693066e-05 6.310465e-05 6.554978e-05 7.081362e-05 0.00010000217 0.000118253534
6.2219166e-05 6.87306e-05 8.8260196e-05 0.00012118492 0.00010922858 5.520742e-05 6.565074e-05 0.000104672275
0.00011678892 9.016239e-05 5.334604e-05 8.233046e-05 0.00011691257 0.00010178921 6.98875e-05 7.746043e-05
0.00011096404 0.00012167216 8.9674926e-05 6.456268e-05 8.7839835e-05 6.879067e-05 6.6735905e-05 6.7751644e-05
6.987899e-05 8.77861e-05 8.569394e-05 8.807608e-05 7.9821264e-05 6.8056645e-05 8.946662e-05 8.253697e-05
8.0982354e-05 7.564364e-05 6.8672285e-05 7.333169e-05 7.142557e-05 8.018214e-05 9.241706e-05 9.902686e-05
6.775881e-05 8.253506e-05 9.557635e-05 9.9462886e-05 9.677775e-05 0.00016141438 0.00021422698 0.00021947133
0.00020439102 0.00020253017 0.00016144323 0.00018716304 0.00018910036 0.00016467893 0.00016423575 0.000113377704
0.00012108203 0.00013750535 0.0001486964 0.0001469838 7.211653e-05 7.336352e-05 0.000100523284 0.00012252861
0.00012879219 6.510451e-05 7.604953e-05 0.00011081259 9.8044955e-05 9.1929156e-05 4.311865e-05 4.437107e-05
5.109749e-05 6.0280803e-05 5.9473572e-05 5.8377864e-05 5.917124e-05 6.2597166e-05 6.323455e-05 6.510246e-05
7.7102864e-05 7.874164e-05 7.094583e-05 7.549317e-05 7.1988594e-05 7.461254e-05 6.990046e-05 6.4358144e-05
7.07658e-05 6.513429e-05 6.1667684e-05 5.4706088e-05 5.5226566e-05 6.2331186e-05 4.6855093e-05 2.6229549e-05
2.9151308e-05 7.3035895e-05 0.00014700247 0.00014211604 2.4643889e-05 3.0603147e-05 9.857403e-05 0.00017411771
0.00013884903 1.974505e-05 3.0927225e-05 0.00013426074 0.00020433056 0.00012521818 2.021516e-05 5.1118106e-05
0.000171773 0.00020580579 0.00011545007 4.3684635e-05 0.00010284028 0.00017556989 0.00017759741 0.00011183211
2.257556e-05 1.921968e-05 2.1405416e-05 2.6086318e-05 4.49558e-05 1.4137354e-05 1.2289564e-05 1.766665e-05
2.5267096e-05 5.4365893e-05 1.0774593e-05 1.2428434e-05 1.6368009e-05 2.536479e-05 8.016327e-05 1.0744626e-05
1.3222089e-05 1.8437897e-05 5.547957e-05 0.00011414525 1.4910947e-05 1.8920964e-05 4.3067015e-05 9.378003e-05
0.00013095401 2.195045e-05 1.5636238e-05 2.695076e-05 5.739644e-05 9.7118915e-05 1.6346374e-05 1.43559055e-05
2.7562859e-05 6.4393134e-05 0.00012712748 2.8175638e-05 3.3306846e-05 4.1791212e-05 8.151192e-05 0.00016363456
5.6500612e-05 6.1671104e-05 7.56867e-05 0.00013803206 0.00019262538 7.358038e-05 8.4060084e-05 0.000115880655
0.00018593014 0.00019520528

exp_avg f4 [10]
00000000: 2954 a43b 6897 7fb9 c4ae 89ba 947b a63a
00000010: 94db 433a 03c7 9e3b 320e 41ba 427b 31ba
00000020: 56cb 2ebb 2fc4 04bb
0.0050149155 -0.00024375098 -0.0010504355 0.0012701624 0.00074713794 0.0048455014 -0.0007364481 -0.0006770381
-0.002667149 -0.0020258536

exp_avg_sq f4 [10]
00000000: 3f50 bf38 5bad 9137 1d24 3c38 7820 aa37
00000010: 2b26 d837 af52 8638 eb71 8137 9666 1d38
00000020: b139 3538 769a 0e38
9.122537e-05 1.7366072e-05 4.4856326e-05 2.0280699e-05 2.576698e-05 6.405019e-05 1.5431046e-05 3.7527258e-05
4.3207492e-05 3.399929e-05

max_exp_avg_sq f4 [10]
00000000: 3f50 bf38 5bad 9137 1d24 3c38 7820 aa37
00000010: 2b26 d837 af52 8638 eb71 8137 7f93 1d38
00000020: b139 3538 769a 0e38
9.122537e-05 1.7366072e-05 4.4856326e-05 2.0280699e-05 2.576698e-05 6.405019e-05 1.5431046e-05 3.7569083e-05
4.3207492e-05 3.399929e-05
