saved/models/Mnist_LeNet/0502_095806/checkpoint-epoch3.pth (torch, 362006 bytes, 32 tensors)

conv1.weight f4 [10, 1, 5, 5]
0	0xbe302d2e	-0.17204735
1	0xbdff9385	-0.12479309
2	0xbe55a6e2	-0.20864442
3	0xbd2d0f5a	-0.04225097
4	0xbe6d2b00	-0.23160934
5	0x3df6c59c	0.1204941
6	0xbe9978a6	-0.2997486
7	0xbed71fd8	-0.42016482
8	0xbebae7fb	-0.36505112
9	0xbd87e2fa	-0.06635089
10	0x3d3d486e	0.046211652
11	0x3e11f3f4	0.14253217
12	0xbe294725	-0.16531046
13	0xbe2ec950	-0.17068982
14	0xbd83b2d5	-0.06430594
15	0x3de9eda8	0.114222825
16	0x3d455d88	0.0481849
17	0x3eaadb82	0.33370596
18	0x3e02da9a	0.12778702
19	0x3e548b56	0.20756277
20	0x3e764b30	0.2405212
21	0x3e5942a3	0.21216826
22	0x3e8963fb	0.26834092
23	0x3ecffc22	0.4062205
24	0x3d77e888	0.060524493
25	0x3dcf8122	0.10132052
26	0xbc4041d7	-0.011734447
27	0x3e7342eb	0.23755996
28	0x3e54e7ce	0.20791551
29	0xbe708d9b	-0.23491518
30	0x3e3e7974	0.18601018
31	0x3e1c0145	0.1523486
32	0x3e3e9fab	0.18615596
33	0x3e32f96c	0.1747796
34	0x3dfc1c83	0.12310126
35	0xbdad30bf	-0.08456563
36	0xbe28b1f8	-0.1647414
37	0x3c5936b6	0.013257673
38	0xbd278c09	-0.040905032
39	0x3d2b43b4	0.041812614
40	0xbe0643fd	-0.13111873
41	0xbdd3ac61	-0.10335613
42	0xbb8a791c	-0.004225863
43	0x3e7cd185	0.246893
44	0x3d85e135	0.065370955
45	0xbd79f235	-0.061022002
46	0xbc50018f	-0.012695684
47	0x3d0ff4c6	0.035145544
48	0x3e645a46	0.22300062
49	0x3e6e8e71	0.23296525
50	0x3e501c50	0.203233
51	0x3e372f2a	0.17889085
52	0x3e0b0960	0.13577795
53	0x3df28208	0.11841208
54	0xbdd59ae2	-0.10429932
55	0x3d174436	0.036930285
56	0x3d46cc21	0.048534516
57	0x3e601632	0.21883467
58	0xbdc84ee5	-0.09780673
59	0xbea43c50	-0.32077265
60	0x3e5f13ca	0.21784893
61	0x3ea37249	0.3192313
62	0xbe02b597	-0.12764584
63	0xbe9c6b5a	-0.30550653
64	0xbe4c2976	-0.19937691
65	0x3e20f1ff	0.15717314
66	0x3cbd9587	0.02314259
67	0xbe32a469	-0.1744553
68	0xbecdaffe	-0.40173334
69	0x3d3eb796	0.0465618
70	0x3e909ec4	0.2824613
71	0x3dadd28a	0.08487423
72	0xbebe29f9	-0.37141398
73	0xbeb1ff9c	-0.34765327
74	0x3da5ca4d	0.080952264
75	0x3d59b529	0.053151283
76	0x3ded884e	0.11598264
77	0xbde45722	-0.11149432
78	0x3dca4a99	0.098775096
79	0x3e9090d3	0.28235492
80	0x3a34bb76	0.0006894389
81	0xbd4f6037	-0.050628867
82	0x3db79b45	0.08965162
83	0x3dfb13e6	0.12259655
84	0x3d5198ea	0.05117122
85	0xbe809ab9	-0.25118044
86	0xbe1f702f	-0.15570138
87	0x3e880b8e	0.26571316
88	0x3e7ba449	0.24574389
89	0x3e0c99f6	0.13730606
90	0xbe745d58	-0.23863733
91	0x3e5a84a4	0.21339661
92	0x3e4e08a8	0.2012049
93	0x3e7bc98a	0.245886
94	0xbda915c8	-0.082561076
95	0x3e1cd791	0.15316607
96	0x3e83f0c4	0.25769627
97	0x3e144d79	0.14482678
98	0x3de3c6d3	0.11121907
99	0xbdf3ff5c	-0.1191394
100	0x3e45ef4a	0.19329563
101	0xbe1be400	-0.15223694
102	0x3c6c1994	0.014410395
103	0xbe0d8287	-0.13819323
104	0xbdd6191e	-0.104540095
105	0xbd6805f1	-0.05664629
106	0x3c680f85	0.014163856
107	0x3e72d2ce	0.23713228
108	0x3ddf7e13	0.109127186
109	0xbdbacb98	-0.09120864
110	0x3dc39f3e	0.095518574
111	0xbe2da2bb	-0.16956608
112	0x3dd13a68	0.10216218
113	0xbcb7d885	-0.022442112
114	0xbd6c09c5	-0.057626504
115	0xbd8b26b4	-0.067944914
116	0xbe6dd86d	-0.23227091
117	0x3b816936	0.0039493097
118	0x3e0402ae	0.12891647
119	0x3e8c9f0d	0.27465096
120	0xbd7d0809	-0.06177524
121	0x3e079bac	0.13242978
122	0x3e63173f	0.22176836
123	0xbd8a5270	-0.06754005
124	0x3e6a6879	0.22891416
125	0x3df0817f	0.117434494
126	0x3ea999b8	0.3312509
127	0x3e8810f9	0.2657545
128	0x3e50ea31	0.20401837
129	0x3ea180b9	0.3154352
130	0x3d87cce1	0.066308744
131	0x3e493dd8	0.19652498
132	0x3dfe00be	0.12402485
133	0xbd28f892	-0.04125268
134	0x3d93bc4d	0.0721365
135	0xbe564612	-0.20925167
136	0x3b911c8e	0.004428453
137	0x3d06fac5	0.032953996
138	0x3d822334	0.06354371
139	0x3d0c6357	0.034274425
140	0xbe5596b0	-0.20858264
141	0xbe8df6e2	-0.2772742
142	0xbdda7c1d	-0.10668204
143	0x3e00620e	0.12537405
144	0x3de5be9e	0.11217998
145	0xbe987ff6	-0.29785126
146	0xbed5c8d8	-0.41754794
147	0xbe94bf6c	-0.29052293
148	0xbec4ba41	-0.3842335
149	0xbe6803f7	-0.22657762
150	0xbe5aff02	-0.2138634
151	0xbe4532b6	-0.19257626
152	0xbdf191f1	-0.11795414
153	0x3baac049	0.0052109105
154	0xbbbf5bf6	-0.00583982
155	0x3d637275	0.055529077
156	0xbe5f57e5	-0.21810873
157	0xbdaa9fdf	-0.08331274
158	0xbe82b219	-0.25526503
159	0x3ddf38a7	0.108994775
160	0x3d3d7621	0.046255235
161	0x3e7fb961	0.2497306
162	0xbde14a2b	-0.110004745
163	0x3e557c3f	0.20848177
164	0x3e7e6f17	0.24847065
165	0x3e630bd7	0.22172485
166	0x3e24b80c	0.16085833
167	0x3e841acb	0.2580169
168	0x3e48e478	0.19618404
169	0x3e4b5c1a	0.19859353
170	0xbd847f92	-0.064696446
171	0xbe2039be	-0.15647027
172	0xbdad5894	-0.084641606
173	0xbd6578b6	-0.056023322
174	0xbe4c65df	-0.19960736
175	0xbe5e58c8	-0.21713555
176	0xbe9cbd7c	-0.30613315
177	0xbca09f42	-0.01960719
178	0x3e87df0d	0.26537362
179	0x3dc050c3	0.09390404
180	0xbe729a8e	-0.2369177
181	0xbe4ce713	-0.20010023
182	0x3e47c3fd	0.19508357
183	0xbb0fa909	-0.002192082
184	0xbca09072	-0.019600127
185	0xbe85b787	-0.26116583
186	0xbe7858bf	-0.24252604
187	0x3e2d88bb	0.1694669
188	0x3e9317fb	0.28729233
189	0xbdb2c555	-0.08729044
190	0xbe9e194d	-0.30878678
191	0xbe886f8d	-0.26647606
192	0x3e0a7f04	0.13525015
193	0x3e96383c	0.29339778
194	0xbd38966b	-0.045065325
195	0xbe7f3777	-0.24923502
196	0x3c41f5ba	0.011838371
197	0xbdb77d2f	-0.08959424
198	0x3e98eee5	0.29869762
199	0x3e4ad41f	0.1980748
200	0x3c94f4a5	0.018183062
201	0xbcc94bc8	-0.024572268
202	0xbe0578ef	-0.13034414
203	0xbebb93fd	-0.36636344
204	0xbedae0ee	-0.42749733
205	0xbaa55fe8	-0.0012617083
206	0xbe3ab32c	-0.18232411
207	0xbe977d88	-0.2958796
208	0xbe981d2b	-0.29709753
209	0x3d261005	0.04054262
210	0xbe549053	-0.2075818
211	0xbea46c9a	-0.32114106
212	0xbe331c68	-0.17491305
213	0xbe357b59	-0.17722835
214	0x3e3f4f47	0.18682586
215	0xbe9cac60	-0.30600262
216	0xbe086ee5	-0.13323553
217	0xbe07163a	-0.13192073
218	0x3e1b280f	0.15152
219	0x3e4325a6	0.1905733
220	0xbef202da	-0.472678
221	0xbe5d1381	-0.21589471
222	0x3e32b215	0.17450745
223	0x3dbf5e30	0.09344137
224	0x3e62c654	0.22145969
225	0xbe7fabd5	-0.24967892
226	0xbe4c3f87	-0.19946109
227	0xbeb3a8fd	-0.35089865
228	0xbd5bfb11	-0.053706232
229	0x3d452fa9	0.048141155
230	0xbe1a8935	-0.15091403
231	0xbe0ab079	-0.13543881
232	0xbe829bf1	-0.255096
233	0x3cd592f2	0.026071046
234	0x3dbec16a	0.093142346
235	0xbe8f3c28	-0.27975583
236	0x3c4755f9	0.012166494
237	0xbcc0b560	-0.023523986
238	0xbdd159e2	-0.10222222
239	0x3e6756d8	0.22591722
240	0xbd39c94d	-0.04535799
241	0xbd58a920	-0.052895665
242	0xbd9bbdba	-0.07604547
243	0x3dfbb13b	0.122896634
244	0x3e9314d5	0.2872683
245	0x3d978f8d	0.07400427
246	0xbdf0c5cc	-0.11756477
247	0x3c267b8c	0.010161292
248	0x3e87e541	0.26542094
249	0x3e83e542	0.25760847

conv1.bias f4 [10]
0	0x3e64efbc	0.22357076
1	0xbd098e38	-0.033582896
2	0x3e16c7e9	0.14724697
3	0xbe2d919f	-0.16950081
4	0x3dd204c2	0.10254814
5	0x3e00aeb7	0.12566648
6	0x3e133ed7	0.1437944
7	0xbe40d5cd	-0.18831559
8	0x3e47878d	0.19485302
9	0x3e1a22ff	0.15052412

conv2.weight f4 [20, 10, 5, 5]
0	0x3d553586	0.052052997
1	0x3b7c2c03	0.0038478381
2	0xbd9ed742	-0.07755901
3	0xbc1584cf	-0.009125902
4	0xbd72771c	-0.059195623
5	0x3df14057	0.1177985
6	0x3e1b5a79	0.15171231
7	0x3d6e1dde	0.058133952
8	0xbc66f2a5	-0.014095937
9	0xbe0162cc	-0.12635344
10	0xbbbc5f5e	-0.0057486733
11	0x3db0bfd0	0.08630335
12	0x3cf25621	0.029582085
13	0xbdb26190	-0.08710015
14	0xbd9b3c72	-0.075798884
15	0xbd06d7b5	-0.032920558
16	0xba689371	-0.0008872068
17	0xbd8f60b6	-0.07000868
18	0xbdd24a6e	-0.102681026
19	0xbdfc5caa	-0.12322362
20	0x3df30f09	0.11868102
21	0xbdc928b2	-0.09822215
22	0xbdc1b01e	-0.0945742
23	0xbe1c119b	-0.15241091
24	0xbd7a5c8c	-0.061123416
25	0xbd7ee310	-0.062228262
26	0xbdb9b3d8	-0.090675056
27	0xbd2eed49	-0.04270676
28	0xbd12d20a	-0.03584484
29	0xbc35446c	-0.011063676
30	0x3d87636b	0.06610759
31	0xbd5bf90e	-0.053704314
32	0x3d2db301	0.04240704
33	0x3b90e4c7	0.0044218036
34	0x3c499470	0.012303457
35	0x3dc33981	0.095324524
36	0x3d6a0c92	0.057140894
37	0x3d284140	0.041077852
38	0x3d9e7ec5	0.07739023
39	0x3ccfbcb7	0.025358541
40	0x3cfa32b8	0.030541763
41	0x3dce7259	0.10080404
42	0x3d9b7947	0.07591491
43	0x3d339738	0.043845385
44	0xbd0e3dc7	-0.034726884
45	0xbd501ad9	-0.050806854
46	0xbce8518e	-0.0283592
47	0xbd5b48a2	-0.053536065
48	0xbc79bc24	-0.01524261
49	0x3bb58139	0.005539086
50	0x3cb80608	0.022463813
51	0x3dc31664	0.09525755
52	0x3d05c0ae	0.032654457
53	0x3df1d2e3	0.118078016
54	0xbd3fea84	-0.04685451
55	0xbdbad890	-0.09123337
56	0xbddc6c1e	-0.10762809
57	0xbd0c9cad	-0.034329105
58	0x3d6277b8	0.055289954
59	0xbcb2bca1	-0.02181846
60	0xbe1ad591	-0.15120532
61	0xbe0f23a6	-0.13978443
62	0x3ca465ce	0.020068076
63	0x3d0a7657	0.033804264
64	0x3c917e7e	0.017760511
65	0xbd8046ba	-0.0626349
66	0x3a076654	0.00051650894
67	0x3da5ee91	0.081021436
68	0xbd51218b	-0.05105738
69	0x3b4c611f	0.0031185818
70	0x3d37145f	0.04469716
71	0xbaf519a8	-0.0018699663
72	0x3d89c12d	0.067262985
73	0x3cf7851b	0.030214837
74	0x3d341026	0.043960713
75	0x3ca89cda	0.020582605
76	0xbdb6877c	-0.0891256
77	0xbdc7c231	-0.09753836
78	0x3da245ac	0.07923445
79	0x3d77f9cb	0.060540956
80	0x3c0fa9b3	0.008768487
81	0x3c49b650	0.012311533
82	0xbd46ba0f	-0.048517283
83	0xbd40c5d1	-0.047063652
84	0xbd1ee983	-0.038796913
85	0x3bd2b417	0.00643016
86	0xbce4d5d0	-0.027933985
87	0x3ce11909	0.027477758
88	0x3d83c9b6	0.06434958
89	0x3d23e452	0.040012665
90	0x3bc1bb7b	0.005912242
91	0x3cca3f10	0.024688274
92	0x3dbb8a9f	0.09157299
93	0xbb2e54ea	-0.0026600906
94	0x3cb0d0e7	0.021583987
95	0x3c952fc1	0.018211247
96	0x3c4dbffb	0.012557979
97	0x3d4ef9a3	0.05053104
98	0x3cf5377d	0.029933685
99	0xbcf19af6	-0.029492836
100	0x3bbf9f4b	0.0058478466
101	0xbcb830e7	-0.022484256
102	0xbdaee498	-0.085396945
103	0xb9722fec	-0.00023096771
104	0x3bc1b5eb	0.005911579
105	0x3deaac0f	0.11458599
106	0x3d6fd1a8	0.058549553
107	0x3d367558	0.0445455
108	0x3cc682df	0.024232326
109	0xbd91dc83	-0.071221374
110	0x3dc6f218	0.097141445
111	0x3d83a4d2	0.06427921
112	0x3da43fec	0.08020005
113	0x3d51e2f3	0.051241826
114	0xbd3efe20	-0.04662907
115	0xbba12ed9	-0.0049189148
116	0x3d8dec01	0.0692978
117	0x3d4f91b2	0.050676055
118	0xbd2d1019	-0.04225168
119	0xbca8abaa	-0.020589668
120	0xbc8bce19	-0.017066048
121	0x3b2e7dae	0.0026625204
122	0x3d122ac5	0.03568532
123	0x3b07e7c0	0.00207375
124	0xbdd932c5	-0.10605387
125	0xbe164d4a	-0.14677921
126	0xbe4f18c8	-0.20224297
127	0xbdeb93cb	-0.11502799
128	0xbde541de	-0.11194204
129	0xbdb5de7b	-0.088803254
130	0x3d9e51ad	0.07730422
131	0xbc68f2f0	-0.014218077
132	0xbdcd9774	-0.10038653
133	0xbca92935	-0.020649532
134	0xbd239910	-0.039940894
135	0x3d91fb13	0.07127967
136	0x3cc0be4f	0.023528246
137	0x3d3d2635	0.046179015
138	0xbce5b7b5	-0.0280417
139	0xbdfeafad	-0.12435851
140	0x3e11a376	0.14222512
141	0x3d108c9c	0.035290346
142	0xbd113a75	-0.03545614
143	0x3d2cefbe	0.042220823
144	0xbda542c1	-0.08069373
145	0xbd250919	-0.04029188
146	0x3d00923f	0.03138947
147	0xbd5e7a20	-0.054315686
148	0x3d3e3d10	0.046444952
149	0x3c682f85	0.014171486
150	0x3d9542a7	0.072881036
151	0xbc9ba03d	-0.018997306
152	0xbdccf98a	-0.10008533
153	0x3ca49476	0.020090323
154	0xbcfe0e1b	-0.031012585
155	0x3b74fa71	0.003738072
156	0x3abc6798	0.0014374135
157	0x3d10e0ac	0.035370514
158	0xbb984f55	-0.004648129
159	0x3cc84262	0.024445716
160	0x3d479e63	0.048735034
161	0x3d4835a6	0.048879288
162	0x3d7255e8	0.059163958
163	0xbd40d814	-0.04708107
164	0xbda0e4a2	-0.07856108
165	0xbd71ab93	-0.059001517
166	0x3d7860ad	0.060639072
167	0x3da4f4bf	0.08054494
168	0x3c4fa89f	0.01267448
169	0x3c950015	0.018188516
170	0xbd518780	-0.051154613
171	0x3b772baf	0.0037715246
172	0xbbfb81f2	-0.007675403
173	0xbc0c1bbd	-0.008551535
174	0xbdc5f04a	-0.09664972
175	0xbd1df46a	-0.03856317
176	0xbda2cc81	-0.07949162
177	0xbd949db8	-0.07256645
178	0x3da06c46	0.078331515
179	0x3cb2cdf4	0.021826722
180	0x3b21e3b4	0.0024702372
181	0xbd88e0aa	-0.06683476
182	0xbdb3468f	-0.08753692
183	0xba2a89ba	-0.0006505508
184	0x3d8e4d21	0.06948305
185	0xbe017b25	-0.12644632
186	0xbe053185	-0.13007171
187	0xbd7f8bf7	-0.06238934
188	0x3cacfef5	0.021117667
189	0x3d317449	0.04332379
190	0xbda20ed5	-0.07912985
191	0xbe12f580	-0.14351463
192	0x3c988c20	0.018621504
193	0x3de3d4d0	0.11124575
194	0xbc861e64	-0.016371913
195	0xbca9093e	-0.02063429
196	0xbd34e1cb	-0.044160645
197	0x3d2bbde7	0.041929152
198	0x3c8c2241	0.017106177
199	0xbc1dc01a	-0.00962832
200	0x3d31cf3e	0.043410532
201	0xbdd7a9f0	-0.1053046
202	0x3c948e4b	0.018134257
203	0x3d1acc7e	0.037792675
204	0x3e14ea30	0.1454246
205	0xbe0f6a26	-0.14005336
206	0xbdeeabb9	-0.11653847
207	0xbd054b2e	-0.0325424
208	0xbd497831	-0.04918689
209	0x3ddea105	0.10870556
210	0xbe2e04a2	-0.16993955
211	0xbe06cced	-0.1316411
212	0xbe02632b	-0.12733142
213	0xbdd2ba07	-0.10289388
214	0x3ce0dc10	0.027448684
215	0x3c15bfab	0.0091399355
216	0xbc59594c	-0.013265919
217	0xbc9d6204	-0.019211777
218	0x3c1c28c3	0.009531203
219	0x3df0e8f1	0.1176318
220	0x3e33bd5e	0.17552707
221	0x3d945c56	0.07244174
222	0x3ccccbd3	0.024999535
223	0x3e0beb89	0.13664068
224	0x3bb1ec2d	0.0054297657
225	0xbc980b6c	-0.018560134
226	0xbdf93ec9	-0.121701784
227	0x3c49867a	0.012300128
228	0x3d89a12e	0.06720196
229	0x3d563b97	0.052302923
230	0xbdefdf04	-0.11712459
231	0xbdf34de6	-0.11880092
232	0x3c01d3c9	0.007924029
233	0x3d927b03	0.07152369
234	0x3cafa2c6	0.021439921
235	0xbe1b98a7	-0.15194951
236	0xbda2240f	-0.07917034
237	0xbcc8ca14	-0.02451042
238	0x3d662c12	0.056194372
239	0x3d419ffd	0.047271717
240	0xbc256a5b	-0.010096158
241	0x3c3a118b	0.011356722
242	0x3d18ec7a	0.037334897
243	0x3d8d2696	0.06892125
244	0xbd9dee5a	-0.077114776
245	0x3cc69610	0.024241477
246	0xbd107a15	-0.035272676
247	0x3d627ae6	0.055292986
248	0x3d8286bc	0.06373355
249	0x3c0fa12a	0.008766452
250	0x3d0c252a	0.03421513
251	0x3d04bedb	0.032408576
252	0x3d6b061f	0.057378884
253	0xbd953d20	-0.07287049
254	0xbd518fe1	-0.051162604
255	0x3dd5525f	0.10416102

conv2.bias f4 [20]
0	0x3ca1f1b2	0.01976857
1	0xbd532451	-0.051548306
2	0x3c1879ff	0.00930643
3	0xbc7d8dad	-0.015475673
4	0x3d0d0024	0.034423962
5	0x3c88b6a3	0.01668865
6	0xbc01b34d	-0.007916284
7	0x3d8baab9	0.06819672
8	0x3cec064c	0.028811596
9	0x3daf3c71	0.0855645
10	0xbd2a7e21	-0.041624192
11	0x3d8c7544	0.06858304
12	0xbd58486a	-0.052803434
13	0x3b850dea	0.0040604966
14	0x3d228e32	0.03968639
15	0x3d200253	0.039064717
16	0xbcc9ca53	-0.024632609
17	0xbd169f06	-0.03677275
18	0xbcc03540	-0.023462892
19	0x3d88cadc	0.06679317

fc1.weight f4 [50, 320]
0	0x3dc9cf7b	0.09854027
1	0x3cb3e472	0.021959517
2	0xbd224653	-0.039617848
3	0x3d983d4e	0.07433568
4	0x3e048ea7	0.12945043
5	0x3d378edb	0.044813972
6	0x3c8f9084	0.017524965
7	0x3d765d9e	0.060147874
8	0x3d224729	0.039618645
9	0xbd994c4f	-0.07485258
10	0xbdc58958	-0.09645337
11	0xbd3a702d	-0.045517135
12	0xbbae7bcd	-0.005324817
13	0xbd01b4a3	-0.03166641
14	0x3cc85195	0.024452964
15	0xbc76fcf7	-0.01507496
16	0x3d153790	0.03642994
17	0xbcb65d42	-0.022261266
18	0x3cab531f	0.020913659
19	0x3d899113	0.06717124
20	0xbd670b52	-0.05640728
21	0xbd4f028a	-0.05053953
22	0x3d397330	0.045275867
23	0xbd5e0c87	-0.054211166
24	0x3ceec3bc	0.029146068
25	0xbd03806f	-0.032104906
26	0x3d111d74	0.03542848
27	0x3d6de8ca	0.058083333
28	0x3b30f819	0.0027003346
29	0xbd468598	-0.04846725
30	0xbdc5d1f7	-0.09659188
31	0xbc06e10f	-0.008232369
32	0x3d1b5d92	0.037931032
33	0x3c3f9ca6	0.011695063
34	0xbd319a96	-0.043360315
35	0xbd4ea270	-0.05044788
36	0xbc9fc2ae	-0.01950201
37	0xbc857af7	-0.016293986
38	0xbc9beb1d	-0.01903301
39	0xbd5f047f	-0.054447647
40	0x3bb71bc9	0.005588029
41	0x3d5861b2	0.052827545
42	0xbd378e40	-0.044813395
43	0xbcdbcc9e	-0.026830968
44	0x3de47645	0.111553706
45	0x3d2f9802	0.042869575
46	0xbcd935e1	-0.02651495
47	0xbc747109	-0.014919528
48	0xbd47b52b	-0.04875676
49	0x3d2270da	0.039658405
50	0xbdf160e0	-0.117860556
51	0xbc702477	-0.014657131
52	0x3d336570	0.04379791
53	0xbcd0028e	-0.025391843
54	0x3a97ee36	0.0011591378
55	0x3b64c6b2	0.003490847
56	0xbc304032	-0.010757493
57	0xbd3ca674	-0.04605718
58	0x3d9d69bf	0.07686185
59	0x3d9dade0	0.0769918
60	0xbd44b0b8	-0.048020095
61	0x3d90f017	0.070770435
62	0x3d0fda27	0.035120156
63	0x3c8b3bb7	0.016996248
64	0xbd4f57b3	-0.050620746
65	0xbd4b89ea	-0.049692072
66	0xbd99a3f6	-0.07501976
67	0x3cf843df	0.030305801
68	0xbd0377e7	-0.03209677
69	0xbdc9796c	-0.098376125
70	0x3d6b6afb	0.05747507
71	0x3df9975d	0.121870734
72	0x3d99b815	0.07505814
73	0xbd257c28	-0.040401608
74	0xbd44b8e8	-0.048027903
75	0xbd4ee4fa	-0.050511338
76	0x3d927771	0.07151688
77	0x3b825cd9	0.0039783535
78	0xbde79ef3	-0.11309614
79	0xbdbe7af0	-0.09300792
80	0x3d5fc4db	0.054631095
81	0x3ac9ac44	0.0015386422
82	0xbc1b3ee9	-0.009475448
83	0x3ccd1702	0.025035385
84	0x3c185d10	0.009299532
85	0xbe061021	-0.1309209
86	0xbd6dd6c1	-0.058066133
87	0xbd5178cd	-0.051140595
88	0xbdf250f6	-0.11831848
89	0x3c682382	0.014168622
90	0xbbc44cde	-0.0059906086
91	0xbde62227	-0.11236983
92	0xbb3ef245	-0.0029136103
93	0x3d0e70b2	0.034775443
94	0x3ce9a9e4	0.028523393
95	0xbe050c35	-0.12992938
96	0x3d002a4e	0.031290345
97	0x3dd5f800	0.10447693
98	0x3d457a5c	0.048212394
99	0x3d1c3d31	0.038144294
100	0xbd36566e	-0.04451602
101	0xbc7c374a	-0.015394041
102	0xbb8ba42b	-0.0042615137
103	0xbe00903f	-0.12555026
104	0xbddf8ff9	-0.109161325
105	0xbc6b7ec1	-0.014373482
106	0x3d1e35a6	0.038625382
107	0xbd87fdf4	-0.066402346
108	0x3d74048c	0.05957465
109	0x3c871c8b	0.016493103
110	0xbd3bb24c	-0.045824334
111	0xbc8f341f	-0.017480908
112	0x3d396b10	0.04526812
113	0xbbb3b2eb	-0.005483975
114	0xbca0e5f6	-0.019640904
115	0x3db6c0f2	0.0892352
116	0x3c052120	0.008125573
117	0xbd7fa87e	-0.062416546
118	0xbb890a0c	-0.004182106
119	0x3d3c03e0	0.045902133
120	0xbbb6388f	-0.0055609415
121	0x3cbb4a42	0.022862557
122	0x3cbdf2b4	0.023187019
123	0x3d876b55	0.06612269
124	0x3c4eefb9	0.0126303965
125	0xbd1c4181	-0.038148407
126	0xbd294c6c	-0.041332647
127	0xbcab07ba	-0.020877708
128	0xbd08d2f4	-0.033404306
129	0xbd022458	-0.03177294
130	0xbc1c5202	-0.009541037
131	0xbd0576e9	-0.032584105
132	0xbc2d905e	-0.010593502
133	0x3c63e9c3	0.013910714
134	0xbd881d70	-0.0664624
135	0xbd1a9fbe	-0.03775
136	0x3bbe1859	0.0058012423
137	0x3d61190c	0.054955527
138	0xbd2d0601	-0.042242054
139	0xbcf333c8	-0.029687777
140	0x3d1e7ff4	0.038696244
141	0x3def3954	0.11680856
142	0x3c25af42	0.0101125855
143	0xbc8e750f	-0.017389802
144	0x3d2c8e1d	0.042127717
145	0xbd9bcd61	-0.07607532
146	0xbd246379	-0.040133927
147	0x3dd1cd4b	0.10244235
148	0x3d8e175c	0.06938049
149	0xbe067a6c	-0.13132638
150	0xbc13daae	-0.009024305
151	0x3dbb74fb	0.09153172
152	0x3c082806	0.008310324
153	0xbdbd62d6	-0.09247367
154	0xbde99131	-0.11404646
155	0xbc80ce3c	-0.01572334
156	0xbc9bd0a7	-0.019020392
157	0xbc73573b	-0.01485234
158	0xbe1488da	-0.1450533
159	0xbdba5ad6	-0.09099357
160	0xbd66d50c	-0.05635552
161	0xbd69d215	-0.057085115
162	0xbd861a64	-0.06548002
163	0xbc364841	-0.011125625
164	0x3b6980bd	0.0035629713
165	0x3c1c445a	0.009537781
166	0xbd962eff	-0.073331825
167	0xbcc794b4	-0.0243629
168	0x3d631f2b	0.055449646
169	0x3c9fcbe6	0.019506406
170	0xbdf7649a	-0.12079735
171	0xbb65fe6b	-0.0035094272
172	0x3d55deca	0.05221442
173	0x3d9d8981	0.076922424
174	0xbc32d805	-0.010915761
175	0xbc2a9ded	-0.010413629
176	0x3d075491	0.033039633
177	0x3cf2574f	0.029582648
178	0xbc1e7702	-0.009671928
179	0x3c237b19	0.009978079
180	0xbe091936	-0.13388523
181	0xbd96b539	-0.07358784
182	0xbe0608af	-0.1308925
183	0x3d1beddf	0.03806865
184	0xbd8901a8	-0.06689769
185	0x3be2c2ab	0.006920179
186	0xbca7155a	-0.020395923
187	0xbdaec24d	-0.08533154
188	0xbd7eb88e	-0.062187724
189	0x3dae53d3	0.08512082
190	0x3c5770ff	0.013149499
191	0xbe19c77d	-0.15017505
192	0x3d1a62ee	0.037692003
193	0xbb15960e	-0.0022825035
194	0xbd74b2fa	-0.059740998
195	0x3c9fe56a	0.019518573
196	0x3a0af698	0.00053010276
197	0x3cfe982f	0.031078426
198	0xbd33f1e1	-0.043931846
199	0x3d47622d	0.048677612
200	0x3da097ca	0.078414515
201	0x3bdcb668	0.0067356117
202	0xbcaeda38	-0.02134429
203	0x3c9a2a6f	0.018819062
204	0xbcf23497	-0.029566092
205	0x3b5260a2	0.0032101055
206	0xbcf8558c	-0.03031423
207	0xbd5425a8	-0.051793724
208	0xbd319a47	-0.04336002
209	0xbcfc5f63	-0.030807203
210	0x3bac1487	0.0052514705
211	0xbc5af496	-0.013363978
212	0xbd53f080	-0.05174303
213	0xbc326a94	-0.010889668
214	0xbd56b613	-0.052419733
215	0xbd093fc2	-0.03350807
216	0x3d1dcb8a	0.038524188
217	0x3c18b3a2	0.009320172
218	0xbd9ed751	-0.07755912
219	0x3d4e1cdd	0.050320495
220	0x3cc2cfc7	0.023780717
221	0xbca735b1	-0.020411344
222	0x3d5dd8ec	0.05416195
223	0x3caf2d48	0.021383896
224	0x3b1da822	0.0024056514
225	0x3ca9147d	0.020639652
226	0x3b89098f	0.0041820477
227	0x3d0d0f8c	0.034438655
228	0x3cd441b6	0.02591024
229	0x3d643391	0.05571324
230	0x3d526839	0.051368926
231	0xbd1e9a9d	-0.03872167
232	0x3c5e0930	0.013551995
233	0x3d6400e6	0.05566492
234	0xbd272118	-0.040803045
235	0xbc573c92	-0.013137
236	0x3b6b3fda	0.0035896213
237	0x3d4822fa	0.04886148
238	0x3ce96428	0.028490141
239	0x3cb6b31f	0.022302208
240	0xbd5cc30d	-0.053896952
241	0xbcb58d8e	-0.022162225
242	0x3c86709e	0.016411122
243	0xbcb96bf0	-0.022634476
244	0x3ca59714	0.020213641
245	0xbcd484ac	-0.02594217
246	0x3d87709c	0.066132754
247	0xbc999189	-0.018746154
248	0xbd6e6c88	-0.058208972
249	0x3d31d248	0.04341343
250	0xbcbcacd4	-0.02303163
251	0x3c7efb8c	0.015562903
252	0x3c9a36c3	0.01882494
253	0x3debabc7	0.11507373
254	0xbad2dcc5	-0.0016087523
255	0xbd55184a	-0.052025117

fc1.bias f4 [50]
0	0x3cb34732	0.021884535
1	0xbcc3eddd	-0.023917133
2	0x3d8a9983	0.06767561
3	0x3daf1d53	0.08550515
4	0xb75173d0	-1.24843355e-05
5	0x3d9ae8a9	0.07563908
6	0x3c87498e	0.016514566
7	0x3d8d3b4c	0.068960756
8	0x3d3a4921	0.045479897
9	0xbd16c000	-0.0368042
10	0x3cf6b608	0.030116096
11	0xbc3a8616	-0.011384508
12	0x3df2cfdf	0.118560545
13	0x3de99334	0.1140503
14	0x3db2451f	0.0870459
15	0x3da28353	0.07935204
16	0x3cee2f55	0.029075304
17	0x3d931408	0.07181555
18	0xbd273310	-0.04082018
19	0x3db58a25	0.088642396
20	0x3d9ec871	0.07753075
21	0x3d619122	0.05507005
22	0x3c11fec7	0.008910841
23	0xbc16b667	-0.009198762
24	0x3cd4156a	0.025889117
25	0xbb1c93aa	-0.0023891726
26	0xbd433529	-0.04765812
27	0x3d2252e7	0.039629843
28	0x3d2e4226	0.042543553
29	0x3ca7a6ef	0.020465342
30	0x3cc60a65	0.024174878
31	0x3d68c59c	0.05682908
32	0x3cea038f	0.02856615
33	0x3d435448	0.0476878
34	0x3c04d3d1	0.008107142
35	0x3cb18c0a	0.021673221
36	0x3d9d944d	0.07694302
37	0x3d09866d	0.033575464
38	0x3b8b5f9e	0.004253342
39	0x3ce95323	0.028482025
40	0x3c9f6ece	0.019462015
41	0x3d73ee7f	0.05955362
42	0xba227326	-0.0006196968
43	0xbd205aa7	-0.039148953
44	0x3da5d866	0.08097915
45	0x3c91dba7	0.017804934
46	0x3d83f79b	0.06443711
47	0x3cc72805	0.024311075
48	0xbc1f5459	-0.0097247
49	0x3d67f01b	0.056625467

fc2.weight f4 [10, 50]
0	0x3e4f6815	0.20254548
1	0xbe037ce3	-0.12840609
2	0x3dca0bd7	0.098655395
3	0xbe0d38aa	-0.13791147
4	0xbe4d17ca	-0.20028606
5	0xbe46db94	-0.194197
6	0x3dca6328	0.09882194
7	0xbe24674a	-0.16055027
8	0xbdd4308b	-0.10360821
9	0xbcc193ce	-0.02363005
10	0xbe4e30d6	-0.20135817
11	0x3d8a115b	0.067415915
12	0xbdba7edf	-0.0910623
13	0xbe0f9ffb	-0.14025871
14	0xbd7b28c1	-0.061318163
15	0xbe3045b1	-0.17214085
16	0xbe76ca11	-0.2410052
17	0xbe594e42	-0.21221259
18	0x3e11d2a6	0.14240512
19	0xbde167af	-0.11006104
20	0x3e1fb9c8	0.15598214
21	0x3d1e62ae	0.038668327
22	0xbdf514f6	-0.119668886
23	0x3d92714b	0.07150515
24	0xbe552e68	-0.20818484
25	0x3e00e359	0.12586726
26	0xbdab8ebd	-0.083768345
27	0xbe0a96f2	-0.13534144
28	0xbdeb8521	-0.11500002
29	0x3e053982	0.13010219
30	0xbe1db709	-0.15401854
31	0xbd79d9ac	-0.060998604
32	0x3e0490fd	0.12945934
33	0x3d307c67	0.04308739
34	0xbd5503e9	-0.052005682
35	0x3db9fcdf	0.090814345
36	0x3e017df2	0.126457
37	0x3dd48eec	0.10378823
38	0x3e2fd727	0.17171918
39	0x3e1d7537	0.15376745
40	0x3da8031b	0.08203717
41	0x3dba335f	0.090918295
42	0xbd90672a	-0.07050927
43	0x3e1752ef	0.1477773
44	0xbe2c066b	-0.16799323
45	0xba8ccb0e	-0.0010741667
46	0x3e145570	0.14485717
47	0xbd2f6a58	-0.042826027
48	0xbc79049c	-0.015198853
49	0x3db1deaa	0.08685048
50	0xbdc5a946	-0.09651427
51	0xbd707485	-0.05870487
52	0xbe61012d	-0.21973105
53	0x3e2fb3fe	0.17158505
54	0x3dd3a503	0.10334208
55	0x3d86dfb8	0.0658564
56	0x3e0ce5d1	0.13759543
57	0x3e314f13	0.1731532
58	0xbe56f817	-0.20993076
59	0xbe280a61	-0.16410209
60	0xbd5c381c	-0.053764448
61	0xbd2086f9	-0.03919122
62	0x3d92a3e5	0.07160167
63	0x3db08400	0.08618927
64	0xbe614f6c	-0.22002953
65	0x3e1cfd9d	0.15331121
66	0xbde23c25	-0.11046628
67	0x3e160fa9	0.14654411
68	0x3df866a5	0.12128953
69	0x3df2db04	0.1185818
70	0xbe0ebbbf	-0.13938807
71	0xbe4887c7	-0.19583045
72	0xbe77af0a	-0.24187866
73	0x3e1d616f	0.15369199
74	0x3dfe6136	0.12420885
75	0xbe5701af	-0.20996736
76	0xbe201f57	-0.15636955
77	0xbe04982a	-0.12948671
78	0x3dd5b086	0.1043406
79	0x3c06e061	0.008232207
80	0x3d99f96e	0.07518278
81	0x3dcff63e	0.10154389
82	0x3dc146f9	0.09437365
83	0x3d5d3483	0.054005157
84	0xbdb58a02	-0.088642135
85	0xbe0df660	-0.13863516
86	0xbe5963d3	-0.21229486
87	0xbc9701a8	-0.018433407
88	0xbe71df1f	-0.2362027
89	0xbe34194c	-0.17587775
90	0xbe38c7e2	-0.18044999
91	0xbd20d19e	-0.039262407
92	0xbe1fa4ac	-0.15590161
93	0xbca66418	-0.0203114
94	0x3dcbad72	0.099451914
95	0xbe6572cb	-0.22407071
96	0x3e14d67a	0.14534941
97	0xbe3cf8a5	-0.18454225
98	0xbd54ee99	-0.051985357
99	0xbe656c3d	-0.22404571
100	0xbd64b689	-0.05583814
101	0xbdc6a9e2	-0.09700371
102	0xbe4db625	-0.20089014
103	0xbc26a227	-0.010170496
104	0xbdeaff22	-0.11474444
105	0xbeb3861d	-0.35063258
106	0x3e05bef0	0.13061118
107	0xbdccb7c9	-0.09995992
108	0xbe38507e	-0.17999455
109	0x3df5c249	0.119999476
110	0xbd20e857	-0.039284077
111	0x3d9e1706	0.07719235
112	0xbe1d5553	-0.1536458
113	0xbe022299	-0.1270851
114	0xbe55c1a4	-0.2087465
115	0x3dcb39d3	0.099231385
116	0xbdbe21ab	-0.092837654
117	0xbe4c6b14	-0.19962722
118	0x3e18dcba	0.1492795
119	0x3e061fb4	0.13098031
120	0xbe0811ea	-0.13288084
121	0x3d6cbc96	0.057797037
122	0x3c844d9f	0.016150294
123	0x3ca0f21a	0.019646693
124	0x3df4260e	0.11921321
125	0x3dd6513e	0.104647145
126	0x3de07c54	0.10961214
127	0xbdd1a55a	-0.102366164
128	0x3df467c6	0.11933856
129	0x3de14eb3	0.11001339
130	0x3da8dfe4	0.08245829
131	0x3dfd2670	0.12360847
132	0x3de13f33	0.109983824
133	0x3ce65a83	0.028119331
134	0xbe67ac0b	-0.22624223
135	0x3d69bd88	0.057065517
136	0xbe181098	-0.1485008
137	0x3de39250	0.11111891
138	0xbd82e9e0	-0.06392264
139	0xbd049d3e	-0.03237652
140	0x3b1c618b	0.002386185
141	0x3dbb18b8	0.09135574
142	0x3ded6124	0.11590794
143	0x3e1517c5	0.14559849
144	0x3cb25dfb	0.021773329
145	0x3db82539	0.08991475
146	0xbe32264b	-0.1739742
147	0xbe22ae86	-0.15886888
148	0xbd970976	-0.073748514
149	0xbd37de34	-0.044889644
150	0xbdf9451a	-0.12171383
151	0xbd9164cf	-0.07099306
152	0xbe2a815e	-0.16650912
153	0xbe55ed97	-0.20891415
154	0xbdac9c76	-0.0842828
155	0xbdd7e4f9	-0.1054172
156	0xbdf59c48	-0.11992699
157	0xbe666a44	-0.22501475
158	0x3dbb3ffa	0.09143062
159	0x3def575b	0.116865836
160	0x3df0cda1	0.117579706
161	0x3df2b249	0.118504114
162	0x3db6d5d1	0.08927501
163	0xbe4d46d7	-0.20046555
164	0xbe024e11	-0.12725092
165	0x3e0cbd15	0.13744004
166	0x3d18b033	0.03727741
167	0x3ddc02aa	0.10742696
168	0x3ad759a2	0.0016429911
169	0x3d879178	0.06619543
170	0xbe01afc5	-0.12664707
171	0x3ded360b	0.115825735
172	0xbe569f48	-0.20959198
173	0xbe07b97b	-0.13254349
174	0xbd769db9	-0.06020901
175	0xbe06565c	-0.13118881
176	0xbe09e8b1	-0.13467671
177	0x3e04181a	0.12899819
178	0x3df5d987	0.12004381
179	0x3ded916c	0.11600003
180	0x3dabf182	0.08395673
181	0x3cb87f65	0.022521684
182	0xbe2c8664	-0.16848141
183	0x3dce2358	0.10065335
184	0x3d166101	0.036713604
185	0xbd410269	-0.04712144
186	0x3c8a6378	0.016893134
187	0x3e10c595	0.14137872
188	0xbe0c0549	-0.13673891
189	0x3c887ce8	0.016661122
190	0xbc35af0d	-0.011089099
191	0x3d9def16	0.07711618
192	0xbc474447	-0.012162275
193	0xbd2007d2	-0.039069958
194	0x3db8af61	0.09017826
195	0xbd63e2b9	-0.05563614
196	0xbe203f2d	-0.156491
197	0xbe273b4f	-0.16331218
198	0xbd993245	-0.07480291
199	0x3d9c8447	0.076424174
200	0x3d16d425	0.03682341
201	0x3d966f96	0.07345502
202	0xbe2fa1f3	-0.17151622
203	0x3e18b19f	0.14911507
204	0x3e00b026	0.12567195
205	0xbc1e4b6e	-0.0096615385
206	0x3e0ced4a	0.13762394
207	0x3e1c639c	0.15272373
208	0x3d2740e5	0.040833373
209	0x3e0812a7	0.13288365
210	0x3dc615d9	0.09672136
211	0xbe20ee1c	-0.15715832
212	0x3d7aa3a5	0.06119122
213	0x3d256afe	0.04038524
214	0x3da69584	0.081339866
215	0x3df87f98	0.121337116
216	0x3df08260	0.11743617
217	0x3b530d02	0.0032203798
218	0x3d1b8cc3	0.037976038
219	0xbe46eefd	-0.19427104
220	0xbd0b35cf	-0.033986863
221	0xbd8543eb	-0.06507095
222	0x3de7dfd5	0.113219894
223	0x3e10e506	0.14149866
224	0xbdad5ff7	-0.084655695
225	0x3d46f95d	0.048577655
226	0x3e0f7a4a	0.14011493
227	0x3e095583	0.13411526
228	0xbdc5fd7b	-0.09667488
229	0xbe0d921e	-0.1382527
230	0xbe027540	-0.1274004
231	0xbd6d2c9a	-0.057903863
232	0x3d43f524	0.047841206
233	0xbe289a14	-0.16465026
234	0x3da9b2d4	0.08286062
235	0xbe3f32c5	-0.18671711
236	0x3db9d970	0.09074676
237	0xbdb81e29	-0.089901276
238	0x3dc0ef49	0.0942064
239	0x3d607505	0.0547991
240	0xbdd9ceec	-0.1063517
241	0xbe661894	-0.22470313
242	0xbe7f9156	-0.24957785
243	0xbce5184e	-0.027965691
244	0xbe03b9ed	-0.12863894
245	0x3db19ede	0.0867288
246	0xbddba0d4	-0.10724035
247	0x3e238d14	0.15971786
248	0x3e472e90	0.19451356
249	0xbe85d6ef	-0.26140544
250	0xbd8c7a45	-0.068592586
251	0x3dc4fdfc	0.09618756
252	0x3dfe6a17	0.12422579
253	0xbdd49d1b	-0.10381528
254	0x3e0c59e0	0.1370616
255	0x3d1a57f9	0.037681554

fc2.bias f4 [10]
0	0xbe36c85f	-0.17849873
1	0x3e11d9cc	0.14243239
2	0x3d45541e	0.048175924
3	0x3ce9cad3	0.028539097
4	0xbe50a09b	-0.20373766
5	0x3db1e829	0.08686859
6	0xbd1c1288	-0.03810361
7	0xbcba1a98	-0.022717759
8	0x3dfeb922	0.12437655
9	0xbe4c13f1	-0.19929482

exp_avg f4 [10, 1, 5, 5]
0	0xb876f82f	-5.888211e-05
1	0xbb0bdcd3	-0.0021341338
2	0xbb23fc2b	-0.002502213
3	0xbaa7fed2	-0.0012817031
4	0x3a2b392a	0.00065316504
5	0xbb2f7a6e	-0.0026775855
6	0xbb236275	-0.002493051
7	0xba1e5f18	-0.0006041392
8	0x3b10f277	0.0022117177
9	0x3b366392	0.0027830345
10	0xbb2f2608	-0.002672555
11	0x3a1c0d3a	0.00059528986
12	0x3ba8126f	0.0051291506
13	0x3bae6e69	0.0053232205
14	0x3b52db7b	0.0032174278
15	0x3ad6ed8e	0.0016397701
16	0x3b77e2f7	0.003782449
17	0x3bb81cdd	0.005618675
18	0x3ab79142	0.0014005082
19	0x39f8191e	0.0004732096
20	0x3bf27799	0.007399511
21	0x3bd51050	0.0065021887
22	0x3afea3cc	0.0019427477
23	0xb9f115e8	-0.00045983423
24	0x3afff869	0.0019528988
25	0xbb94c8cd	-0.004540539
26	0xbb665739	-0.0035147204
27	0x39c27fb6	0.00037097716
28	0x3b3e2a27	0.0029016824
29	0x3b0c8111	0.0021439234
30	0xbbb2ac07	-0.005452636
31	0xbb54ef87	-0.0032491402
32	0x3a962ed4	0.0011458048
33	0x3b39c897	0.002834832
34	0x3b567dac	0.0032728715
35	0xbb33c43f	-0.0027430204
36	0x3a316ffe	0.00067687023
37	0x3b80e626	0.003933686
38	0x3b779b94	0.003778194
39	0x3b4f6bd3	0.0031649962
40	0xb83aa6f1	-4.4501332e-05
41	0x3b481a22	0.0030533154
42	0x3bc65dfa	0.0060536833
43	0x3bacc94c	0.00527302
44	0x3b32e5cd	0.0027297616
45	0xba87c76e	-0.0010359117
46	0xb63701e2	-2.727022e-06
47	0x3b2d6bcd	0.002646196
48	0x3b0cfb20	0.0021511987
49	0x3ab7ee8b	0.0014032883
50	0x3bbade9a	0.0057028057
51	0x3b28e545	0.002577142
52	0xba265808	-0.0006345515
53	0x3a9b688b	0.0011856718
54	0x3b4715d5	0.0030378003
55	0x3a309849	0.00067365594
56	0xbab70f4f	-0.0013966354
57	0xba8bf053	-0.0010676481
58	0xb9bc7ec7	-0.0003595261
59	0x3ab03089	0.0013442199
60	0xbb663a78	-0.0035130065
61	0xbb308c11	-0.0026938955
62	0x394a5bd3	0.00019298428
63	0x3b14b148	0.0022688676
64	0x3af18fc8	0.0018429691
65	0xbb9d181d	-0.0047941343
66	0x393f8d6d	0.00018267865
67	0x39b773ad	0.00034990665
68	0x3ab36697	0.001368719
69	0x3b6bc6fe	0.0035976763
70	0xbb34642b	-0.0027525525
71	0x3b1317fe	0.002244472
72	0x3a9d6a5c	0.0012009847
73	0x3b3c7bbd	0.0028760277
74	0x3baebeba	0.005332795
75	0xba9948fd	-0.0011694726
76	0xbaba95d0	-0.0014235321
77	0xbb5bcb27	-0.0033537836
78	0xbb8b8793	-0.004258105
79	0xbbb8468d	-0.0056236447
80	0x3aeb765b	0.001796435
81	0x3b0fdba4	0.0021950984
82	0xbb10be26	-0.0022085994
83	0xbb9527c4	-0.0045518596
84	0xbb525cf6	-0.0032098866
85	0x3ad3fdaa	0.001617362
86	0x3acfe2e7	0.0015860469
87	0xbac93683	-0.0015351329
88	0xbb134055	-0.0022468765
89	0xba5b36d9	-0.000836236
90	0xbb1b2ea0	-0.0023678914
91	0xbb3f1c6a	-0.0029161223
92	0xbb9465e4	-0.004528748
93	0xbb438de7	-0.002983922
94	0x36a3e8e4	4.8848906e-06
95	0xbb9269a0	-0.004468158
96	0xbb2a4e54	-0.0025986629
97	0xba85c279	-0.0010205052
98	0x3acbe7c8	0.0015556747
99	0x3ade5f72	0.0016965701
100	0x37e61252	2.7426668e-05
101	0xba38e0d2	-0.0007052544
102	0x3b1f4e11	0.0024308006
103	0x3afbbba2	0.0019205699
104	0x392d206a	0.00016510641
105	0x3946a547	0.00018944322
106	0x3a759873	0.0009368725
107	0x3b066072	0.0020504263
108	0x3aa98d83	0.001293585
109	0x398754c3	0.0002581236
110	0xb9eef3fe	-0.00045576686
111	0x3b38900f	0.0028162037
112	0x3aef76b4	0.0018269629
113	0x39a0078c	0.000305232
114	0x396c7e5f	0.00022553791
115	0xb915f123	-0.00014299578
116	0x3b40d625	0.0029424515
117	0x3b36a200	0.0027867556
118	0x3ab48faf	0.0013775731
119	0x3aab878f	0.0013086664
120	0xba29e0ef	-0.0006480356
121	0x3af09bb4	0.001835695
122	0x3b6e8b70	0.003639903
123	0x3b8159ac	0.0039474573
124	0x3b42e5e9	0.0029739088
125	0x39aeb80a	0.00033324986
126	0x3b7f16a0	0.0038923398
127	0x3c0d2877	0.008615605
128	0x3be7b8ad	0.0070715756
129	0x3be34954	0.0069362316
130	0x3bc9a232	0.0061533684
131	0x3b6c0d17	0.0036018544
132	0x3bc457c2	0.005991907
133	0x3b893299	0.00418694
134	0x3bdf3bec	0.006812563
135	0x3b847692	0.004042455
136	0x3acbf993	0.001556205
137	0x3b36093f	0.0027776507
138	0x3b6e2346	0.0036336943
139	0x3bb84956	0.0056239767
140	0x3a781257	0.0009463182
141	0x3a01d2fa	0.00049523974
142	0x3adcf3dc	0.0016857344
143	0x3ba6243d	0.005070238
144	0x3bdc0cdb	0.0067153997
145	0xbb0abf4e	-0.0021171155
146	0x3aeaef57	0.0017924112
147	0x3bc5258d	0.0060164393
148	0x3bec0521	0.00720276
149	0x3bfa51a7	0.0076391282
150	0xbafc609f	-0.001925487
151	0x38de6ee7	0.00010606442
152	0x3ad17fdf	0.0015983543
153	0x3b6a0a85	0.0035711837
154	0x3b65cd2b	0.0035064917
155	0xbb19f90f	-0.0023494398
156	0xbabe40e0	-0.0014515184
157	0xb9d1e38d	-0.00040033125
158	0x3b1f9f8a	0.0024356567
159	0x3b19d633	0.002347362
160	0xbb7e1d45	-0.003877477
161	0xbb2d0569	-0.002640093
162	0xbae581e7	-0.0017510027
163	0x39c83a69	0.00038190492
164	0xb95479f3	-0.00020263325
165	0xbbdb66b9	-0.006695595
166	0xbba45581	-0.0050150757
167	0xbb3b77a9	-0.0028605259
168	0xb9fa20e0	-0.0004770821
169	0xb88bd092	-6.666886e-05
170	0xbbc3d04e	-0.0059757596
171	0xbafea851	-0.0019428824
172	0x3a5ef3d6	0.00085049623
173	0x3b0dbe48	0.002162831
174	0x3afcad9d	0.0019277815
175	0xbad1fc5b	-0.0016020642
176	0x38ed159c	0.00011305066
177	0xba4aaa9f	-0.0007731113
178	0xb86a7859	-5.590203e-05
179	0xbaf5dae1	-0.0018757248
180	0xba340080	-0.00068665296
181	0x37680e42	1.3831597e-05
182	0x395f6755	0.00021305431
183	0xbb0a0357	-0.002105912
184	0xbb33078a	-0.0027317726
185	0x392a6df2	0.00016253421
186	0xba24d98f	-0.0006288522
187	0xb99a073d	-0.00029378562
188	0xba95507b	-0.0011391783
189	0xb9b6699a	-0.00034792424
190	0xba677523	-0.00088294054
191	0x38483cf7	4.7740494e-05
192	0xb91b2b79	-0.00014798147
193	0xbac37e67	-0.001491499
194	0x3ab51292	0.0013814738
195	0xbacd2cb4	-0.0015653581
196	0xba501e08	-0.00079390453
197	0xbb009e4a	-0.0019625598
198	0xbb64e212	-0.0034924787
199	0xb955a3f7	-0.00020374345
200	0xb989fe2c	-0.0002632005
201	0xbb2e3967	-0.0026584507
202	0xbb872650	-0.0041244403
203	0xbb5b2dd0	-0.0033444054
204	0xbaa6c256	-0.0012722712
205	0xbabcb5b5	-0.0014397415
206	0xbb0a16d8	-0.0021070745
207	0xbb2f649d	-0.002676285
208	0xbaf230dd	-0.0018477697
209	0xbb76c6e6	-0.0037655174
210	0xbb077ca1	-0.002067365
211	0xba3afdab	-0.00071331364
212	0xbab577e0	-0.001384493
213	0xbb1508cb	-0.0022740837
214	0xbbb55f02	-0.0055350075
215	0xbabb7044	-0.0014300426
216	0xbace045d	-0.0015717853
217	0xbb16ac6c	-0.0022990955
218	0xba847e98	-0.0010108529
219	0xba8398a5	-0.0010039998
220	0x387af130	5.9829268e-05
221	0xb8b28ead	-8.514277e-05
222	0xb9cf1312	-0.00039496325
223	0x3aabe16d	0.0013113447
224	0x3b0db950	0.0021625347
225	0xbb5fc40d	-0.0034143955
226	0xbb1c85b7	-0.0023883411
227	0xba1d6b65	-0.0006005078
228	0xbaa60a99	-0.0012667953
229	0xbb846c0b	-0.0040412
230	0xbb363ebb	-0.0027808386
231	0xbadc721a	-0.0016818673
232	0xb9d6bbf8	-0.00040957308
233	0xbaa8ae62	-0.0012869353
234	0xbb56001e	-0.0032653878
235	0xbb34b2e7	-0.0027572454
236	0xbb613600	-0.0034364462
237	0xbb64744d	-0.003485936
238	0xbb8550f8	-0.00406849
239	0xbb915762	-0.0044354657
240	0xbba2bbb9	-0.004966226
241	0xbbdcef4e	-0.0067423945
242	0xbbaf1fba	-0.0053443583
243	0xbb33ede7	-0.0027455033
244	0xbb1f0c3d	-0.002426877
245	0xbb24442f	-0.0025065055
246	0xbb8025bd	-0.0039107488
247	0xbb058193	-0.0020371422
248	0xba6c7fa2	-0.00090217043
249	0xbb05535a	-0.002034387

exp_avg_sq f4 [10, 1, 5, 5]
0	0x39ab7038	0.0003269927
1	0x39808766	0.00024514942
2	0x39150289	0.00014210692
3	0x391bb3c9	0.00014848927
4	0x39896675	0.00026207013
5	0x39ad04c0	0.0003300067
6	0x3958ff65	0.00020694507
7	0x390261e2	0.0001243423
8	0x39371f5b	0.00017463921
9	0x39d75516	0.0004107139
10	0x39bea123	0.0003635968
11	0x399a2c9e	0.0002940641
12	0x398033bb	0.00024452605
13	0x39d06da4	0.0003975454
14	0x3a2fec9e	0.0006710979
15	0x39fa539d	0.00047746013
16	0x3a039dd7	0.00050207734
17	0x3a2394a7	0.00062401075
18	0x3a52888b	0.0008031211
19	0x3a650db8	0.0008737701
20	0x3a198522	0.0005856325
21	0x3a32400f	0.00067997066
22	0x3a5c2ea2	0.0008399283
23	0x3a7877ad	0.00094782823
24	0x3a52af02	0.00080369425
25	0x392e76ef	0.0001663824
26	0x39348eec	0.0001721938
27	0x393d14bf	0.00018032173
28	0x392a18ee	0.0001622175
29	0x3904d9c7	0.0001266963
30	0x3949e110	0.00019252696
31	0x393543e8	0.00017286802
32	0x39274971	0.0001595372
33	0x391bd5e0	0.00014861627
34	0x390fa74e	0.00013699869
35	0x3915cff2	0.00014287213
36	0x38f6a678	0.00011761201
37	0x39034cd0	0.00012521748
38	0x390a4730	0.00013187225
39	0x390d5520	0.0001347852
40	0x38e8ea7b	0.000111062975
41	0x38e34049	0.000108361775
42	0x3908e1a0	0.00013054023
43	0x392d73c3	0.0001654169
44	0x39253b37	0.00015757685
45	0x39040ec5	0.00012594003
46	0x390e7e25	0.00013589168
47	0x3934b83d	0.00017234772
48	0x394e814d	0.00019693859
49	0x393624b4	0.00017370546
50	0x398699b6	0.00025672995
51	0x39a3fd49	0.00031278495
52	0x399c6dd4	0.00029836467
53	0x39744502	0.00023295361
54	0x39279c0d	0.00015984495
55	0x399bf473	0.00029746033
56	0x39a901f0	0.00032235635
57	0x397ef311	0.00024313877
58	0x3914229d	0.00014127274
59	0x38da2910	0.000104026985
60	0x39ae38d4	0.00033230206
61	0x3994c5e9	0.00028376214
62	0x3900954e	0.00012262652
63	0x3886a7ac	6.420849e-05
64	0x38876b4c	6.457287e-05
65	0x39a04889	0.0003057162
66	0x3954976a	0.00020274302
67	0x389e554d	7.5499156e-05
68	0x383f38c8	4.559083e-05
69	0x38875f07	6.455002e-05
70	0x398b4e8e	0.00026570674
71	0x392dafd9	0.00016564074
72	0x38b54ee2	8.6454456e-05
73	0x388aa31d	6.610735e-05
74	0x38df8380	0.000106579624
75	0x392dc1a8	0.00016570708
76	0x39318875	0.0001693087
77	0x39457e63	0.00018834467
78	0x398307c6	0.0002499206
79	0x3997f630	0.00028984388
80	0x39119b09	0.00013886033
81	0x3924926e	0.00015694808
82	0x3951d9b1	0.0002001289
83	0x398afe11	0.00026510705
84	0x39882981	0.00025970864
85	0x38ea7682	0.00011180063
86	0x39109332	0.00013787745
87	0x394de411	0.00019635285
88	0x3971a166	0.00023043677
89	0x3956137e	0.00020415892
90	0x390df26c	0.00013537117
91	0x392dd0fc	0.00016576418
92	0x394f6129	0.00019777253
93	0x394a5096	0.00019294242
94	0x391e4efe	0.00015097481
95	0x3933a551	0.00017132355
96	0x394cbcf5	0.00019525348
97	0x3955c212	0.0002038556
98	0x39394fa9	0.0001767265
99	0x391131e8	0.00013846869
100	0x3936c894	0.00017431594
101	0x3909d724	0.00013145484
102	0x390983f4	0.00013114495
103	0x38f88b49	0.000118515054
104	0x38fa416c	0.00011933115
105	0x39228918	0.00015500595
106	0x391e4a31	0.00015095693
107	0x3927a239	0.00015986794
108	0x390bbc5a	0.0001332624
109	0x390078c6	0.00012252023
110	0x391a11e5	0.0001469325
111	0x390690ec	0.00012833223
112	0x390ae1a8	0.00013244769
113	0x38f8529b	0.00011840948
114	0x38f1d045	0.00011530569
115	0x39053afa	0.00012705839
116	0x38fe3c1e	0.000121228615
117	0x3908b812	0.00013038542
118	0x390ceb41	0.0001343908
119	0x3911859b	0.0001387805
120	0x3908c397	0.00013042834
121	0x392a615e	0.00016248735
122	0x39336db4	0.00017111638
123	0x391d4e40	0.00015001837
124	0x3917445c	0.00014425948
125	0x3a1e6293	0.00060419104
126	0x3a2a6e65	0.00065014354
127	0x3a286973	0.00064244046
128	0x3a302540	0.0006719418
129	0x3a40552c	0.00073369103
130	0x3a19ff8c	0.0005874566
131	0x3a13cfce	0.00056385703
132	0x3a0d1322	0.0005381574
133	0x3a12b503	0.0005596431
134	0x3a2351a8	0.0006230124
135	0x39c9f823	0.00038522584
136	0x399d57ba	0.00030010735
137	0x39aacc79	0.0003257727
138	0x39e5738f	0.00043764382
139	0x3a075320	0.0005162228
140	0x394ba281	0.00019420126
141	0x3915c501	0.00014283137
142	0x3951a7af	0.0001999426
143	0x39a9ea96	0.00032408972
144	0x39da55c5	0.00041644103
145	0x390ade93	0.00013243621
146	0x38f217ed	0.00011543916
147	0x394485a6	0.00018741805
148	0x398a4e89	0.00026379924
149	0x39b02c56	0.0003360237
150	0x3892b310	6.9951755e-05
151	0x3872199a	5.772114e-05
152	0x3893b41f	7.0430564e-05
153	0x38c19928	9.231485e-05
154	0x38e69054	0.00010994138
155	0x38c5a9c9	9.425317e-05
156	0x38acf1dd	8.24665e-05
157	0x38c46b6a	9.366016e-05
158	0x38d76eb4	0.00010272619
159	0x38fbce4c	0.000120070385
160	0x390a9fcb	0.00013220233
161	0x39137e7f	0.00014066136
162	0x3906f3f0	0.0001287011
163	0x39068873	0.00012830067
164	0x3906bd9e	0.00012849874
165	0x3920364b	0.00015279015
166	0x391cf234	0.00014967547
167	0x3909725a	0.00013107937
168	0x390a660d	0.00013198722
169	0x3902def6	0.00012480826
170	0x39013f25	0.00012325922
171	0x38ef01b5	0.00011396726
172	0x38f7e8ab	0.000118212156
173	0x38fd55ef	0.000120799865
174	0x38ca22f7	9.638623e-05
175	0x3863169f	5.4142085e-05
176	0x38a70d76	7.965688e-05
177	0x3962376f	0.0002157369
178	0x39d4c45f	0.000405821
179	0x39e7256e	0.0004408764
180	0x38304933	4.2029842e-05
181	0x389b92ce	7.4183205e-05
182	0x398b2e46	0.00026546622
183	0x39fee51d	0.00048617358
184	0x39f0a107	0.00045896342
185	0x3817a68e	3.615632e-05
186	0x389ed613	7.5739015e-05
187	0x39b4d9d7	0.0003449458
188	0x3a1ccc67	0.0005981386
189	0x39e9dd36	0.00044606038
190	0x3832a4d1	4.2592004e-05
191	0x39001c70	0.00012217625
192	0x39effc34	0.00045773538
193	0x3a26c02c	0.00063610333
194	0x39e3dac3	0.00043459804
195	0x38b565a0	8.649682e-05
196	0x3983ba70	0.00025125174
197	0x39fd94ea	0.0004836687
198	0x3a170d60	0.0005762186
199	0x39dbd862	0.00041932153
200	0x38c52cdb	9.402047e-05
201	0x386d02a6	5.650767e-05
202	0x3830ab00	4.2120926e-05
203	0x383ff499	4.5765748e-05
204	0x38cfd136	9.909498e-05
205	0x3840a8ab	4.593345e-05
206	0x37e1836f	2.6883294e-05
207	0x37ec7081	2.8185781e-05
208	0x383056af	4.20424e-05
209	0x38f50e1a	0.00011685137
210	0x37ff9dea	3.0471903e-05
211	0x37e36571	2.7107746e-05
212	0x38022bc8	3.103519e-05
213	0x3882d243	6.238047e-05
214	0x394fc801	0.00019815566
215	0x38076966	3.2284668e-05
216	0x3822253d	3.865849e-05
217	0x388841e2	6.497257e-05
218	0x393af089	0.00017827949
219	0x39a1a754	0.00030832982
220	0x38540966	5.055349e-05
221	0x3899d421	7.3351206e-05
222	0x3937906c	0.00017506041
223	0x39a218a9	0.0003091742
224	0x39bc3070	0.00035894243
225	0x383a84f7	4.446969e-05
226	0x3805cf73	3.1902873e-05
227	0x384b2123	4.8429833e-05
228	0x38faec6f	0.00011964968
229	0x39573850	0.00020524976
230	0x3813c833	3.523398e-05
231	0x37fdc048	3.0249488e-05
232	0x385dcc0f	5.288055e-05
233	0x39102290	0.00013745786
234	0x39877782	0.00025838247
235	0x3879fecc	5.9603524e-05
236	0x38941599	7.061213e-05
237	0x38cb6f38	9.7005104e-05
238	0x39458699	0.00018837526
239	0x39addd5a	0.0003316205
240	0x38f22376	0.00011546064
241	0x3912d95a	0.00014004615
242	0x394606e2	0.00018885316
243	0x39a73b32	0.00031896826
244	0x39ccfe80	0.0003909953
245	0x391a9f9d	0.00014746045
246	0x39405ca7	0.00018345063
247	0x398d6a3c	0.00026972766
248	0x39cc5d5d	0.00038979473
249	0x39c0545c	0.00036683946
