saved/models/Mnist_LeNet/0502_095806/checkpoint-epoch2.pth (torch, 362006 bytes, 32 tensors)

conv1.weight f4 [10, 1, 5, 5]
00000000: f0c1 36be 9c35 fbbd b9f3 4bbe 8aeb 35bd
00000010: 3d05 86be 09ee cf3d b098 96be aedf c1be
00000020: a4cd aebe 0976 58bd ca03 273c e86d f03d
00000030: 3285 2ebe 98bc 25be bf82 71bd 0827 cb3d
00000040: 2518 ab3c ce25 a13e 2c63 eb3d 82c6 4f3e
00000050: 71ad 833e 0a0a 593e 470f 833e 776c c53e
00000060: 057c 5d3d 9747 e33d d0f0 b5bb b116 783e
00000070: abe5 5e3e 9c28 57be a45a 4d3e b9cc 2a3e
00000080: 7b32 483e e495 3a3e 3b21 233e cb97 88bd
00000090: 4d9e 17be 8ff9 ae3c a7fb 0abd 423a 663d
000000a0: a43a f5bd bfb5 c9bd 36be b33b 3594 863e
000000b0: d996 843d fd17 8ebd 1b49 10bd f9c9 213d
000000c0: 8a40 6e3e 8c8f 643e e783 5c3e 8529 423e
000000d0: cead 0d3e 2d6c eb3d a183 a2bd 4307 9c3c
000000e0: 33c9 153d a61a 583e 3a70 a5bd fe4e 8cbe
000000f0: ec2d 483e a712 9b3e 81b1 00be cda6 86be
00000100: 8556 2abe 9d32 103e 2a33 fa3c 1b59 09be
00000110: 4753 b6be e317 3c3d b76a 913e 2c2f e93d
00000120: 6a6f b2be 2d34 b0be 2ee8 603d 504f 2d3d
00000130: a4eb e03d 27d2 f2bd 8310 d13d 25f6 8a3e
00000140: 8d74 913c 2781 05bd b1f5 c53d 8fce e63d
00000150: 00b6 6e3c 2653 5bbe 6fc2 10be 3107 893e
00000160: ebe3 733e d711 003e 4379 5fbe 98ba 573e
00000170: 481f 3e3e 7911 7b3e f137 96bd 611a 0d3e
00000180: d0b4 873e 98b8 363e 60d3 1f3e 617e cdbd
00000190: 1800 5d3e 8482 0ebe d40d 493c 238c 09be
000001a0: 1cb0 97bd cd60 19bd 0a49 ac3c 0d7f 5f3e
000001b0: 36fa cf3d 5c2f 64bd 1178 e93d 17d8 0bbe
000001c0: 12c5 d93d 7daf 9bbc 6333 06bd 8621 08bd
000001d0: 99ad 47be e9b6 e73c 5556 163e 7d6b 913e
000001e0: 758d 6cbd c623 043e 3620 783e d2df 37bd
000001f0: 864a 833e fee3 b63d 326b 9a3e ead2 823e
00000200: 62df 4f3e 8a8a 983e 36de 473d c870 3e3e
00000210: 0e55 ef3d 7f60 5abd 6eb4 593d 5d09 43be
00000220: bf63 f03c 5a66 c43c 89d5 6d3d 1ccc 9b3c
00000230: 4a3f 41be 794f 7fbe 579d b8bd 9002 133e
00000240: 9e26 df3d 95d2 9cbe 0e09 c9be b7a1 82be
00000250: 2cd5 b1be 2ec7 56be 000c 4fbe 0888 34be
00000260: a5d6 bcbd f42c 213d 7001 c73c bb71 ae3d
00000270: 9e18 47be e221 7dbd 3d41 5fbe e0aa 013e
00000280: 789b 793d 7eba 7d3e c04e d9bd c0e7 613e
00000290: d88d 813e 326d 603e 5f91 113e 5417 883e
000002a0: b73b 533e 9d10 623e 845d 41bd e358 0fbe
000002b0: 8940 1cbd d6ae 9cbb a80d 1cbe 63fb 61be
000002c0: 3448 9fbe 6558 d5bc 200b 823e 3375 c03d
000002d0: 73d9 57be b812 41be 7b71 373e 53f5 dcbc
000002e0: af37 0cbd 26d2 80be fde6 74be 3b6d 2b3e
000002f0: f7e4 8b3e 341d c3bd 77b1 97be 488f 7cbe
00000300: a1c3 143e 1d78 913e d787 85bd c12e 64be
00000310: 9ba8 123d 0ccd 8ebd 75a7 953e e817 303e
00000320: 8908 06bd f5c6 93bd e9a4 0abe ae13 a2be
00000330: c68b b6be 551a 0bbd 6db3 2fbe 13b3 78be
00000340: 1880 76be abc4 8b3d e293 48be 5501 85be
00000350: 3dc0 06be c479 34be 5925 243e e9a2 70be
00000360: 8ed3 b9bd 17e2 1ebe 5984 ec3d 8f09 253e
00000370: e602 cebe 2d50 62be 069e 183e ab10 9b3d
00000380: ffb4 6b3e a85c 88be d11e 55be 85a2 b3be
00000390: 49e3 51bd 3852 1e3d f8ec 18be 1df1 11be
000003a0: 760b 88be ff9d 9a3c 2fc6 a73d e65b 8bbe
000003b0: 79f7 113c 7748 00bd 5396 f1bd f416 5d3e
000003c0: c92d a3bc 9ddf 70bd 93c5 bebd 25d4 ee3d
000003d0: 52b0 8d3e 8e41 de3d 1d32 ffbd e638 d63b
000003e0: 92ce 8b3e 46ee 7e3e
-0.17847419 -0.122660846 -0.19917192 -0.04441408 -0.26175871 0.101528235 -0.29413366 -0.37865967
-0.34141266 -0.052846942 0.0101937745 0.11739713 -0.17042997 -0.16185224 -0.05896258 0.09919554
0.020885536 0.31474155 0.11493525 0.20290568 0.25718263 0.21195236 0.25597593 0.38559315
0.054073352 0.11097639 -0.0055523887 0.24227406 0.21767299 -0.21011585 0.20054108 0.16679658
0.19550507 0.18221241 0.15930645 -0.06669577 -0.1480648 0.021359233 -0.0339314 0.056207903
-0.119740754 -0.098491184 0.0054853214 0.26284948 0.064740844 -0.06938169 -0.03522597 0.039499257
0.23266807 0.22320384 0.21534692 0.18961151 0.13835832 0.11495242 -0.079352625 0.019046431
0.03656883 0.21103916 -0.08078046 -0.27404016 0.19548768 0.30287668 -0.12567712 -0.26299134
-0.16634567 0.14081807 0.030541975 -0.13412897 -0.3561041 0.045921218 0.2840173 0.113859504
-0.34850627 -0.34414807 0.054908924 0.042311966 0.10982445 -0.1185649 0.102082275 0.27140918
0.017755771 -0.032593872 0.096660025 0.11269867 0.014569759 -0.21418437 -0.1413667 0.267633
0.23817413 0.12506805 -0.21823601 0.21067274 0.1856662 0.24518384 -0.07334889 0.13779594
0.26505136 0.17843854 0.15607977 -0.100338705 0.21582067 -0.13916975 0.012271363 -0.13432364
-0.07406637 -0.037445832 0.021030921 0.2182581 0.10155146 -0.055709228 0.11399854 -0.1365665
0.10633291 -0.019004578 -0.03276385 -0.033235095 -0.19499816 0.02828546 0.1468137 0.2840232
-0.05775209 0.12904271 0.24231037 -0.044891186 0.25642794 0.08930205 0.3015991 0.2555154
0.20300058 0.29793197 0.0487959 0.1859771 0.11686145 -0.053314682 0.053150587 -0.1904654
0.029344438 0.023974586 0.05806497 0.019018225 -0.18871799 -0.2493266 -0.09014385 0.14356446
0.108960375 -0.3062941 -0.3926472 -0.25514004 -0.3473295 -0.20974419 -0.20219421 -0.17630017
-0.09220628 0.03934951 0.024292678 0.08517786 -0.19442984 -0.06179989 -0.2180223 0.1266284
0.060939282 0.24778172 -0.106107235 0.22061062 0.2530353 0.21916655 0.14215611 0.26580298
0.20628248 0.2207665 -0.047208324 -0.13998751 -0.038147483 -0.0047815843 -0.15239584 -0.22068553
-0.31109774 -0.026043126 0.25399113 0.09397354 -0.21079044 -0.18854797 0.17914383 -0.026972448
-0.03423279 -0.2516033 -0.2391624 0.16740887 0.27323124 -0.095270544 -0.29627582 -0.24664032
0.14527752 0.28411952 -0.0652005 -0.2228346 0.035805326 -0.06972703 0.29229322 0.1719662
-0.032722984 -0.072156824 -0.1353947 -0.3165564 -0.35653514 -0.03396066 -0.17158289 -0.24287061
-0.24072301 0.06824621 -0.19587663 -0.2597758 -0.1315927 -0.17624575 0.16029872 -0.23499645
-0.09073554 -0.15515934 0.11548681 0.16116928 -0.40236586 -0.22100897 0.14904031 0.075715385
0.23018263 -0.2663319 -0.20812537 -0.3508493 -0.051242147 0.03865263 -0.14934146 -0.14252134
-0.26571244 0.018874167 0.081920974 -0.2721855 0.0089091 -0.031319108 -0.1179625 0.21590787
-0.019919293 -0.058807004 -0.09315028 0.11661557 0.27673584 0.10852347 -0.1246073 0.0065375445
0.27306038 0.24895582

conv1.bias f4 [10]
00000000: 6dc1 6b3e a136 b5bc b8de 373e 22c6 0bbe
00000010: c5b8 de3d 3b7b 003e ecf4 173e 630b 2bbe
00000020: 7b21 583e 363e 4d3e
0.23023005 -0.022120776 0.17956054 -0.136498 0.10875086 0.12547009 0.14839524 -0.16703562
0.21106522 0.20043263

conv2.weight f4 [20, 10, 5, 5]
00000000: 5cb8 073d f202 593c 3b72 4ebd d053 b03c
00000010: 7ccd 09bd 9242 e83d 27b9 043e d17d 213d
00000020: b5e7 49bc 0da5 debd dbd6 0d3c 3ddc 9d3d
00000030: 374d f33c d0db 56bd 02fd c8bc 8246 3fbd
00000040: a18c 93bb 6920 98bd 82de a0bd 4087 cbbd
00000050: a573 0a3e 47cf 92bd 9d3b 72bd 7143 fabd
00000060: bf20 56bd cd55 31bd 7ba2 68bd 75ef 0ebd
00000070: 439a 23bd 7a56 c3bc 650d 733d b657 2abd
00000080: ae6e 543d 2c3f 2eba d2c5 333c 7b92 ad3d
00000090: ea00 2f3d 3578 353d 71b5 943d fcaa a33c
000000a0: 28fc e73c f0d7 cf3d 084b b23d d297 1e3d
000000b0: 14bd 3bbd 6b32 f7bc e195 67bc ee53 44bd
000000c0: cdc6 d1bb 8010 0f3b 5cfd db3c e392 8d3d
000000d0: b4f3 d83c 2dfe ef3d b63b 19bd 0b2f a1bd
000000e0: be9c eabd 661c d0bc c527 913d 02ed f83b
000000f0: 95b4 1fbe 880f 03be d361 d43b 9138 1c3d
00000100: af20 113d 3d66 8fbd 3854 7dbc 1a91 523d
00000110: d864 4ebd 0af2 933c 8fdc 953c f86a f7bc
00000120: 6770 523d 2b1e 6f3d d348 8b3d de2c 983c
00000130: c380 a7bd 9957 b0bd 3d10 9e3d 1286 4b3d
00000140: 2541 d33b 6629 ec3c ad65 23bd b289 42bd
00000150: decb 4bbd ea3b 923c d412 88bc d407 173d
00000160: 52e5 833d b321 1c3d e4f9 053c fb8f 893c
00000170: 77e1 c63d 082c 5939 6583 803c 2482 343c
00000180: c95e 203c 460f 613d 4337 fb3c bd22 01bd
00000190: ea4e 643c 3db2 a3bb 7728 91bd b254 8d3b
000001a0: a9d8 fe3b 207e d73d 5f91 7c3d faed 4d3d
000001b0: b80c dc3c 7bde 87bd ac52 c03d 570d 353d
000001c0: ce00 b23d dc49 803d 2219 04bd 2403 ecbb
000001d0: ad08 843d 0fe8 823d 0b21 0ebd caa1 95bc
000001e0: d6cd d4bb 29fc 553c 34f7 143d ed9e ef3b
000001f0: e161 d3bd dabd c1bd aa1a 1cbe c4bc c8bd
00000200: 1307 b1bd 9094 82bd 6943 893d b680 1abc
00000210: 1a4b 9fbd 3eeb 153c 7426 783b feaf 273d
00000220: e689 123c f936 3b3d 8efb 07bd 83c8 e5bd
00000230: d62f 0e3e 69c9 083d 8143 01bd f69c 4f3d
00000240: b76a 90bd af82 9dbc f7e4 3a3d 022f 12bd
00000250: 070d 8d3d e8e8 103d e53f 503d 16f0 a2bc
00000260: 702c afbd 346c 153d f408 85bc a81f 03bc
00000270: 4e52 10bc d293 e33c ba68 59bb 9164 c13c
00000280: 8d90 753d 41f5 383d 0537 6e3d 8145 21bd
00000290: f1da 80bd 5088 73bd 6448 6f3d 58d8 bb3d
000002a0: 18a2 d93c e25c 1e3d b71b 47bd 474b 3e3c
000002b0: f4ee 3ebb c82b 24bc dedd bfbd 0283 78bc
000002c0: 7cbf 10bd c647 83bd 0a8a 8e3d 3b49 493c
000002d0: 4064 983c 8dd2 cdbc 4c4f bcbd 0d19 31bc
000002e0: 6502 7d3d 039e f0bd b47c d5bd a60c 8ebd
000002f0: 0257 003c 0efe fe3c d16c adbd 4c5a 15be
00000300: 57f8 343c becc ce3d 8414 8cbc 9551 9fbc
00000310: cce9 45bd 098d 0e3d cde8 9b3c 8cbc 053c
00000320: e0d2 243d 75a8 e4bd 270b 71bb 5f6f 9a3c
00000330: d7b0 003e 3827 e1bd fe7b c9bd 6f39 eabc
00000340: 22cd 5bbd a147 bc3d 3b5d 0fbe 2fad f6bd
00000350: 202e edbd b071 ddbd 2394 263c e158 9cbc
00000360: 0d00 dbbc 6959 81bc 30be fcbb 168c 903d
00000370: 56b2 043e f04e d73c 896a 303c b6e8 ec3d
00000380: 8a86 eebc 6c9f b1bc 753e bebd d6fa 9e3c
00000390: 1aa3 853d 2d27 2e3d 3c91 c3bd 520d ccbd
000003a0: 45b3 2b3b df13 7f3d c124 573c 75ca fbbd
000003b0: 1ae2 8fbd 44f6 54bc c8d0 5d3d 13e5 813d
000003c0: 9a76 7fbc 37e4 033a 751b 053d e870 723d
000003d0: b85a 8cbd 49a1 793c 7bff 2dbd 0c6a 5a3d
000003e0: db4f 723d bef6 243c 6e36 d43c 7a65 f33c
000003f0: 6354 583d faeb c4bd e410 10bd f2ce 993d
0.033134803 0.013245331 -0.050401907 0.02152434 -0.03364323 0.11340822 0.12961255 0.03942663
-0.01232331 -0.10871325 0.008657183 0.07708023 0.029699905 -0.052455723 -0.024534706 -0.0466981
-0.0045028483 -0.07428057 -0.0785494 -0.09937906 0.13520677 -0.07168441 -0.059138883 -0.12219895
-0.052277323 -0.043294717 -0.05679558 -0.034896333 -0.039942037 -0.023844946 0.059338946 -0.041587554
0.051863365 -0.00066469866 0.010972457 0.084752046 0.04272548 0.04430409 0.0726117 0.019978993
0.02831848 0.10148609 0.08705717 0.038719006 -0.045834616 -0.030175408 -0.014134855 -0.047931604
-0.0064018727 0.0021829903 0.02685421 0.06912782 0.026483394 0.11718402 -0.03741046 -0.07870301
-0.114556774 -0.025404166 0.070876636 0.007596613 -0.1559623 -0.12798893 0.006481388 0.038139883
0.03543156 -0.07001922 -0.015461974 0.05140791 -0.05038914 0.01805975 0.018293647 -0.030202374
0.051376726 0.05837838 0.068009995 0.018576082 -0.08178856 -0.08610458 0.07717941 0.049688406
0.006446975 0.028828334 -0.039891887 -0.047494598 -0.04975497 0.017850835 -0.01661054 0.0368727
0.06440224 0.038118076 0.008177254 0.016792288 0.09710973 0.00020711136 0.015687654 0.011017356
0.009788224 0.054946207 0.030666 -0.03152727 0.01393483 -0.004995613 -0.07087796 0.004313075
0.0077772927 0.10522103 0.061662074 0.05027578 0.026861534 -0.06634232 0.093907684 0.044202175
0.0869156 0.062640876 -0.03225053 -0.007202523 0.06446967 0.06391918 -0.03469948 -0.018265624
-0.006494264 0.013060608 0.036368564 0.0073126466 -0.10321403 -0.094600394 -0.15244547 -0.09801629
-0.086439274 -0.06375992 0.067023106 -0.009430101 -0.07777996 0.009150324 0.0037864717 0.040939324
0.00894401 0.045706723 -0.033198886 -0.11219885 0.13885435 0.033395205 -0.031558517 0.0506868
-0.07051604 -0.019227354 0.045628514 -0.03568936 0.068872504 0.035378367 0.050842185 -0.019889873
-0.08553398 0.036480144 -0.01623962 -0.008003153 -0.0088086855 0.027780447 -0.0033173994 0.023607524
0.059952307 0.045155767 0.05815794 -0.039372925 -0.0629176 -0.05945617 0.058418646 0.09172124
0.02656655 0.0386628 -0.048610415 0.011614627 -0.0029134126 -0.010020204 -0.0936849 -0.015167953
-0.035338864 -0.06410174 0.069599226 0.012285526 0.01860249 -0.025124812 -0.09194812 -0.010809195
0.06176986 -0.11748888 -0.10424176 -0.06936006 0.007833244 0.031127002 -0.08468021 -0.14585227
0.011045537 0.10097645 -0.017099626 -0.019448081 -0.04831867 0.03480247 0.019031907 0.008162629
0.04024017 -0.11164943 -0.003678033 0.018851934 0.12567459 -0.109938085 -0.09838103 -0.02859184
-0.053662427 0.0919335 -0.14000408 -0.12044751 -0.11581063 -0.108127 0.0101671545 -0.01908535
-0.026733423 -0.015789704 -0.007713102 0.07057969 0.12958655 0.026282758 0.010767587 0.115678236
-0.029116888 -0.021682464 -0.092892565 0.019406717 0.0652525 0.04251783 -0.09549186 -0.09963478
0.0026199382 0.06227481 0.013131321 -0.12294475 -0.07025547 -0.012998167 0.054154187 0.063425206
-0.015592242 0.000503126 0.03249689 0.059189707 -0.06853241 0.015236207 -0.042479973 0.05332379
0.059158187 0.010068594 0.02590486 0.029711474 0.052814852 -0.096153215 -0.03517236 0.07510175

conv2.bias f4 [20]
00000000: f701 ca3b e577 57bd 9b0a a73c 6f5a 7ebc
00000010: 3815 ec3c 426d c23c 970c 063b f51b 643d
00000020: c225 ae3c 2143 a33d bb6c 4bbd 7aa5 843d
00000030: f29c 45bd 974d 8bba 328e 223d 9ac6 283d
00000040: a27b d5bc a008 31bd 7273 22bd ec4d 9d3d
0.006164785 -0.052604575 0.0203908 -0.015524491 0.028818712 0.023733739 0.0020454281 0.055690724
0.021258239 0.07971788 -0.04966424 0.06476875 -0.048245378 -0.0010627982 0.03968639 0.041205026
-0.02605993 -0.043221116 -0.03966088 0.07680878

fc1.weight f4 [50, 320]
00000000: b4e8 a03d 25e7 a53c 09fb 1fbd 7fb3 7b3d
00000010: 8eef c93d be10 433d db1f ca3c 55d9 8c3d
00000020: 8fb2 023d de6a 95bd f74f bdbd 5b61 28bd
00000030: 1776 85bc b8e9 1cbd 19ed 6a3c 5d80 1bbc
00000040: 122e 4b3d 7a84 7eb9 8b5e da3c 9133 883d
00000050: 9e66 3bbd f01f 43bd cf70 843d 42f3 00bd
00000060: 69b9 c03c 86e6 9dbc 92c9 0a3d 40a8 5f3d
00000070: d0c4 3fbc 978e 00bd 6503 bebd e7d6 03bd
00000080: dd11 413d 3fdf f03c b065 17bd 3314 63bc
00000090: 7439 553c 064d f6ba 0d64 3cba 8713 a5bc
000000a0: d5fa 973c dad9 2e3d 97b2 aebc feea 8abb
000000b0: 1ab7 c33d eff0 e63c 59be 25bc a592 963a
000000c0: a5e9 45bd e2e6 d93c 940d cdbd eb36 1cbc
000000d0: 99ab 3b3d a6db 09bd 1bd2 eabb e0d9 cabc
000000e0: 7434 13bc a957 46bd 3cfe 653d 3e33 893d
000000f0: fa30 51bd a5e4 b03d 93c4 093d 2546 a03c
00000100: 9460 44bd fe76 4bbd 575b 9fbd 1605 e23b
00000110: fe0a f3bc c4ac a6bd 1a44 853d 8663 003e
00000120: 0e5a 8b3d 8baa d5bc 57bb 48bd b293 1dbd
00000130: 8b20 8d3d cf1e 9ebc 78db 90bd 23fc 64bd
00000140: b6c6 aa3d 0442 fe3c a900 b4bb b58d 963c
00000150: dcec ea3c f53a c8bd 9f61 bebc ca74 10bd
00000160: c0ff e7bd 8882 6a3c 7a67 17bc dfe9 e6bd
00000170: 0847 1b3c e9fd 243d 53c4 d93c 52b7 cdbd
00000180: f465 ad3c e67e a53d e426 023d 6737 293d
00000190: bb8e 3abd 38c1 92ba b775 1c3c 0707 f2bd
000001a0: 6824 c8bd 5f64 f2bb 9d4d 313d 0009 61bd
000001b0: 6b64 513d e5fe b13c bc8d 09bd a402 e3bb
000001c0: bc9e 523d bb2a 99bb 32a5 86bc cf23 853d
000001d0: 7bed e23c 9c6e 13bd 26bc 9a3b 7299 5e3d
000001e0: 4c9e 373c 3cf1 1b3d 1673 f93c 77b6 853d
000001f0: 169e ce3c cc99 ccbc 1f2c a3bc d97d c7bb
00000200: 0147 a6bc 870c 54bd 874f bfbc 75fd c1bc
00000210: 949d a83c a81d f23c eaa1 7ebd 3f1f 7dbc
00000220: 5d11 4e3c b6ce 553d b24e 1fbd 6e1e 05bd
00000230: d778 083d 479f c83d fa10 ab3c 0778 36bc
00000240: b77e 573c bb54 a5bd 5305 30bd fd4d 9f3d
00000250: a34b 813d 3ed9 c5bd 263d db3b 6393 b73d
00000260: 7066 223c 00ff 90bd 9f86 e2bd 65c0 2bbd
00000270: 71b5 aebc b003 b2bc e693 f8bd 5ce7 96bd
00000280: 5d07 00bd d9f5 37bd 4963 39bd 8c6f 253b
00000290: 8329 533c 1548 af3c c261 57bd ef6b 96bb
000002a0: b1ca 633d da04 df3c 9bd1 e6bd 75ec 2a3b
000002b0: f4cc 693d 2146 cb3d a98c a8bb 6cc0 903b
000002c0: fd9f 343d bb9e d33c d306 a6bc 1d5a 863b
000002d0: 96b4 c0bd 6d86 6bbd 563a f7bd 5e53 0b3d
000002e0: bab1 6bbd 477a 343a e478 d3bc fb40 92bd
000002f0: 7f37 43bd 855d bc3d be20 da3c eb29 d6bd
00000300: e792 623d f02e 3b3c 4569 1dbd 41b3 f53b
00000310: 998d 253c a0ec 093d f4c5 f6bc 9780 493d
00000320: da67 9c3d 31c6 993c 6004 dcbb c996 df3c
00000330: 0492 ffbc dcab 48bc 9db0 89bc d502 2dbd
00000340: 87c9 15bd 7386 5ebc 5502 8b3c ed9c 32bc
00000350: 9b0d 01bd c665 a3bb e2f1 61bd 21f1 18bd
00000360: d4f5 ae3c 8d1b 6bbc 2409 b6bd be2c 1e3d
00000370: 17e1 3d3c b242 bdbc 61b4 583d 25d6 a53b
00000380: 22a8 1d3b 7d14 a93c 8f09 893b 8c0f 0d3d
00000390: b641 d43c 9133 643d 3968 523d 9d9a 1ebd
000003a0: 3009 5e3c e600 643d 1821 27bd 923c 57bc
000003b0: da3f 6b3b fa22 483d 2864 e93c 1fb3 b63c
000003c0: 1fa2 e8bc 1ff2 00bc 243f 533c fe67 e9bb
000003d0: 4335 203d d824 ccbb 3859 b43d 19da 82bc
000003e0: cfa2 68bd 5e53 4b3d 1454 48bc 0cf9 5d3d
000003f0: 163c 9b3c 3865 e83d 6cab 32bc 0db1 8bbb
0.078568846 0.02025182 -0.039057765 0.061450478 0.098601446 0.04762339 0.024673393 0.0687739
0.031908568 -0.07295774 -0.09243768 -0.04110847 -0.016291661 -0.03830883 0.014338755 -0.009491053
0.049604483 -0.00024272679 0.02665641 0.066504605 -0.04575216 -0.04763788 0.06466829 -0.03148199
0.02352591 -0.019274961 0.03388364 0.054603815 -0.011704639 -0.031385984 -0.09277991 -0.03218737
0.047136176 0.029403327 -0.03696221 -0.013859796 0.013014186 -0.0018791265 -0.00071865396 -0.020150913
0.018552223 0.04268823 -0.021325393 -0.004239439 0.09556408 0.028191058 -0.010116183 0.0011487795
-0.048318524 0.026599351 -0.100123554 -0.009534578 0.045817945 -0.03365674 -0.00716616 -0.024762094
-0.008984674 -0.048423443 0.05615066 0.06699227 -0.0510721 0.086373605 0.033634733 0.019564698
-0.047943667 -0.049674027 -0.077810936 0.006897579 -0.029668327 -0.08138421 0.0650713 0.12537965
0.06804286 -0.026082298 -0.049006786 -0.03847093 0.06890973 -0.0193018 -0.0707311 -0.05590452
0.08338682 0.031037338 -0.0054932428 0.018378118 0.028677396 -0.0977687 -0.023239909 -0.03526763
-0.11328077 0.014313348 -0.009240979 -0.11275076 0.009477384 0.04028121 0.026582872 -0.10044731
0.02116678 0.080808446 0.03177537 0.0413126 -0.045546275 -0.00111965 0.00954955 -0.118177466
-0.09772569 -0.007397219 0.04328691 -0.054940224 0.051121157 0.021727988 -0.033582434 -0.006927805
0.051420912 -0.0046742833 -0.016436193 0.065009706 0.02770113 -0.035994157 0.004722136 0.054345556
0.0112071745 0.038071856 0.030450385 0.06528943 0.025221866 -0.02497568 -0.0199185 -0.0060880003
-0.02029753 -0.05176976 -0.023353351 -0.023680428 0.020582952 0.029555157 -0.062166132 -0.015449344
0.012577382 0.052199088 -0.03889341 -0.032499723 0.033318367 0.09796005 0.020882118 -0.011137015
0.01315277 -0.08072802 -0.042973828 0.07778547 0.06313255 -0.09660576 0.006690639 0.08963659
0.009912118 -0.070798874 -0.11060833 -0.04193153 -0.021326752 -0.021730274 -0.121375844 -0.07368347
-0.031257022 -0.044912193 -0.0452607 0.002524349 0.012888315 0.021396676 -0.052583463 -0.0045905034
0.055613223 0.027223993 -0.11270448 0.002608088 0.057080224 0.099254854 -0.005143721 0.0044174697
0.04409789 0.025832525 -0.020266926 0.004100098 -0.09409444 -0.057501245 -0.120716736 0.034015052
-0.05754254 0.0006884676 -0.025814481 -0.071413 -0.047660347 0.09197525 0.02662694 -0.10457214
0.05531588 0.011424765 -0.03843047 0.0074981754 0.01010456 0.03367293 -0.030123688 0.0491949
0.076369956 0.018771263 -0.0067143887 0.02729358 -0.031197555 -0.012248006 -0.016807849 -0.04223903
-0.036569145 -0.01358186 0.016968885 -0.010901672 -0.031507116 -0.0049864976 -0.055162318 -0.037339333
0.021357454 -0.01434983 -0.08888462 0.03861689 0.01158931 -0.023103092 0.052906398 0.0050609284
0.0024056514 0.020639652 0.0041820477 0.034438655 0.02591024 0.05571324 0.051368926 -0.03872167
0.013551995 0.05566492 -0.040803045 -0.013137 0.0035896213 0.04886148 0.028490141 0.022302208
-0.028397618 -0.007870226 0.012893472 -0.0071229925 0.039113294 -0.006229978 0.088060796 -0.015973138
-0.05679589 0.049640052 -0.012227077 0.054192588 0.01894955 0.11347431 -0.010905128 -0.0042630495

fc1.bias f4 [50]
00000000: 74be d83c 2a4d 10bd f520 5c3d 9734 623d
00000010: c2b5 8bbb 5c56 693d 3d81 aeba 27fd 523d
00000020: f0c2 fa3c 47d4 0dbd 0093 c43c a1e1 67bc
00000030: 9ee4 bf3d a132 a83d ffd0 883d bb85 833d
00000040: 6c9c f73c 95e2 553d 2db3 31bd f481 823d
00000050: ef54 863d 09b0 463d 45da 473c 6dd2 97bc
00000060: 41fb f43b af52 47bb 20b1 31bd f8a2 123d
00000070: d1af 8a3c 5d56 6c3c edec c93a 52c3 0b3d
00000080: 03d6 703c fb55 aa3c 0348 073c 15db 603c
00000090: 5438 7b3d 5109 e83c 8c1f ca3b f4da ac3c
000000a0: 89b5 4f3c b35e 553d c67d 44bc 3365 dfbc
000000b0: 1b5d 713d e591 a33c df4d 223d e4b8 873c
000000c0: f050 973b f20b 383d
0.026458003 -0.03522984 0.053742368 0.055225935 -0.0042636106 0.056967124 -0.0013313662 0.051510956
0.030610532 -0.03462627 0.023995876 -0.014152915 0.09369777 0.08212782 0.06680488 0.064219914
0.030225955 0.05221804 -0.043383766 0.06372443 0.065591685 0.048507724 0.012198036 -0.018532956
0.007476241 -0.0030414273 -0.04338181 0.03579995 0.016929539 0.0144248875 0.0015405692 0.03412182
0.014699462 0.020792952 0.008256915 0.013724108 0.061333016 0.028324755 0.0061683115 0.021100499
0.012677559 0.052092265 -0.011992877 -0.027269935 0.058926683 0.019967029 0.039625045 0.016567655
0.004617803 0.044933267

fc2.weight f4 [10, 50]
00000000: f683 443e be24 00be c8ab cc3d 2246 04be
00000010: 1a75 46be e3c7 39be ced6 ad3d b222 1abe
00000020: 31f0 d7bd f935 26bd 3816 44be 594b 8a3d
00000030: 9163 96bd 2833 05be 7896 69bd 489b 11be
00000040: 5f68 6bbe 8f6f 4ebe 9d71 013e 0f06 cdbd
00000050: d5b2 0b3e 5b13 073d bd3c dcbd 3780 7f3d
00000060: 892a 3dbe 250b fc3d 7c08 f1bd e3e2 04be
00000070: 3fb7 d2bd 09f5 fd3d 7785 18be 0762 4bbd
00000080: e292 053e 98fc 2f3d 363c b1bc 9976 9d3d
00000090: fc4b f33d 3a13 f33d de65 2d3e 38a7 173e
000000a0: 5839 b63d 1e96 c03d e030 91bd 97d2 2c3e
000000b0: 4699 17be e9f7 7abc 3163 133e ae1e 4cbd
000000c0: a0c5 02bc 6786 663d e7d3 b6bd c9a8 70bd
000000d0: 09bd 41be bd8f 303e 3a03 bb3d 4755 ad3d
000000e0: 8854 113e 1789 1f3e 0914 4cbe ea03 2fbe
000000f0: 8868 f8bc 04d8 35bd fc90 a93d d1cc 913d
00000100: e011 4abe 8d7c 0e3e f2e4 bbbd 83d9 0b3e
00000110: 9a38 df3d da63 f83d edd3 fabd 7061 4abe
00000120: 6ed0 5cbe 9d3a 0c3e 16a7 d73d 4629 4cbe
00000130: 8cfe 0bbe 43de 0dbe c6dd ce3d 1a57 ae3c
00000140: 5e42 663d bbc3 da3d ee09 d03d 9b62 833d
00000150: 1d48 abbd 2636 efbd b1e9 45be 0f77 a1bc
00000160: e1fe 4fbe dffd 19be 688a 33be 920f bcbc
00000170: 66a0 1abe 3101 26bc c52b bf3d b195 5cbe
00000180: d1b6 1f3e 998d 43be 3429 e1bc 514b 55be
00000190: 2d52 c7bc 05b4 a5bd 99fd 5abe ca26 cdbc
000001a0: e3cd bbbd ce47 99be 528a 073e bcff afbd
000001b0: e8d2 1ebe b885 093e 84fb 12bd 3981 c03d
000001c0: 3ad4 e2bd 5472 01be 8088 3ebe e921 d13d
000001d0: 10c8 cbbd 6814 3abe 110f 203e 069c 103e
000001e0: d59c 01be eefc 693d 9ba1 ecbb 8761 9e3c
000001f0: 4872 0d3e 9e8c dd3d e5ec d83d 3730 debd
00000200: f069 e53d 38a6 e53d 2071 b73d f189 023e
00000210: 6c25 e93d 677d 423d 73a3 6bbe 41be 3c3d
00000220: 4af9 14be 0a3f ca3d 7a3f 45bd a380 6bbc
00000230: 1a3a 09bc 8a1d 9a3d fb34 043e d26a 083e
00000240: 154b a83c 5bfe dc3d 69e1 33be ff9b 19be
00000250: 60d3 9dbd 0577 90bd 90e1 dcbd a136 90bd
00000260: 3474 1dbe bc01 28be 2431 a3bd b47c d5bd
00000270: e50c 02be d1a3 54be 50f1 c63d 2fbf d43d
00000280: 778c ea3d 1db2 ee3d 5297 ae3d f938 48be
00000290: 96d6 00be 08f7 0e3e 4247 6e3d 889d d23d
000002a0: d621 003d 95b1 433d 64f0 f3bd cd26 e73d
000002b0: 1c7a 3ebe 73ed fcbd 8d28 38bd 36f9 efbd
000002c0: 3642 cabd 5156 fa3d 5b41 df3d 45bf ea3d
000002d0: 4688 933d 5025 003b f0fc 22be 3025 b23d
000002e0: 7b5a 243d a01d 81bd 849a 713c ffd5 0d3e
000002f0: f779 05be 9e79 da3c 2f21 0abc 7f36 a13d
00000300: a95e 1bbd 0b0a a3bc d0e4 b43d bfb6 41bd
00000310: 40e8 0bbe ffb2 25be a8eb a0bd 0426 a73d
00000320: 597f 213d 6320 633d b70f 2dbe cb14 f13d
00000330: f4c7 c93d 5b0e 29bd b886 083e 05d3 213e
00000340: 84f9 5e3d a5e1 f73d 87f7 a23d 4119 17be
00000350: 5f8e d63c 7053 503d ea6b 913d 255b 013e
00000360: b04d db3d 0469 2cbd 0b3e b13c adce 45be
00000370: 43bb a4bc 5ec3 2dbd cc32 f03d 4e28 183e
00000380: 780a c2bd d908 933d 76cf 0c3e e816 093e
00000390: 2b89 dfbd 2499 febd e9a1 0dbe 54e4 4fbd
000003a0: e6ce 113d 539f 24be 72eb b43d 4362 34be
000003b0: 4e53 cc3d c5a9 d4bd b948 a13d d7fa 833d
000003c0: 5825 b7bd b9f3 76be 4138 6ebe f450 6dbd
000003d0: b336 1cbe aeeb b53d b1a0 d8bd 7312 1b3e
000003e0: e506 413e d292 81be c421 9abd a132 c83d
000003f0: 6568 053e d1fc 23bd 829b 113e fa52 183d
0.19190964 -0.12514016 0.09993702 -0.12917379 -0.19380608 -0.18142657 0.08488236 -0.15052298
-0.1054386 -0.040578816 -0.19149101 0.06752653 -0.073432095 -0.13007796 -0.057028264 -0.14219391
-0.22989033 -0.20159744 0.12640996 -0.10010921 0.13642438 0.032977443 -0.107537724 0.062378135
-0.18473257 0.12306813 -0.117691964 -0.12977175 -0.10288858 0.12400252 -0.14894663 -0.049654033
0.13044313 0.0429655 -0.021635156 0.07688636 0.11879727 0.118689016 0.1693339 0.14809883
0.08897656 0.094036326 -0.070894 0.16877209 -0.14804563 -0.015317895 0.14393307 -0.049833946
-0.007981688 0.05628052 -0.08927136 -0.058754716 -0.18919767 0.17242332 0.09131475 0.08463531
0.14192402 0.1557964 -0.19929518 -0.17091337 -0.030323282 -0.04439546 0.08279607 0.07119144
-0.19733381 0.139147 -0.09174527 0.13657193 0.10899468 0.1212842 -0.12247453 -0.19763732
-0.21563885 0.13694234 0.10529916 -0.1993762 -0.1367132 -0.13854317 0.10100894 0.021281768
0.056215636 0.10681864 0.10158144 0.06415292 -0.08363364 -0.1168025 -0.19327427 -0.019710092
-0.20312072 -0.1503825 -0.17533267 -0.022956643 -0.1510025 -0.01013212 0.0933452 -0.21541478
0.15597083 -0.19096984 -0.027485467 -0.20829512 -0.024331177 -0.080909766 -0.21385802 -0.02504291
-0.09170129 -0.29937595 0.13236359 -0.08593699 -0.15510142 0.13429916 -0.035884395 0.09399647
-0.11075635 -0.12641269 -0.18606758 0.10211546 -0.09950268 -0.18171847 0.15630747 0.14122018
-0.12657483 0.05712598 -0.0072214133 0.019333614 0.13813126 0.10817836 0.10592059 -0.1084904
0.112018466 0.11213344 0.08957124 0.12747933 0.11384091 0.047482874 -0.2301157 0.046079878
-0.14548221 0.09875305 -0.04815624 -0.014373931 -0.008375669 0.075251654 0.12910835 0.13321999
0.020543614 0.10790702 -0.17566456 -0.15000914 -0.07706332 -0.07053951 -0.1078521 -0.0704167
-0.15376359 -0.16406912 -0.07968357 -0.10424176 -0.12700231 -0.20765616 0.097139955 0.10388028
0.11452573 0.11655066 0.08524956 -0.19552983 -0.12581858 0.13961422 0.058173425 0.10283953
0.03128227 0.047776777 -0.11911085 0.112866975 -0.18601269 -0.12349977 -0.044960547 -0.11717455
-0.0987591 0.12223495 0.109011374 0.11462263 0.072037265 0.001955349 -0.159168 0.08698499
0.04012535 -0.06304479 0.014746312 0.13851164 -0.13034807 0.02666932 -0.008430763 0.078717224
-0.03793207 -0.01990225 0.08832705 -0.04729342 -0.13662815 -0.16181563 -0.07857448 0.08161548
0.03942809 0.05545081 -0.16900526 0.11771544 0.09852591 -0.041273456 0.13332641 0.15803154
0.054437175 0.12103585 0.07957368 -0.14755727 0.026190935 0.050860822 0.07100661 0.12632425
0.10708177 -0.04209234 0.02163603 -0.19317122 -0.020108825 -0.042422645 0.11728439 0.14859125
-0.09474653 0.07179422 0.13751015 0.13387644 -0.109148346 -0.12431553 -0.13831295 -0.05075486
0.035597704 -0.16076402 0.0883397 -0.17615609 0.099768266 -0.103839435 0.07875199 0.06444328
-0.0894267 -0.2411641 -0.23263647 -0.05793853 -0.15255241 0.08882843 -0.105775245 0.15143757
0.18850286 -0.25307328 -0.075259715 0.09775282 0.13028105 -0.040036026 0.14219478 0.037188508

fc2.bias f4 [10]
00000000: 8444 45be 3c76 cd3d e61f b63d 4552 923c
00000010: 5ab1 42be c496 b83d 8a65 1fbd 1b30 c0bc
00000020: f9e1 b53d 1690 1ebe
-0.19264418 0.10032317 0.08892803 0.017861495 -0.19012967 0.09013131 -0.038915195 -0.023460438
0.088809915 -0.15484652

exp_avg f4 [10, 1, 5, 5]
00000000: d0ef a03b 4e49 033b 43bd 87ba 2f8b 83ba
00000010: 6547 81bb 8fac 973a 5f09 ce3a 512b 5d3a
00000020: 0612 14bb e9d6 86bb 927a 67ba 7dec 7eba
00000030: 4768 a2bb 5599 11bc 2df7 07bc 3dea 95bb
00000040: 7e68 29bc 53e3 6cbc 708f 6dbc 85a5 43bc
00000050: f135 9abb cdf7 0abc da05 63bc 5b3f 78bc
00000060: 0fe9 4bbc d800 c2bb 011b dfbb b6a6 5ebb
00000070: 7fcb 783b c395 033c 7a2c cbbb 280e fdbb
00000080: f649 acbb c70e fb3a 3f82 083c 8468 97bb
00000090: 3d3b d8bb 734a a6bb bd1a 813a 777f f23b
000000a0: 2497 b9bb bd4a e1bb cc1d 53bb 32b7 963b
000000b0: 92cd d63b 8886 bdbb f5de b1bb e4d8 c4ba
000000c0: c948 6f3b 307a 773b 0512 80b9 4fc1 b2ba
000000d0: 3bdf 5abb 44e3 71bb a123 42bb 40fc 18bb
000000e0: 5fa7 40ba 45f1 083a 7515 8cb8 0220 4439
000000f0: 7e59 5c3b e3ab 753b 0d91 9c3b 7cc1 923b
00000100: 7b8e 8c3a d12c d23b 033a c93b 1d06 eb3b
00000110: 45ba c33b a502 803a 0155 bf3b d796 c33b
00000120: 9317 dc3b f907 c63b d370 a838 9837 3abb
00000130: 198a 58bb f962 c0ba 82ed 003b dbaf ce3b
00000140: a477 9cba 93ab 24bb 0096 763a 38d0 883b
00000150: 8a57 f63b 5d68 8fba 77d7 51b8 0a23 a13b
00000160: 3324 cf3b 24a2 133c 3f4f 7dba 3c25 1a3b
00000170: 3b60 cc3b b4aa d03b 3049 043c 7f9e d9ba
00000180: c68b a03b bd10 e83b d36c dc3b 771c 1f3c
00000190: 5791 97bb da4e 11bb 182a c8ba 94f7 373b
000001a0: 93a5 bb3b 79f4 b1bb b9a9 a1bb 7109 a7bb
000001b0: 3faa 983a 51ed c03b e877 8fbb 2270 babb
000001c0: f7ea 48bb 2177 fa3a 523d f33b 3950 babb
000001d0: 7c05 e3bb af6d 38bb 9535 2f3b 63a0 c03b
000001e0: e517 edbb 2894 f6bb 04d3 69bb 9906 ab3a
000001f0: 8467 af3b 61c7 b9bb ef6f 16bc 7d73 24bc
00000200: 02e1 54bc 636c 84bc 45ad 8ebb 22ed b7bb
00000210: 0688 d4bb a565 efbb 6f81 31bc 1634 e0ba
00000220: d20d 9bbb c732 b0bb eba4 59bb 2b02 24bc
00000230: 0ddc 3c3a fb8c 8fbb 8993 35bb e1d9 cfba
00000240: 80c9 bbbb 4679 013a 42cc 43bb 83f6 16bb
00000250: 74c2 c6ba 4021 4dbb 7665 d137 0cdc 78ba
00000260: ffd9 4eb8 708b 863b ad68 e63b dbb6 0abb
00000270: c884 86ba 1ae0 8238 64ef 0f3b cd2c c43b
00000280: d18a 8dbb f5d5 70bb befe 10bb 9d0d dd39
00000290: ffc4 493b b1c8 a5bb 4d85 92bb fa4b 79ba
000002a0: 321e d83a 3c89 4a3b 92af 5cbb 9da8 c4ba
000002b0: 2537 f43a 0278 823b 4f54 573b 2233 bcb7
000002c0: 57d5 2a3b c721 973b 9ce1 073c 0b05 2a3c
000002d0: b0b5 943a 3dea 333b 9ac8 b13b bbff c03b
000002e0: fb61 f93b 2958 a839 b355 7b3b f14f d33b
000002f0: f4f4 dc3b fa8c ed3b a4d6 953a ca7c a13b
00000300: a678 193c e9f1 013c 346e ba3b 075a 383a
00000310: bbf3 7f3b 3e0f e13b 3f5e a83b 5495 3e3b
00000320: 8107 d1bb f627 55bb 2c3b 32ba 424f 6d3a
00000330: 1a58 963a dae1 9aba da8f dd39 d6e3 ff3a
00000340: c781 de3a b355 9fba 34b2 c13a ea36 0d3b
00000350: 329c 3f3a 3679 0dba 00db a0bb c005 3b3b
00000360: 04a0 e33a 9bc3 b2b9 94f5 b5ba 247f bdbb
00000370: ee81 563b 04ae 603b 07a3 743b 8672 873a
00000380: 1ed9 50bb 1bba 39ba 06ed adba 537f 2bbb
00000390: f87b f6ba 6f1b 8cb9 5bbd c33a 6fe1 c4b6
000003a0: 05ed 1cbb f0cc 0ebb 9c2e 063b 7a92 0f3a
000003b0: 3c8b 1fba e1d4 36bb 0df8 83bb dba6 d0b7
000003c0: e6a2 263b 5451 b5ba f7f6 49bb d103 e8ba
000003d0: 8e67 1fba 1554 c739 0357 78b9 8f5c 823a
000003e0: c33c 963a e833 8f3a
0.0049114004 0.0020032707 -0.0010356087 -0.0010035987 -0.0039452785 0.0011571812 0.0015719346 0.00084369356
-0.002259375 -0.0041149748 -0.0008830215 -0.00097245706 -0.0049562785 -0.008886655 -0.008298677 -0.0045750425
-0.010339854 -0.014458495 -0.01449953 -0.011941318 -0.0047061373 -0.008481932 -0.013856376 -0.015151824
-0.012445702 -0.0059205107 -0.006808639 -0.003397388 0.003796309 0.008031311 -0.0062003704 -0.007722635
-0.0052578403 0.0019154184 0.008331834 -0.0046206135 -0.0065988586 -0.005074793 0.0009849888 0.007400449
-0.0056637693 -0.0068753646 -0.0032213805 0.0045994753 0.0065552676 -0.0057838596 -0.00542819 -0.0015018252
0.003651189 0.0037762038 -0.00024427488 -0.0013637933 -0.0033397216 -0.0036909143 -0.0029623287 -0.0023343712
-0.0007349159 0.000522394 -6.679717e-05 0.0001870394 0.0033622677 0.0037486486 0.0047780336 0.0044786315
0.0010723615 0.006414034 0.0061409487 0.0071723596 0.005973133 0.0009766413 0.0058389907 0.0059689092
0.0067166775 0.006043431 8.0318794e-05 -0.0028414484 -0.0033041297 -0.0014677934 0.0019672816 0.0063075847
-0.0011937511 -0.002512668 0.0009406507 0.0041752122 0.0075177597 -0.0010941137 -5.003015e-05 0.004917507
0.006321454 0.009010825 -0.00096629927 0.0023520729 0.0062370575 0.0063680056 0.00807409 -0.0016603022
0.004899475 0.0070820735 0.00672684 0.009711376 -0.00462548 -0.0022172243 -0.0015271334 0.0028071152
0.005726525 -0.0054307547 -0.0049335626 -0.005097561 0.0011647417 0.0058876653 -0.0043783076 -0.005689637
-0.0030657628 0.001910899 0.0074230814 -0.005685833 -0.006928144 -0.0028141548 0.0026734818 0.0058784946
-0.0072355145 -0.007524986 -0.0035678754 0.0013048231 0.005352916 -0.00566952 -0.0091819605 -0.0100373
-0.012993099 -0.016164964 -0.0043541514 -0.005612985 -0.006485942 -0.007305818 -0.010834082 -0.0017105367
-0.004731872 -0.005377147 -0.003320987 -0.0100102825 0.0007204421 -0.00438082 -0.0027706346 -0.001585778
-0.005730808 0.00049390306 -0.0029876386 -0.0023035116 -0.0015164153 -0.0031300336 2.4961988e-05 -0.0009493239
-4.9317252e-05 0.0041059777 0.0070315213 -0.002116612 -0.001026296 6.240625e-05 0.0021962756 0.005986786
-0.0043195267 -0.0036748622 -0.0022124494 0.00042162547 0.0030787585 -0.0050593247 -0.004471457 -0.00095099176
0.0016488491 0.0030904552 -0.0033673984 -0.0015003864 0.0018632157 0.003981591 0.0032856648 -2.2435157e-05
0.0026067102 0.004612181 0.008293536 0.010377179 0.0011345651 0.002745285 0.005425525 0.0058898604
0.007610557 0.00032109141 0.0038350641 0.0064487387 0.006743068 0.0072494717 0.0011431766 0.004928206
0.009367144 0.007931211 0.005689407 0.0007032458 0.0039055187 0.006868272 0.005138188 0.0029080706
-0.0063790684 -0.003252504 -0.00067989784 0.0009052643 0.0011470348 -0.0011816577 0.00042259583 0.0019522856
0.0016975933 -0.0012156278 0.001477784 0.0021547624 0.00073093467 -0.0005396785 -0.0049089193 0.0028537363
0.0017366414 -0.00034096543 -0.0013882392 -0.0057829786 0.0032731253 0.003428341 0.0037328617 0.0010333813
-0.0031867693 -0.0007084922 -0.0013269491 -0.002616842 -0.0018805256 -0.0002672332 0.0014933752 -5.867499e-06
-0.0023944986 -0.0021789633 0.0020474559 0.0005476844 -0.0006086116 -0.0027897882 -0.0040273727 -2.487323e-05
0.0025426685 -0.0013833442 -0.0030817369 -0.0017701333 -0.00060807995 0.00038018884 -0.00023683537 0.0009945798
0.00114622 0.0010925503

exp_avg_sq f4 [10, 1, 5, 5]
00000000: 5c5b 5639 5742 1a39 ba72 b438 aed4 d138
00000010: ecc8 3739 9e66 5339 ce48 0139 1549 ac38
00000020: eb29 0039 45fa 9139 3fd6 7239 b1f8 4539
00000030: 572c 3939 ce73 9439 ed90 ed39 9ab2 b539
00000040: 64e0 c139 74f6 fa39 0a0a 1d3a 420b 203a
00000050: fdf8 ec39 1698 0a3a 341a 2d3a c3fa 3c3a
00000060: 62a0 133a d37b 0d39 a731 1139 4dad 1239
00000070: 548d fd38 e51a da38 bfa3 1e39 6b97 0c39
00000080: 7967 f938 b91d ee38 11e7 e438 9ae8 e838
00000090: 1963 b538 65ac c338 7846 d738 685b e038
000000a0: 7400 ac38 38fd a838 e944 da38 f0b2 0539
000000b0: 977f 0139 fa4b c338 d2c4 dc38 ddf9 1039
000000c0: 7a94 1e39 ea8e 0b39 ff90 1739 4777 4939
000000d0: ab1f 4f39 5729 2c39 b8cc fc38 bb9c 3b39
000000e0: c207 5e39 fada 3039 fcba d538 f9ee a138
000000f0: 6dd0 6b39 58e8 5039 8b43 ae38 921f 3f38
00000100: eb2f 4138 f85d 6139 1624 1a39 9312 5b38
00000110: 446a 0938 57b3 3b38 1223 4739 4011 fc38
00000120: fc83 8538 0f6a 4838 e8f6 8838 122b f838
00000130: 05cb f538 fbc1 0239 8d7b 3739 2d7f 5b39
00000140: 4c1e dc38 cfe9 e938 7164 1939 c832 5239
00000150: 6282 4639 7d90 b338 fd29 cf38 ffcc 1f39
00000160: ac1d 3f39 325c 2539 d493 c138 e4ba f738
00000170: 5d6a 2039 6ae7 1d39 a576 f838 bac6 f938
00000180: 3195 1c39 c261 2739 e078 0e39 33f5 dc38
00000190: 8d49 1539 2be8 e538 e878 d238 dc1e c438
000001a0: c574 d838 19d5 0c39 9367 0839 7c94 0439
000001b0: 4f23 de38 0393 de38 e2c7 0b39 8adf f738
000001c0: 451d e738 df14 d138 53dd d938 2598 eb38
000001d0: cbf3 dd38 30c9 e738 09dd f438 cf31 0939
000001e0: 403f e538 de2c 0939 47cd 0d39 1341 0739
000001f0: 44f6 0839 197c d139 e623 f539 360c ee39
00000200: 2764 e239 158e e839 8aaf d239 7c20 d739
00000210: f451 cb39 7f22 c039 140a ca39 de22 8939
00000220: 20dd 6a39 5c8e 8239 9675 a239 dc8e b239
00000230: 8043 0739 8620 df38 157d 2639 7a49 7939
00000240: c0d2 9239 073e b938 40de bd38 89b6 2139
00000250: 283b 4639 c281 6339 b94b 7b38 94aa 6738
00000260: c97f 8738 d164 a438 b50d b638 e23f ae38
00000270: a704 a338 27ac af38 8c3b b138 4dca c738
00000280: 64ef ed38 4136 f238 f569 d538 650a d438
00000290: 6017 d538 bf0c fd38 cbbd e838 6e56 cc38
000002a0: b9bf d638 4d6e cd38 1a7b d238 c43e bc38
000002b0: 8f1a b738 feab c538 2c63 a238 5213 3a38
000002c0: be00 7838 bb04 2139 ab91 9839 0ef9 a039
000002d0: 8a7d 1338 ab4e 6738 03cb 4b39 d5bd b639
000002e0: f633 a339 fcdb f637 a894 6c38 a0d0 8439
000002f0: 8bbe db39 725b 9a39 9823 0b38 dbc0 c338
00000300: 2a8f ac39 fde4 e239 a327 9139 4f47 9038
00000310: 444d 4a39 3f27 b439 495d c739 165b 8a39
00000320: 8a16 6238 0754 1b38 8ca8 0638 47a8 2038
00000330: 8f8a a738 fc58 e737 d270 a437 b716 cb37
00000340: bd25 1438 0a18 c738 eec2 a437 833e a337
00000350: 61a2 c837 e77f 3d38 0597 1e39 d8f1 b537
00000360: 6ca0 cd37 b80a 2138 fa5f f138 18b1 6839
00000370: 3c0c 0e38 be07 3738 8def d938 a6cb 5139
00000380: 98c8 8539 b647 1038 1633 c637 cc9a 1d38
00000390: 8eb7 be38 1dc8 1f39 867d cf37 2e79 a637
000003a0: 8aba 2438 f54f d938 4e99 4f39 c2c0 2e38
000003b0: 6f2c 4e38 c95c 9538 cce9 1539 395d 8939
000003c0: 4f9e ba38 04c2 de38 5a19 1639 e1ca 8339
000003d0: 3bab a439 47f0 ee38 e31d 1839 537f 5a39
000003e0: d6ea a339 f73b 9c39
0.00020442664 0.00014711298 8.604438e-05 0.00010005511 0.00017527089 0.00020160756 0.0001232952 8.215212e-05
0.00012222647 0.0002784302 0.00023158731 0.00018880029 0.00017659493 0.0002831504 0.0004531214 0.0003465608
0.00036979013 0.00047867338 0.00059905706 0.0006105193 0.00045198938 0.0005286945 0.0006603331 0.0007208997
0.0005631504 0.00013492936 0.00013846775 0.00013988205 0.000120903045 0.000104000595 0.00015129054 0.00013407848
0.000118925185 0.00011354261 0.00010914927 0.000111059475 8.649211e-05 9.3304356e-05 0.00010265125 0.00010698178
8.2016835e-05 8.05803e-05 0.000104078856 0.00012750528 0.0001234993 9.312476e-05 0.00010527078 0.00013825991
0.00015123366 0.00013309313 0.00014454497 0.00019213288 0.00019752856 0.00016418599 0.00012054428 0.00017892096
0.0002117446 0.00016866243 0.0001019146 7.7215904e-05 0.00022488991 0.0001992298 8.3095474e-05 4.556735e-05
4.6059413e-05 0.00021492678 0.00014700028 5.2230967e-05 3.2762313e-05 4.4751298e-05 0.00018991184 0.000120195094
6.366518e-05 4.778249e-05 6.530975e-05 0.00011833584 0.00011720326 0.0001247003 0.00017498266 0.00020932844
0.00010496061 0.00011153856 0.00014628634 0.00020046078 0.00018931323 8.562298e-05 9.87835e-05 0.00015239789
0.00018226233 0.00015769972 9.230492e-05 0.00011812689 0.00015298412 0.00015058895 0.00011847661 0.00011910261
0.00014932897 0.00015962779 0.00013587205 0.000105360894 0.00014237147 0.000109628156 0.00010036101 9.351756e-05
0.00010321433 0.00013430825 0.00013008555 0.00012643816 0.00010592362 0.00010613168 0.00013330535 0.00011819515
0.0001102039 9.969784e-05 0.00010388591 0.00011234012 0.00010583511 0.000110524124 0.00011675998 0.00013083893
0.00010931352 0.00013082052 0.0001352328 0.00012898845 0.00013061712 0.00039956046 0.00046756788 0.00045403995
0.00043180698 0.00044356348 0.00040185108 0.00041032198 0.00038780237 0.00036646795 0.0003853595 0.00026156654
0.00022398354 0.00024901598 0.00030986656 0.00034057244 0.00012899749 0.000106395266 0.0001587759 0.00023773863
0.0002800431 8.833041e-05 9.0536196e-05 0.00015422156 0.00018904789 0.00021696746 5.9913586e-05 5.5233555e-05
6.4611035e-05 7.838908e-05 8.6809894e-05 8.308866e-05 7.773312e-05 8.376716e-05 8.451109e-05 9.526741e-05
0.000113456306 0.00011549565 0.000101763675 0.00010110884 0.000101609854 0.00012066354 0.00011097974 9.743577e-05
0.00010240026 9.795707e-05 0.0001003651 8.9762296e-05 8.731067e-05 9.425728e-05 7.743234e-05 4.436385e-05
5.91285e-05 0.00015355919 0.0002910023 0.00030703138 3.516445e-05 5.5147957e-05 0.00019435216 0.0003485518
0.00031128497 2.9427923e-05 5.640523e-05 0.0002533244 0.000419129 0.000294413 3.317333e-05 9.334247e-05
0.00032913062 0.0004327669 0.00027686087 6.879737e-05 0.00019293005 0.00034361516 0.0003802574 0.00026389275
5.390359e-05 3.7033136e-05 3.210506e-05 3.8303693e-05 7.988989e-05 2.7578782e-05 1.960286e-05 2.4210063e-05
3.5321096e-05 9.493537e-05 1.9641095e-05 1.9460223e-05 2.3917471e-05 4.518023e-05 0.00015124313 2.1689499e-05
2.4512607e-05 3.8395374e-05 0.000115096525 0.00022191217 3.3866832e-05 4.363781e-05 0.00010391986 0.00020007658
0.0002551719 3.439906e-05 2.3627228e-05 3.7575883e-05 9.094096e-05 0.0001523797 2.4734774e-05 1.984517e-05
3.9274375e-05 0.000103622595 0.00019798169 4.1664352e-05 4.915561e-05 7.122156e-05 0.00014296843 0.00026200133
8.8986584e-05 0.00010621923 0.00014314559 0.00025137424 0.00031408094 0.000113934795 0.00014506983 0.00020837532
0.0003126475 0.00029799316

max_exp_avg_sq f4 [10, 1, 5, 5]
00000000: 138d 5639 e78a 1a39 a39b b438 86dc d138
00000010: 24d8 3739 76c1 5339 9a65 0139 5e6b ac38
00000020: 034a 0039 45fa 9139 3fd6 7239 cb60 4639
00000030: 572c 3939 bf94 9439 fcbb ed39 9ab2 b539
00000040: 64e0 c139 0a01 fb39 252f 1d3a 0234 203a
00000050: fdf8 ec39 0ec2 0a3a ac2b 2d3a ea2a 3d3a
00000060: f3bf 133a d37b 0d39 4e54 1139 f3cf 1239
00000070: a7b1 fd38 7123 da38 d3a7 1e39 e1ba 0c39
00000080: 6dd2 f938 b91d ee38 11e7 e438 241d e938
00000090: fd81 b538 8bfd c338 7846 d738 685b e038
000000a0: dc23 ac38 770b a938 96b4 da38 f0b2 0539
000000b0: 977f 0139 c7aa c338 652c dd38 6a1b 1139
000000c0: 80b3 1e39 aa96 0b39 55b6 1739 5992 4939
000000d0: ab1f 4f39 5729 2c39 b8cc fc38 a90c 3c39
000000e0: a378 5e39 250e 3139 c0ec d538 fdf1 a138
000000f0: ae52 6c39 2163 5139 8b43 ae38 921f 3f38
00000100: b682 4138 f85d 6139 9425 1a39 9312 5b38
00000110: 446a 0938 3ef5 3b38 af2a 4739 d02d fc38
00000120: fc83 8538 0f6a 4838 9a42 8938 122b f838
00000130: 05cb f538 0159 0339 514f 3839 4ddf 5b39
00000140: 4c1e dc38 cfe9 e938 d7b9 1939 b0b9 5239
00000150: 31b5 4639 7d90 b338 cf32 cf38 7d06 2039
00000160: 7841 3f39 547e 2539 a285 c238 9aee f738
00000170: 5d6a 2039 e00f 1e39 1378 f838 bb5a fa38
00000180: 2eb9 1c39 477a 2739 4298 0e39 33f5 dc38
00000190: 8d49 1539 2be8 e538 e878 d238 dc1e c438
000001a0: c574 d838 d0d9 0c39 9367 0839 7c94 0439
000001b0: f24b de38 70c0 de38 2ae1 0b39 3109 f838
000001c0: 451d e738 df14 d138 53dd d938 2598 eb38
000001d0: 3918 de38 30c9 e738 09dd f438 cf31 0939
000001e0: 403f e538 ad3c 0939 0a19 0e39 9f88 0739
000001f0: 44f6 0839 3510 d239 c7aa f539 3d9c ee39
00000200: 68ec e239 e9be e839 01da d239 f68a d739
00000210: 20c1 cb39 2f8f c039 7160 ca39 de22 8939
00000220: 20dd 6a39 5c8e 8239 2461 a339 15aa b239
00000230: 7349 0739 8620 df38 157d 2639 4d97 7939
00000240: d9f8 9239 8f5c b938 40de bd38 89b6 2139
00000250: 44f2 4639 1cf6 6339 b94b 7b38 6cdf 6738
00000260: 88a0 8738 d164 a438 b50d b638 e23f ae38
00000270: 532e a338 f5c1 af38 985c b238 53fb c738
00000280: 432a ee38 1960 f238 f569 d538 a04d d438
00000290: 6017 d538 bf0c fd38 cbbd e838 dd6c cc38
000002a0: b9bf d638 4d6e cd38 1a7b d238 da95 bc38
000002b0: 534c b738 feab c538 2c63 a238 b142 3a38
000002c0: be00 7838 e306 2139 a6b8 9839 2322 a139
000002d0: 2184 1338 ab4e 6738 d0cc 4b39 c5e5 b639
000002e0: 6f4f a339 0adf f637 a894 6c38 7af1 8439
000002f0: f60e dc39 8b93 9a39 603c 0b38 1fea c338
00000300: 3ebd ac39 5841 e339 0749 9139 f5a2 9038
00000310: 16ac 4a39 ff84 b439 3494 c739 4969 8a39
00000320: 8a16 6238 a061 1b38 2ebd 0638 ce35 2138
00000330: 12e1 a738 c806 e837 8e28 a537 e627 cc37
00000340: bd25 1438 866b c738 fcf8 a437 d876 a337
00000350: 09a7 c837 e77f 3d38 0a05 1f39 f549 b637
00000360: ebe5 cd37 ba33 2138 7ff4 f138 ea31 6939
00000370: 1226 0e38 3b29 3738 8def d938 7acf 5139
00000380: 2ad7 8539 b647 1038 cf72 c637 62db 1d38
00000390: 1ff2 be38 e039 2039 867d cf37 5398 a637
000003a0: 011b 2538 76ab d938 3d60 5039 cce1 2e38
000003b0: aa55 4e38 57a6 9538 d140 1639 dd59 8a39
000003c0: 4f9e ba38 1a4b df38 ec83 1639 dd4f 8439
000003d0: c687 a539 6223 ef38 87e0 1839 2f8f 5b39
000003e0: 0f2e a439 3f95 9c39
0.00020461185 0.0001473833 8.6120584e-05 0.00010006972 0.00017532759 0.00020194598 0.00012340248 8.221598e-05
0.00012234603 0.0002784302 0.00023158731 0.0001891881 0.00017659493 0.00028339584 0.00045344222 0.0003465608
0.00036979013 0.00047875225 0.00059961 0.00061112654 0.00045198938 0.00052931986 0.0006605934 0.00072161725
0.00056362076 0.00013492936 0.00013859684 0.00014001112 0.000120970704 0.000104016515 0.00015130574 0.00013421058
0.0001191244 0.00011354261 0.00010914927 0.00011115734 8.654965e-05 9.345551e-05 0.00010265125 0.00010698178
8.2082785e-05 8.0606835e-05 0.00010428687 0.00012750528 0.0001234993 9.330134e-05 0.0001054637 0.0001383849
0.00015134923 0.000133122 0.00014468406 0.00019223373 0.00019752856 0.00016418599 0.00012054428 0.00017933793
0.0002121651 0.00016885305 0.000102007296 7.722152e-05 0.00022537514 0.00019968722 8.3095474e-05 4.556735e-05
4.613652e-05 0.00021492678 0.00014700583 5.2230967e-05 3.2762313e-05 4.4812674e-05 0.0001899402 0.000120248296
6.366518e-05 4.778249e-05 6.5450746e-05 0.00011833584 0.00011720326 0.0001252629 0.00017577155 0.00020968654
0.00010496061 0.00011153856 0.00014660448 0.00020096335 0.0001895025 8.562298e-05 9.879993e-05 0.00015261206
0.00018239568 0.00015782687 9.275532e-05 0.00011822321 0.00015298412 0.00015073968 0.00011847927 0.00011937829
0.00014946304 0.00015971913 0.00013598896 0.000105360894 0.00014237147 0.000109628156 0.00010036101 9.351756e-05
0.00010321433 0.00013432582 0.00013008555 0.00012643816 0.00010599931 0.00010621629 0.00013339953 0.000118272736
0.0001102039 9.969784e-05 0.00010388591 0.00011234012 0.00010590297 0.000110524124 0.00011675998 0.00013083893
0.00010931352 0.00013087942 0.00013551503 0.00012925499 0.00013061712 0.00040066396 0.0004685728 0.00045511304
0.00043282215 0.00044392727 0.00040216747 0.0004111153 0.00038863067 0.00036727774 0.00038600297 0.00026156654
0.00022398354 0.00024901598 0.00031162158 0.00034077527 0.00012901965 0.000106395266 0.0001587759 0.00023802854
0.00028032696 8.838728e-05 9.0536196e-05 0.00015422156 0.00018973002 0.0002174009 5.9913586e-05 5.528277e-05
6.467203e-05 7.838908e-05 8.6809894e-05 8.308866e-05 7.781074e-05 8.3807776e-05 8.504948e-05 9.535872e-05
0.00011356596 0.00011557359 0.000101763675 0.000101234065 0.000101609854 0.00012066354 0.00011097974 9.7477554e-05
0.00010240026 9.795707e-05 0.0001003651 8.9924506e-05 8.7403365e-05 9.425728e-05 7.743234e-05 4.4407967e-05
5.91285e-05 0.00015356722 0.00029129273 0.00030733747 3.5170586e-05 5.5147957e-05 0.00019435887 0.00034884937
0.00031148965 2.9429346e-05 5.640523e-05 0.00025356916 0.00041972817 0.00029483097 3.319641e-05 9.341933e-05
0.00032947393 0.000433455 0.00027710965 6.896808e-05 0.00019328328 0.00034431365 0.00038066658 0.00026399855
5.390359e-05 3.70458e-05 3.2124277e-05 3.84355e-05 8.005103e-05 2.7659713e-05 1.9688418e-05 2.4337274e-05
3.5321096e-05 9.509087e-05 1.9666266e-05 1.9486455e-05 2.391964e-05 4.518023e-05 0.00015165299 2.173053e-05
2.4544968e-05 3.8433565e-05 0.000115373165 0.00022239206 3.3890894e-05 4.3669e-05 0.00010391986 0.00020009084
0.00025528047 3.439906e-05 2.3656901e-05 3.7636033e-05 9.1050046e-05 0.00015280349 2.4734774e-05 1.9859674e-05
3.9364215e-05 0.000103793034 0.00019872277 4.1695122e-05 4.9194008e-05 7.135857e-05 0.00014329261 0.00026388364
8.8986584e-05 0.000106474574 0.0001435426 0.00025236505 0.00031572412 0.00011402999 0.00014579493 0.00020938808
0.00031314834 0.00029865836

exp_avg f4 [10]
00000000: 6ec2 53bb 3ccc c43a 9c79 60ba 0606 323b
00000010: ecae d8b9 d2a8 3fb9 0061 39ba 530f 573b
00000020: f322 14bb 237a 313b
-0.0032311934 0.001501448 -0.0008563043 0.0027164235 -0.00041329057 -0.0001827807 -0.0007071644 0.003281553
-0.002260384 0.0027080856

exp_avg_sq f4 [10]
00000000: ba16 4b39 b81c f537 a76e b738 6cc8 1238
00000010: 7a63 1b38 6eba 2639 4645 d037 fbb4 aa38
00000020: 7d24 a538 21c4 5738
0.00019368055 2.921965e-05 8.7467306e-05 3.499577e-05 3.7047525e-05 0.00015900444 2.482779e-05 8.139942e-05
7.8746096e-05 5.1442654e-05

max_exp_avg_sq f4 [10]
00000000: 9717 4b39 b81c f537 a76e b738 98ed 1238
00000010: 9ba4 1b38 33c6 2639 2ab9 d037 fbb4 aa38
00000020: 8057 a538 3299 5838
0.00019368377 2.921965e-05 8.7467306e-05 3.503039e-05 3.710818e-05 0.00015904829 2.4881756e-05 8.139942e-05
7.884111e-05 5.1641087e-05
