saved/models/Mnist_LeNet/0502_095806/checkpoint-epoch5.pth (torch, 362006 bytes, 32 tensors)

conv1.weight f4 [10, 1, 5, 5]
0	0xbe2f4754	-0.17117053
1	0xbe024b06	-0.12723932
2	0xbe626600	-0.22109222
3	0xbced3c0e	-0.0289593
4	0xbe4c4761	-0.19949104
5	0x3e1df7f4	0.15426618
6	0xbe9e6f82	-0.3094445
7	0xbf01608a	-0.5053793
8	0xbed51c4a	-0.41623145
9	0xbdc72697	-0.09724157
10	0x3db43a71	0.08800209
11	0x3e2d3ef1	0.16918541
12	0xbe443237	-0.1915978
13	0xbe50aefa	-0.20379248
14	0xbdaebf13	-0.08532538
15	0x3de7465c	0.11292717
16	0x3d8729dd	0.06599782
17	0x3ead7018	0.33874583
18	0x3e0a9a7e	0.13535497
19	0x3e518215	0.20459779
20	0x3e3a6bd6	0.18205199
21	0x3e3ee963	0.18643717
22	0x3e89125e	0.26771826
23	0x3edae790	0.42754793
24	0x3d8909be	0.06691311
25	0x3dcde4fb	0.1005344
26	0xbbf5cef1	-0.007501476
27	0x3e7102c9	0.23536219
28	0x3e45a8a3	0.19302611
29	0xbe8f9e0b	-0.28050265
30	0x3e4361d5	0.19080289
31	0x3e0e5e30	0.13903117
32	0x3e3232e3	0.17402224
33	0x3e3954b7	0.18098722
34	0x3dc1a328	0.09454948
35	0xbd918f81	-0.07107449
36	0xbe212781	-0.15737726
37	0x3c7988e2	0.015230389
38	0xbc389474	-0.011265863
39	0x3d3c09bb	0.045907717
40	0xbe079b9d	-0.13242956
41	0xbdb0c70d	-0.08631716
42	0xbcb4200b	-0.021987936
43	0x3e59fc02	0.2128754
44	0x3d547e61	0.051878337
45	0xbd51d34a	-0.05122689
46	0x3c75adcf	0.0149950525
47	0x3c8f1ce9	0.01746984
48	0x3e4830d4	0.19549876
49	0x3e5e2eb1	0.21697499
50	0x3e56600a	0.20935073
51	0x3e416214	0.1888507
52	0x3e153ebd	0.14574714
53	0x3e12e35c	0.14344543
54	0xbddd265d	-0.10798333
55	0x3d835cc3	0.06414177
56	0x3da1607b	0.0787973
57	0x3e77ef0c	0.24212283
58	0xbddcbdce	-0.1077839
59	0xbeb2de92	-0.34935433
60	0x3e7cf9d6	0.2470468
61	0x3eb13c8e	0.34616512
62	0xbddee158	-0.10882825
63	0xbeb92550	-0.3616128
64	0xbe5bfea5	-0.21483858
65	0x3e503280	0.20331764
66	0x3cbc5671	0.022990437
67	0xbe4bfefb	-0.19921486
68	0xbee5d384	-0.44887936
69	0x3d5915c0	0.052999258
70	0x3e91f269	0.28505257
71	0x3d5f5028	0.054519802
72	0xbebf97ca	-0.37420493
73	0xbea305cf	-0.3184037
74	0x3df9359e	0.1216843
75	0x3d9fd82d	0.07804904
76	0x3e059507	0.1304513
77	0xbdd0172c	-0.1016067
78	0x3db3cf10	0.087797284
79	0x3e924a5a	0.2857235
80	0xbc6d16d4	-0.014470775
81	0xbd9076d5	-0.070539154
82	0x3d750788	0.059821635
83	0x3dff355b	0.124613486
84	0x3d9b4724	0.07581928
85	0xbe8d8cd8	-0.27646518
86	0xbe2c4d24	-0.16826302
87	0x3e82fbb4	0.2558266
88	0x3e7f4331	0.24927975
89	0x3e1bf06e	0.15228435
90	0xbe7baa4c	-0.24576682
91	0x3e6e5d9a	0.23277894
92	0x3e59672d	0.21230765
93	0x3e731fc1	0.23742582
94	0xbdc7b7f0	-0.0975188
95	0x3e426f7c	0.1898784
96	0x3e84f2b6	0.25966424
97	0x3dc80c94	0.09768024
98	0x3d66a13b	0.056306105
99	0xbe1ccc47	-0.153123
100	0x3e2d2e02	0.16912082
101	0xbe2ac47a	-0.16676512
102	0x3c5620ae	0.013069315
103	0xbe280e19	-0.16411628
104	0xbe2416da	-0.16024342
105	0xbd874957	-0.06605785
106	0xb7ba69e0	-2.222223e-05
107	0x3e86c279	0.26320246
108	0x3defaadc	0.11702511
109	0xbe1edf44	-0.15514857
110	0x3daf2eab	0.08553823
111	0xbe582525	-0.2110792
112	0x3dcb48ab	0.0992597
113	0xbc9b0565	-0.01892347
114	0xbdc5c2c2	-0.09656288
115	0xbdb3e324	-0.08783558
116	0xbe8d9405	-0.27651992
117	0xbcc89fb6	-0.024490219
118	0x3de90da4	0.11379555
119	0x3e887527	0.2665188
120	0xbd6621c9	-0.056184564
121	0x3e16049c	0.14650196
122	0x3e520992	0.20511463
123	0xbddd9a4c	-0.108204454
124	0x3e4547f4	0.19265729
125	0x3e09f595	0.13472588
126	0x3eb5df16	0.35521764
127	0x3e85ed80	0.2615776
128	0x3e4d6e29	0.20061554
129	0x3ea8b2d8	0.32948947
130	0x3dabb945	0.08384947
131	0x3e5a8c46	0.21342573
132	0x3e06c719	0.13161887
133	0xbcef0cc3	-0.02918089
134	0x3d9c8a4f	0.07643568
135	0xbe6dbddc	-0.23216957
136	0xbbb9b737	-0.005667593
137	0x3d419697	0.047262754
138	0x3d9c67a1	0.07636953
139	0x3d47025f	0.048586246
140	0xbe82cdc6	-0.25547618
141	0xbe91feaf	-0.2851462
142	0xbde89d30	-0.11358106
143	0x3defee6f	0.117153995
144	0x3dfb3341	0.12265635
145	0xbe9079ff	-0.28218076
146	0xbede4737	-0.43413708
147	0xbea30e1d	-0.31846705
148	0xbed2c5ea	-0.4116662
149	0xbe6a825e	-0.22901294
150	0xbe4cba8d	-0.19993038
151	0xbe30bf56	-0.17260489
152	0xbe048771	-0.12942292
153	0xbd1d8a41	-0.038461927
154	0xbd8dc065	-0.06921462
155	0x3d6f9d63	0.058499705
156	0xbe565a97	-0.20932995
157	0xbdc0cbeb	-0.09413894
158	0xbe95a3b9	-0.29226473
159	0x3dc4cce5	0.09609393
160	0x3d63f069	0.055649195
161	0x3e877c39	0.26461962
162	0xbdcb4f26	-0.09927206
163	0x3e5960f2	0.21228388
164	0x3e83dd26	0.2575466
165	0x3e627b0c	0.22117251
166	0x3e3e3925	0.18576486
167	0x3e903943	0.28168687
168	0x3e4e349f	0.20137261
169	0x3e2c447c	0.16823
170	0xbde8e0f3	-0.11371031
171	0xbe4a4903	-0.19754414
172	0xbe0d7692	-0.13814762
173	0xbdf11e81	-0.11773396
174	0xbe8a6c21	-0.2703562
175	0xbe704537	-0.23463903
176	0xbe9cd3cd	-0.3063034
177	0xbc650c5b	-0.013979997
178	0x3e8a03c1	0.2695599
179	0x3d86d7ad	0.06584106
180	0xbe8f8454	-0.28030646
181	0xbe58821c	-0.21143383
182	0x3e561e5d	0.2091002
183	0x3c93d8b4	0.018047668
184	0xbd083c3e	-0.033260576
185	0xbe92dcb9	-0.28684023
186	0xbe78fcc5	-0.24315174
187	0x3e253280	0.16132545
188	0x3e968e02	0.29405218
189	0xbdc06614	-0.0939447
190	0xbe99b171	-0.3001819
191	0xbe955159	-0.29163626
192	0x3df0a046	0.1174932
193	0x3e96bf07	0.29442617
194	0xbcef2ef5	-0.029197196
195	0xbe86da6c	-0.26338518
196	0xbcd61bdb	-0.02613633
197	0xbde76886	-0.11299233
198	0x3e9c30d9	0.30506018
199	0x3e6137d0	0.21993947
200	0x3d6d5077	0.057938065
201	0x3d192e5a	0.03739772
202	0xbdd5595a	-0.10417433
203	0xbedb5996	-0.42841786
204	0xbf0b1ed9	-0.54343945
205	0x3d653ed7	0.055968132
206	0xbe46e744	-0.19424158
207	0xbebc3105	-0.3675615
208	0xbebe6e0b	-0.3719333
209	0xbb9ae5c0	-0.0047270954
210	0xbe4ceef6	-0.20013031
211	0xbedc0870	-0.42975187
212	0xbe81be2b	-0.253404
213	0xbe3736bf	-0.17891978
214	0x3e5d342b	0.21601932
215	0xbebf78e3	-0.37396917
216	0xbe5e417b	-0.21704666
217	0xbe105c9f	-0.14097832
218	0x3e3b5b09	0.18296446
219	0x3e62390d	0.22092076
220	0xbf0adaab	-0.5423991
221	0xbe434f0d	-0.19073124
222	0x3e597d54	0.21239215
223	0x3def52f9	0.11685748
224	0x3e5e2eb4	0.21697503
225	0xbe7909d8	-0.24320161
226	0xbe4a2443	-0.19740395
227	0xbeaebb68	-0.34127355
228	0xbd5c0fe5	-0.053726096
229	0x3d88aed2	0.06673969
230	0xbe14627c	-0.14490694
231	0xbe0f4643	-0.13991646
232	0xbe7d322b	-0.24726169
233	0x3d0e2896	0.034706675
234	0x3dd06efc	0.101774186
235	0xbe918ee3	-0.28429326
236	0x3b605d26	0.0034235208
237	0xbc19b5b3	-0.009381699
238	0xbdc37b09	-0.095449515
239	0x3e5e3259	0.21698894
240	0xbd63cf04	-0.055617347
241	0xbccac45a	-0.02475183
242	0xbd5ea7ac	-0.054359123
243	0x3df3734f	0.11887228
244	0x3e90a790	0.2825284
245	0x3d51e065	0.05123939
246	0xbdaca573	-0.084299944
247	0x3d07949d	0.033100713
248	0x3e84df4a	0.25951606
249	0x3e8c354e	0.27384418

conv1.bias f4 [10]
0	0x3e66312b	0.22479694
1	0xbd9a17e4	-0.07524088
2	0x3deb8959	0.11500806
3	0xbe6ab0be	-0.22918984
4	0x3d97dd3e	0.074152455
5	0x3e1fdbb5	0.15611155
6	0x3ddad380	0.10684872
7	0xbe823b85	-0.25436035
8	0x3e0ca42e	0.13734505
9	0x3d19ca20	0.037546277

conv2.weight f4 [20, 10, 5, 5]
0	0x3d629090	0.055313647
1	0xbbb823af	-0.005619488
2	0xbdd61ed0	-0.10455096
3	0xbd4ba135	-0.049714286
4	0xbdc00674	-0.09376231
5	0x3dfa3728	0.122175515
6	0x3e32576b	0.1741616
7	0x3d9261fa	0.07147594
8	0xbcb4f93c	-0.0220915
9	0xbdfe383a	-0.12413068
10	0x3cd2ea07	0.025746359
11	0x3dc6fb54	0.09715906
12	0x3d46876e	0.048469
13	0xbdbded18	-0.09273738
14	0xbde0594b	-0.10954531
15	0xbc4e9e0e	-0.012610925
16	0x3c1f75ac	0.009732645
17	0xbd2cfbf3	-0.042232465
18	0xbdf3ff06	-0.11913876
19	0xbe41494f	-0.18875621
20	0x3e07e338	0.13270271
21	0xbdf1d966	-0.118090436
22	0xbdf7f965	-0.12108115
23	0xbe3bf6b4	-0.18355829
24	0xbe05f52f	-0.13081811
25	0xbdae5d96	-0.08513944
26	0xbdc7eaf5	-0.09761611
27	0xbd178b6b	-0.036998194
28	0xbc66b553	-0.014081317
29	0xbb39ad50	-0.0028332062
30	0x3d875dba	0.06609674
31	0xbd84de05	-0.06487659
32	0x3c4995f7	0.012303821
33	0x3cb46c2d	0.022024238
34	0x3c84c60a	0.016207714
35	0x3da4c541	0.08045436
36	0x3d512f47	0.051070478
37	0x3cf812a8	0.030282333
38	0x3daef1cb	0.08542212
39	0x3cfb853a	0.030703176
40	0x3c36e944	0.011164013
41	0x3dc76e29	0.09737808
42	0x3d56a4e2	0.05240334
43	0x3d58334c	0.052783296
44	0xbc95144c	-0.018198155
45	0xbdb49a05	-0.088184394
46	0xbd495780	-0.049155712
47	0xbd51c084	-0.051208988
48	0xbc8297f3	-0.015941596
49	0x3b9a5ac7	0.0047105285
50	0x3cb68829	0.022281723
51	0x3dec3c1f	0.11534905
52	0x3da14114	0.07873741
53	0x3e20cafc	0.15702432
54	0xbd76175a	-0.060080864
55	0xbde56008	-0.11199957
56	0xbe10300f	-0.14080833
57	0xbca15cc1	-0.019697549
58	0x3d12c9ea	0.03583709
59	0xbd943fc0	-0.07238722
60	0xbe2c5530	-0.16829371
61	0xbe1fa6c8	-0.15590966
62	0x3d2895fd	0.041158665
63	0xbb95df50	-0.00457374
64	0xbd08c1c4	-0.033387914
65	0xbd55d6f5	-0.052206952
66	0x3cb2bb9e	0.021817978
67	0x3dbf24c1	0.09333182
68	0xbdade476	-0.08490841
69	0x3a4b5f16	0.00077580044
70	0x3d681fcd	0.056670953
71	0x3d06998e	0.032861285
72	0x3d8441fb	0.06457897
73	0x3c8f1fbc	0.017471187
74	0x3d77bf1d	0.060484994
75	0x3c77ffd9	0.015136682
76	0xbdad04b6	-0.08448164
77	0xbda28306	-0.07935147
78	0x3daa9516	0.08329217
79	0x3d8079c1	0.06273223
80	0xbc1b89ed	-0.009493333
81	0x3c903d83	0.017607456
82	0xbd87cf0e	-0.066312894
83	0xbd59e6d9	-0.05319867
84	0xbcd1392c	-0.025539957
85	0x3a88f04b	0.001044759
86	0xbccc157a	-0.024912585
87	0xbb6b8962	-0.003594004
88	0x3d89d001	0.06729127
89	0x3d51495f	0.051095363
90	0x3b40a7dc	0.0029396927
91	0x3cb750cf	0.0223774
92	0x3daa6ba9	0.08321316
93	0x3c023226	0.007946527
94	0x3d130ce3	0.03590096
95	0x3cfb4d96	0.030676644
96	0x3c8b715e	0.017021831
97	0x3d71578f	0.058921393
98	0x3d4ff8ea	0.050774492
99	0xbca70c9c	-0.020391755
100	0xbc2e1c36	-0.010626843
101	0xbd04ae06	-0.032392524
102	0xbdb67ce3	-0.08910539
103	0x3bdae476	0.0066800667
104	0x3b074740	0.0020641834
105	0x3e06f6fe	0.13180158
106	0x3d7efc3a	0.06225226
107	0x3d00eb35	0.03147431
108	0x3d152afb	0.036417942
109	0xbd8d5431	-0.06900824
110	0x3dc5de2b	0.09661516
111	0x3db661d4	0.08905378
112	0x3d9a021d	0.07519934
113	0x3d4f168b	0.050558608
114	0xbd4e43ba	-0.050357558
115	0xbb0e4502	-0.0021708612
116	0x3db1212a	0.08648904
117	0x3d1ddda2	0.038541444
118	0xbd7257cc	-0.05916576
119	0xbd1ca1f1	-0.038240377
120	0xbcf1e92f	-0.029530136
121	0xbbab5f2e	-0.005229852
122	0x3d53b277	0.05168387
123	0xbc5d6b71	-0.013514386
124	0xbdecd5b4	-0.11564198
125	0xbe148b79	-0.1450633
126	0xbe37ccf8	-0.17949283
127	0xbd821150	-0.06350958
128	0xbdc711d1	-0.09720195
129	0xbdf6e874	-0.12056056
130	0x3d9d3f83	0.076781295
131	0xbd08667a	-0.033300854
132	0xbdf2402f	-0.11828648
133	0xbb267768	-0.0025400762
134	0xbd6c31f8	-0.05766484
135	0x3d9486a3	0.072522424
136	0x3d3461f8	0.044038743
137	0x3d8ec651	0.069714196
138	0xbb2ea7b8	-0.002665026
139	0xbe0a5376	-0.135084
140	0x3e19ca8e	0.15018675
141	0x3d454551	0.04816181
142	0xbd148736	-0.03626176
143	0x3d0d093c	0.034432635
144	0xbdb67a7d	-0.089100815
145	0xbd8784f8	-0.06617159
146	0x3d09d033	0.03364582
147	0xbd65b853	-0.05608399
148	0x3cd3cd85	0.025854835
149	0xbca486ae	-0.020083752
150	0x3db1832d	0.08667598
151	0xbcb0c135	-0.021576503
152	0xbde81ddc	-0.1133382
153	0xbc38c344	-0.011277024
154	0xbd7d5270	-0.061846197
155	0xbc033280	-0.008007646
156	0x3c38a121	0.011268885
157	0x3d3e90f5	0.04652496
158	0xbc8567cc	-0.016284846
159	0xbb4efad3	-0.0031582608
160	0x3d5f6de0	0.054548144
161	0x3d2efce7	0.042721655
162	0x3d6cfa4e	0.057855897
163	0xbd581d1d	-0.05276214
164	0xbdb7791b	-0.08958646
165	0xbd1c3a33	-0.03814144
166	0x3d952b1b	0.07283612
167	0x3dacc9ec	0.08436951
168	0x3c14dd6b	0.009085993
169	0xbcf1ee06	-0.029532444
170	0xbd55f161	-0.05223215
171	0xbc13ea39	-0.009028011
172	0xbc969351	-0.018380793
173	0x3b7512ea	0.0037395307
174	0xbe00dc00	-0.12583923
175	0xbd5d6502	-0.054051407
176	0xbdcba632	-0.099438086
177	0xbd45a804	-0.048255935
178	0x3dc9eb31	0.09859312
179	0x3c83db9a	0.016095925
180	0xbc950862	-0.018192474
181	0xbd94e002	-0.072692886
182	0xbd91dec5	-0.07122568
183	0x3caa967b	0.020823708
184	0x3da15c67	0.078789525
185	0xbe17cec8	-0.14824975
186	0xbe04d973	-0.12973575
187	0xbd8a80e9	-0.06762869
188	0x3ce2087a	0.027591933
189	0x3d49a420	0.049228787
190	0xbe013d0b	-0.12620942
191	0xbe21fcdb	-0.15819113
192	0x3c8a32ca	0.016869921
193	0x3def5c97	0.11687582
194	0x3afc7f2b	0.0019263973
195	0xbd9ff734	-0.07810822
196	0xbd9cb757	-0.07652157
197	0x3d68fe59	0.05688319
198	0x3ce50897	0.027958198
199	0x3cbca1a6	0.023026299
200	0x3d7a121d	0.06105243
201	0xbda594ce	-0.08085023
202	0x3d15aef0	0.036543787
203	0x3d0a1358	0.033709854
204	0x3e0d8f2a	0.13824144
205	0xbe087d93	-0.13329153
206	0xbdef6b78	-0.1169042
207	0xbd35cc84	-0.044384494
208	0xbd6219ee	-0.05520051
209	0x3d978ccf	0.07399904
210	0xbe23250e	-0.15932104
211	0xbe258228	-0.16162932
212	0xbe0fb0a5	-0.14032228
213	0xbdc6076c	-0.09669384
214	0x3b40a57c	0.0029395511
215	0x3d19153a	0.03737376
216	0x3adc4ad5	0.001680697
217	0xbc24f4ec	-0.01006816
218	0xbcade6d1	-0.021228226
219	0x3dd57fb1	0.10424746
220	0x3e5d49ac	0.21610135
221	0x3df42b21	0.11922289
222	0x3d32e162	0.043671973
223	0x3e1318d0	0.14364934
224	0xbbb4d39c	-0.00551839
225	0xbc6ca09d	-0.01444259
226	0xbe0cff17	-0.13769184
227	0x3bcb2cea	0.0062004225
228	0x3d8a3bf7	0.06749719
229	0x3d362a07	0.044473674
230	0xbdf0fb24	-0.11766651
231	0xbe03eaca	-0.12882534
232	0x3cdb115e	0.02674168
233	0x3da584f1	0.08081997
234	0x3cc72f02	0.024314407
235	0xbde71f13	-0.11285224
236	0xbd8e35a8	-0.06943828
237	0xbc9b9c39	-0.018995391
238	0x3d9fd1f2	0.07803716
239	0x3d28af9d	0.041183103
240	0x3ba3b7bc	0.004996268
241	0x3cfbd387	0.030740513
242	0x3d3ad313	0.045611452
243	0x3dc8e3f9	0.09809107
244	0xbdea4ba1	-0.11440206
245	0x3cb3de79	0.02195667
246	0xbc6cc41f	-0.014451056
247	0x3da1d26b	0.07901462
248	0x3db03e1e	0.08605598
249	0xbbcb9873	-0.0062132417
250	0x3d4b4496	0.049625956
251	0x3c67fa92	0.014158862
252	0x3cf1406d	0.029449666
253	0xbd856098	-0.065125644
254	0xbcde7349	-0.027154582
255	0x3e1ba9ee	0.15201542

conv2.bias f4 [20]
0	0x3cbb322d	0.022851074
1	0xbd14234c	-0.036166474
2	0xbb245bd0	-0.0025079139
3	0xbcd89ec8	-0.0264429
4	0x3d28277c	0.04105328
5	0x3c83eba6	0.016103577
6	0xbc829e32	-0.015944574
7	0x3d86d43a	0.06583448
8	0x3cb6b444	0.022302754
9	0x3dc85803	0.09782412
10	0xbc908281	-0.017640354
11	0x3da7e522	0.081980005
12	0xbd8ca333	-0.06867065
13	0x3d05d825	0.032676835
14	0x3d228e32	0.03968639
15	0x3d146ba7	0.036235478
16	0xbd354d41	-0.04426313
17	0xbd16b3c4	-0.03679253
18	0xbc974a43	-0.018468028
19	0x3d81fef1	0.06347454

fc1.weight f4 [50, 320]
0	0x3de32b03	0.11092188
1	0x3d225409	0.039630923
2	0xbd07f4a5	-0.033192296
3	0x3d546d80	0.05186224
4	0x3e1ede03	0.15514378
5	0x3d75e49e	0.06003248
6	0x3c9086dc	0.017642431
7	0x3d437612	0.047720022
8	0x3c9eee7c	0.019400828
9	0xbde206dd	-0.11036465
10	0xbdf20b2c	-0.11818537
11	0xbd9ba4c0	-0.07599783
12	0xbce6f232	-0.02819166
13	0xbd374dcb	-0.044751924
14	0x3aac568a	0.0013148349
15	0xbcebe105	-0.028793821
16	0x3d0ecf3f	0.034865614
17	0xbcf2e472	-0.029649947
18	0x3c9ca053	0.019119417
19	0x3daa30fe	0.08310126
20	0xbd627f21	-0.05529702
21	0xbd050de2	-0.032483943
22	0x3d5283f2	0.051395364
23	0xbd640fb4	-0.05567904
24	0x3d33bc6f	0.043880876
25	0xbc9e80d2	-0.019348536
26	0x3d40b93d	0.047051657
27	0x3da1eb82	0.07906248
28	0x3cc23a9b	0.023709586
29	0xbd1674ba	-0.036732413
30	0xbdc5a827	-0.09651213
31	0x3d132da7	0.03593221
32	0x3d3d0bf7	0.04615399
33	0x3ccc2a70	0.02492258
34	0xbd5bc82c	-0.053657696
35	0xbd03b7ec	-0.032157823
36	0xbcaa3992	-0.020779405
37	0xbd07f720	-0.03319466
38	0x3ae4536c	0.0017419881
39	0xbd590a3e	-0.052988283
40	0xbbc8493b	-0.0061122454
41	0x3d9a43e9	0.07532484
42	0xbcd7b79c	-0.026332669
43	0xbc52a6b2	-0.012857126
44	0x3e029a5d	0.12754197
45	0x3ce582bc	0.02801644
46	0xba18e5f0	-0.0005832603
47	0xbafd911f	-0.0019345618
48	0xbd4399d2	-0.047754116
49	0xbba7bfd4	-0.0051193032
50	0xbdae9a0c	-0.08525476
51	0xbca65890	-0.020305902
52	0x3d1563dd	0.03647219
53	0xbd6691ae	-0.056291275
54	0xbc37f65d	-0.011228171
55	0xbd3afa5e	-0.045648925
56	0xba2e0871	-0.0006638831
57	0xbd07bf44	-0.03314139
58	0x3dae238d	0.085028745
59	0x3d89b681	0.06724263
60	0xbd197e1e	-0.03747379
61	0x3dc0e550	0.09418738
62	0x3dcad068	0.099030316
63	0x3cf28d69	0.029608445
64	0xbd64cba1	-0.05585826
65	0xbd65b9af	-0.056085285
66	0xbdb6642c	-0.08905825
67	0x3d280910	0.041024268
68	0xbd0cb22d	-0.03434961
69	0xbdd6444e	-0.10462247
70	0x3d97d5fa	0.0741386
71	0x3dd82f30	0.10555875
72	0x3d43c141	0.047791723
73	0xbd1dd08d	-0.038528968
74	0xbd4c8dab	-0.049939793
75	0xbd8df05f	-0.06930613
76	0x3d5426d3	0.05179484
77	0xbd005d8e	-0.03133922
78	0xbe01ae26	-0.12664089
79	0xbdf29a33	-0.118458174
80	0x3d853269	0.065037556
81	0x3c8295ac	0.01594051
82	0x3cb3f142	0.021965627
83	0x3d13ee43	0.036115896
84	0x3c4c9f47	0.012489147
85	0xbe1bd5c0	-0.15218258
86	0xbd9f8ac5	-0.0779014
87	0xbd9d4b28	-0.076803505
88	0xbe169641	-0.14705755
89	0xba7b2646	-0.00095805933
90	0xbc5f7568	-0.013638832
91	0xbde7d29a	-0.11319466
92	0x3b90e04c	0.0044212695
93	0x3d0ff99f	0.035150167
94	0x3d12a9e7	0.035806563
95	0xbe12a9e9	-0.14322628
96	0x3d4f1839	0.05056021
97	0x3e01cc49	0.12675585
98	0x3dab48c1	0.08363486
99	0x3db07bec	0.08617386
100	0xbd6733fc	-0.05644606
101	0xbad81aa5	-0.0016487433
102	0x3cf46676	0.029834013
103	0xbe02f881	-0.12790109
104	0xbd8a43a9	-0.067511864
105	0x3ba418cc	0.005007839
106	0x3d80d1d2	0.0629002
107	0xbd92d054	-0.07168642
108	0x3db132e5	0.086522855
109	0x3c4e9e58	0.012610994
110	0xbcc5ad0b	-0.024130365
111	0xbd16aa62	-0.036783583
112	0x3d1b3719	0.037894342
113	0xbc62a316	-0.013832828
114	0xbc4e8dea	-0.012607077
115	0x3d798309	0.06091598
116	0x3aca6cec	0.0015443838
117	0xbd4cb582	-0.049977787
118	0x3cd56f69	0.026054101
119	0x3d21a5af	0.03946465
120	0xbcc252a2	-0.023721043
121	0xba811860	-0.0009849183
122	0x3d745712	0.05965335
123	0x3d8649b1	0.06557024
124	0x3d276d65	0.04087581
125	0xbcef67ef	-0.029224364
126	0xbc7d107e	-0.015445827
127	0xbd0b5680	-0.03401804
128	0xbc5e0613	-0.013551253
129	0xbd43e32b	-0.047824066
130	0xbd1b83f1	-0.037967626
131	0xbd2ec966	-0.042672537
132	0xbc2a4eaa	-0.010394732
133	0xbc9ec7c1	-0.01938236
134	0xbdc2c72b	-0.095106445
135	0xbd0d7349	-0.034533773
136	0x3aa5c448	0.0012646997
137	0x3d163594	0.03667219
138	0xbd8bfdb2	-0.06835498
139	0xbc654ad4	-0.013994891
140	0x3d33eefc	0.043929085
141	0x3dc5837d	0.0964422
142	0xbb0c938b	-0.0021450247
143	0xbc75c43d	-0.0150004
144	0x3d292fa7	0.04130521
145	0xbd67d3b0	-0.056598365
146	0xbd546c72	-0.051861234
147	0x3dc18814	0.09449783
148	0x3d998991	0.07496942
149	0xbe0a3038	-0.13494956
150	0xbace148c	-0.0015722676
151	0x3db642e7	0.08899479
152	0xbbce2307	-0.0062907967
153	0xbe0ea63d	-0.13930602
154	0xbe083d15	-0.13304551
155	0x3bfe47ac	0.007760009
156	0xbd5a353d	-0.05327343
157	0xbd637d58	-0.05553946
158	0xbe3a5285	-0.18195541
159	0xbdf4fe51	-0.119625695
160	0xbdbc4d3c	-0.09194419
161	0xbd7384af	-0.05945271
162	0xbd7ee7f6	-0.062232934
163	0xbb5646e0	-0.0032696053
164	0x3d0f6548	0.0350087
165	0x3cba86e1	0.022769393
166	0xbdab5a6c	-0.08366856
167	0xbcff8e8e	-0.031195905
168	0x3d3712ac	0.04469554
169	0x3cfbea6c	0.03075143
170	0xbe16aea9	-0.14715065
171	0x3beb73ba	0.0071854265
172	0x3d7f094d	0.06226473
173	0x3d9fcd97	0.07802885
174	0xbd13b990	-0.036065638
175	0xbc135647	-0.008992738
176	0x3c87e6bd	0.016589517
177	0x3d177af6	0.0369825
178	0xbb8c937c	-0.0042900424
179	0x3ca308b5	0.019901613
180	0xbe218513	-0.1577342
181	0xbd9d7a71	-0.076893695
182	0xbe0f339f	-0.13984536
183	0x3d4b555c	0.049641952
184	0xbdbd3aea	-0.092397526
185	0x3ba9d307	0.005182627
186	0x3b1f39ec	0.0024295999
187	0xbdd22a93	-0.10262027
188	0xbd72ae01	-0.059247974
189	0x3db73af9	0.08946795
190	0x3a3ff8e8	0.00073231617
191	0xbe5015e4	-0.2032085
192	0x3cccec1a	0.025014926
193	0xbd3c0218	-0.045900434
194	0xbd149b76	-0.03628107
195	0x3cd564a0	0.026048958
196	0xbadbb615	-0.0016762639
197	0x3ca35808	0.019939438
198	0xbd49f645	-0.049307127
199	0x3d488e84	0.04896404
200	0x3dadb569	0.08481867
201	0x3bb415df	0.0054957713
202	0xbc12d85e	-0.008962719
203	0x3ce6ce30	0.02817449
204	0xbac9c0ba	-0.001539252
205	0x3ce5789c	0.028011613
206	0xbc82cf7f	-0.015968082
207	0xbb64c8e7	-0.0034909786
208	0x3c2a5f70	0.010398731
209	0xbcaffd44	-0.021483071
210	0x3cb10caf	0.021612493
211	0xbb2c5364	-0.0026294822
212	0xbd82e3d3	-0.0639111
213	0xbcbb1c2f	-0.022840587
214	0xbd506b3f	-0.050883528
215	0xbd0ba326	-0.034091137
216	0x3cf33750	0.029689461
217	0xbb4286fe	-0.0029682512
218	0xbda8c357	-0.08240383
219	0x3d59d868	0.053184897
220	0x3d14679f	0.036231633
221	0xbcdc4d05	-0.026892195
222	0x3d496555	0.049168903
223	0x3c99617b	0.01872324
224	0x3b1da822	0.0024056514
225	0x3ca9147d	0.020639652
226	0x3b89098f	0.0041820477
227	0x3d0d0f8c	0.034438655
228	0x3cd441b6	0.02591024
229	0x3d643391	0.05571324
230	0x3d526839	0.051368926
231	0xbd1e9a9d	-0.03872167
232	0x3c5e0930	0.013551995
233	0x3d6400e6	0.05566492
234	0xbd272118	-0.040803045
235	0xbc573c92	-0.013137
236	0x3b6b3fda	0.0035896213
237	0x3d4822fa	0.04886148
238	0x3ce96428	0.028490141
239	0x3cb6b31f	0.022302208
240	0xbd5a0128	-0.05322376
241	0xbd0fb538	-0.035084933
242	0x3c2ca586	0.010537511
243	0xbd8371a3	-0.06418159
244	0x3cf950ce	0.030434038
245	0xbd5b35c9	-0.05351809
246	0x3d946f7f	0.07247829
247	0xbca1432c	-0.01968535
248	0xbd5504f7	-0.052006688
249	0x3d7a7abc	0.061152205
250	0xbadf6543	-0.0017043728
251	0x3c70e083	0.014701965
252	0x3c04f5ed	0.008115274
253	0x3e0846c0	0.13308239
254	0xbaa8b127	-0.0012870178
255	0xbda49381	-0.08035947

fc1.bias f4 [50]
0	0x3d61a2c8	0.05508688
1	0xba991ccd	-0.0011681557
2	0x3db75e1c	0.08953497
3	0x3dfcc986	0.12343125
4	0x3c91b738	0.01778756
5	0x3e00caee	0.12577412
6	0x3d484d03	0.04890157
7	0x3df3bf0f	0.11901676
8	0x3d397169	0.045274172
9	0xbd1995c1	-0.037496332
10	0x3d040536	0.032231532
11	0x3aa0db8e	0.0012272464
12	0x3e1849e1	0.14871933
13	0x3e083082	0.13299754
14	0x3dcec2ae	0.10095726
15	0x3de14f97	0.11001509
16	0x3d0ef22e	0.03489893
17	0x3df3637e	0.11884211
18	0x3b847b24	0.004043
19	0x3ddf46ba	0.10902162
20	0x3dade638	0.08491176
21	0x3d9a2f8c	0.075286
22	0x3c1f3f6c	0.009719711
23	0x3ad0284d	0.0015881151
24	0x3d9e8e44	0.07741979
25	0x3bf64586	0.007515612
26	0xbd1138ac	-0.035454437
27	0x3d0105fd	0.03149985
28	0x3dc2ab01	0.09505273
29	0x3d50cc7d	0.050976265
30	0x3da341e2	0.079715505
31	0x3db700dc	0.08935711
32	0x3d8983cb	0.06714591
33	0x3db59644	0.088665515
34	0xba934912	-0.0011236987
35	0x3d335e56	0.043791138
36	0x3de6820a	0.11255272
37	0x3d9a57a1	0.07536245
38	0xbbaffa87	-0.0053704414
39	0x3d485402	0.04890824
40	0x3d108c8d	0.03529029
41	0x3dbfb9ab	0.09361585
42	0x3c829cd3	0.01594392
43	0xbc965319	-0.01835017
44	0x3e0fde5c	0.14049667
45	0x3c981a21	0.018567147
46	0x3e00ce97	0.12578808
47	0x3cce364b	0.025172373
48	0xbc8f7e97	-0.017516417
49	0x3d3f678a	0.046729602

fc2.weight f4 [10, 50]
0	0x3e508cea	0.20366254
1	0xbe2b6583	-0.16737942
2	0x3dd1a98d	0.10237417
3	0xbe2d01ba	-0.1689519
4	0xbe5439c2	-0.20725158
5	0xbe5ade09	-0.21373762
6	0x3dc3ae44	0.09554723
7	0xbe23de6c	-0.16002816
8	0xbdef9ecc	-0.1170021
9	0xbce162ec	-0.02751299
10	0xbe758fbc	-0.23980612
11	0x3d61feca	0.055174626
12	0xbe02d02b	-0.12774722
13	0xbe185315	-0.14875443
14	0xbdae3d3e	-0.08507775
15	0xbe3d1e22	-0.18468526
16	0xbe8197e6	-0.25311202
17	0xbe656f46	-0.22405729
18	0x3e111eeb	0.1417195
19	0xbdf8eb7a	-0.121542886
20	0x3e1caf49	0.15301241
21	0x3d2cb23f	0.042162176
22	0xbe083af8	-0.13303745
23	0x3dbe7a1d	0.09300635
24	0xbe7c73e7	-0.24653588
25	0x3e147ad5	0.14499982
26	0xbda8ab30	-0.082357764
27	0xbe21859d	-0.15773626
28	0xbde764c4	-0.112985164
29	0x3e0a2bee	0.1349332
30	0xbe3af6a4	-0.18258148
31	0xbd6a3f2c	-0.05718915
32	0x3e0fa61e	0.14028212
33	0x3d172ecf	0.036909875
34	0xbd81d53d	-0.063395
35	0x3dc7f324	0.09763172
36	0x3e088b97	0.133345
37	0x3d9e14ea	0.07718833
38	0x3e30968b	0.17244928
39	0x3e2a0de1	0.16606857
40	0x3dcbf93b	0.09959646
41	0x3dc0b766	0.094099805
42	0xbdca32d0	-0.09872973
43	0x3e3606e1	0.17776062
44	0xbe552b2b	-0.20817249
45	0xba58b5fa	-0.0008266863
46	0x3e17eb39	0.14835824
47	0xbd4a71ab	-0.04942481
48	0xbd4f2477	-0.050571885
49	0x3d9d9121	0.07693697
50	0xbdd3cce9	-0.10341818
51	0xbd583757	-0.05278715
52	0xbe80e64d	-0.25175706
53	0x3e31aafc	0.17350382
54	0x3dfb05bc	0.12256953
55	0x3da69886	0.0813456
56	0x3dfed120	0.12442231
57	0x3e32974c	0.17440528
58	0xbe63ceee	-0.22246906
59	0xbe341299	-0.1758522
60	0xbda2f5c3	-0.079570316
61	0xbd827cdb	-0.063714705
62	0x3d716a3a	0.058939196
63	0x3dbbf019	0.09176654
64	0xbe6bd40f	-0.23030113
65	0x3e1008c6	0.14065847
66	0xbdeb98ee	-0.115037784
67	0x3e09ea63	0.13468318
68	0x3e03ce61	0.12871696
69	0x3df1d883	0.118088745
70	0xbdfc8146	-0.123293445
71	0xbe554666	-0.20827636
72	0xbe851603	-0.25993356
73	0x3e0fbbc1	0.14036466
74	0x3dde7135	0.10861436
75	0xbe7da31a	-0.2476925
76	0xbe561f8a	-0.20910469
77	0xbe019e52	-0.1265805
78	0x3dcd41bf	0.10022306
79	0xbc68ca1a	-0.014208341
80	0x3d874a3b	0.06605955
81	0x3dcce988	0.1000548
82	0x3df4e44e	0.11957608
83	0x3d9930ec	0.07480034
84	0xbe059dfb	-0.13048546
85	0xbe1d347f	-0.15352057
86	0xbe757d5c	-0.23973602
87	0x3d00b5d9	0.031423423
88	0xbea1de7f	-0.31615064
89	0xbe50659a	-0.20351258
90	0xbe409e10	-0.18810296
91	0xbd6e2325	-0.058138985
92	0xbe2bb589	-0.16768469
93	0xbd45147a	-0.04811523
94	0x3dd68b9a	0.10475846
95	0xbe77b799	-0.2419113
96	0x3e176748	0.14785492
97	0xbe7069aa	-0.23477808
98	0xbd90c80f	-0.07069408
99	0xbe6fd2a0	-0.23420191
100	0xbd948ee4	-0.07253817
101	0xbdda9b32	-0.106741324
102	0xbe57db53	-0.2107976
103	0xbc813de2	-0.015776578
104	0xbe1171d7	-0.14203583
105	0xbec082f4	-0.3759991
106	0x3e076d78	0.13225353
107	0xbdd82975	-0.10554782
108	0xbe4610a3	-0.19342284
109	0x3dee33e9	0.11630995
110	0xbd016e1e	-0.031599157
111	0x3d9b04aa	0.07569249
112	0xbe410da9	-0.18852867
113	0xbdfdcef3	-0.12392988
114	0xbe55e74a	-0.20889011
115	0x3debdaba	0.11516328
116	0xbdaa44dd	-0.08313916
117	0xbe630731	-0.22170712
118	0x3e115dcf	0.14195941
119	0x3e0c5940	0.13705921
120	0xbde6f252	-0.11276688
121	0x3d666ada	0.056254245
122	0x3c9b8395	0.018983642
123	0x3bde2918	0.006779801
124	0x3e05cab9	0.13065614
125	0x3e062f5d	0.13104005
126	0x3de8552b	0.113443695
127	0xbdd9e07b	-0.106385194
128	0x3df3d4e3	0.11905839
129	0x3dd570f9	0.104219384
130	0x3dd0aed4	0.10189596
131	0x3e0998ec	0.13437241
132	0x3de40941	0.111345775
133	0x3cb0ad8f	0.021567134
134	0xbe578b86	-0.21049318
135	0x3da97a0e	0.08275233
136	0xbe3b0a62	-0.1826568
137	0x3deeb09e	0.11654781
138	0xbda75f90	-0.08172524
139	0xbd932e28	-0.07186538
140	0x3b3bd9f9	0.0028663857
141	0x3dcaadbb	0.09896418
142	0x3e0170df	0.12640713
143	0x3e1969bb	0.14981739
144	0x3d290c36	0.04127141
145	0x3de69ef3	0.11260786
146	0xbe350b52	-0.176801
147	0xbe012c8d	-0.12614651
148	0xbd90feba	-0.07079835
149	0xbd1d729a	-0.03843937
150	0xbdd3bb67	-0.103384785
151	0xbdb56bd9	-0.08858461
152	0xbe3a429f	-0.18189476
153	0xbe83202b	-0.2561048
154	0xbdca2bc0	-0.09871626
155	0xbe0f8c8d	-0.1401846
156	0xbe022837	-0.12710653
157	0xbe6b844a	-0.22999683
158	0x3db69147	0.08914428
159	0x3e15433b	0.14576428
160	0x3dff678c	0.12470922
161	0x3e033b27	0.12815534
162	0x3dab4b9c	0.08364031
163	0xbe5414b9	-0.2071103
164	0xbdc00d1f	-0.09377503
165	0x3e15ad20	0.14616823
166	0x3b98340f	0.0046448777
167	0x3de1d20e	0.11026393
168	0xbd29ba59	-0.04143748
169	0x3d9e1dc1	0.07720519
170	0xbe05fa4b	-0.1308376
171	0x3e06c64c	0.13161582
172	0xbe4ce2f3	-0.2000845
173	0xbe3ffd15	-0.18748887
174	0xbd855376	-0.065100595
175	0xbe1392f6	-0.1441153
176	0xbe03adaa	-0.12859216
177	0x3e0d7ac8	0.13816369
178	0x3e031e04	0.12804419
179	0x3e04f048	0.12982285
180	0x3db820c0	0.089906216
181	0x3cf36a1b	0.029713681
182	0xbe564147	-0.20923339
183	0x3dc3ad74	0.09554568
184	0x3d2bcc64	0.04194297
185	0xbd843509	-0.06455428
186	0x3c8b33cd	0.016992474
187	0x3e0ca986	0.13736543
188	0xbe178736	-0.14797673
189	0xbb1601d7	-0.002288928
190	0xbd13a5cd	-0.03604679
191	0x3da68bd7	0.08132141
192	0x3cf4c423	0.029878682
193	0xbd705eec	-0.058684275
194	0x3da03cc5	0.07824091
195	0xbd86514d	-0.06558476
196	0xbe3121c4	-0.17298037
197	0xbe4056e8	-0.18783152
198	0xbdc888d3	-0.09791722
199	0x3d8b6353	0.06806054
200	0x3cb7c9f3	0.022435164
201	0x3db3076a	0.087416485
202	0xbe3ea5e6	-0.18617973
203	0x3e286344	0.16444117
204	0x3de8daac	0.11369833
205	0x3baf3ef5	0.0053480812
206	0x3e1e068a	0.15432182
207	0x3e223ef0	0.15844321
208	0x3d4026be	0.046911947
209	0x3e0a7047	0.13519393
210	0x3ddaf30d	0.106908895
211	0xbe17de62	-0.14830926
212	0x3d6d6fe3	0.05796803
213	0x3d14da43	0.036340963
214	0x3d9e84cc	0.07740173
215	0x3dea3c60	0.11437297
216	0x3e0b89c9	0.1362678
217	0xbbf0b4ca	-0.0073457705
218	0x3d8fe9f4	0.07027045
219	0xbe21179a	-0.1573166
220	0xbd9d9d0a	-0.076959684
221	0xbda56adc	-0.080770224
222	0x3e010750	0.12600446
223	0x3e242679	0.16030301
224	0xbd7de053	-0.06198151
225	0x3d43b55d	0.047780383
226	0x3e153006	0.145691
227	0x3e10eb10	0.14152169
228	0xbd7ce446	-0.061741136
229	0xbe2c38fa	-0.1681861
230	0xbe002003	-0.12512212
231	0xbda4cbff	-0.08046722
232	0x3d842d72	0.064539805
233	0xbe2ec1e4	-0.17066151
234	0x3db290b3	0.087190054
235	0xbe2a6b71	-0.16642548
236	0x3db071a6	0.08615427
237	0xbdf8f24c	-0.121555895
238	0x3db841c4	0.08996919
239	0x3d4d9062	0.050186522
240	0xbdef7dcd	-0.116939165
241	0xbe4c23df	-0.19935559
242	0xbe7cb8d2	-0.24679878
243	0x3c91c051	0.017791899
244	0xbe040450	-0.1289227
245	0x3db7243c	0.08942458
246	0xbdf9a328	-0.12189323
247	0x3e1c8c14	0.1528781
248	0x3e528a0b	0.20560472
249	0xbe8caecc	-0.2747711
250	0xbd5f30f8	-0.05449006
251	0x3dc7c344	0.09754041
252	0x3e025568	0.12727892
253	0xbdee6ea6	-0.11642198
254	0x3e090af4	0.13383085
255	0x3d47c704	0.04877378

fc2.bias f4 [10]
0	0xbe160127	-0.14648877
1	0x3e697c1f	0.22801255
2	0x3c288772	0.010286199
3	0x3c808115	0.015686551
4	0xbe631835	-0.22177203
5	0x3dbd10af	0.09231698
6	0xbd60af44	-0.054854646
7	0x3b806856	0.003918688
8	0x3e2c5608	0.16829693
9	0xbe97e859	-0.29669455

exp_avg f4 [10, 1, 5, 5]
0	0xbc1552f0	-0.009114012
1	0xbbbf5044	-0.005838426
2	0xbb720905	-0.0036931646
3	0xbb6c4a7c	-0.0036055138
4	0xbbf0bac1	-0.0073464816
5	0xbc0d8a88	-0.008638985
6	0xbba80258	-0.0051272325
7	0xbb985920	-0.0046492964
8	0xbb9c593e	-0.0047713807
9	0xbba60f23	-0.0050677224
10	0xbbe04d5f	-0.006845161
11	0xbbc96f05	-0.0061472678
12	0xbbd7627a	-0.0065730186
13	0xbb9d741b	-0.0048051006
14	0xbbc5594c	-0.006022608
15	0xbbd871cb	-0.006605362
16	0xbbe2e761	-0.006924555
17	0xbbe979cf	-0.0071251164
18	0xbbac43c7	-0.005257103
19	0xbc11dee0	-0.008903235
20	0xbbd8e98f	-0.006619639
21	0xbbfe20f0	-0.0077553913
22	0xbc07ebcc	-0.008295964
23	0xbc074bb4	-0.008257795
24	0xbc2b73f7	-0.01046466
25	0x3bae66ab	0.0053222976
26	0x3bcd04d8	0.006256681
27	0x3bffac03	0.007802488
28	0x3bfcbd67	0.007713008
29	0x3b79ecd2	0.003813554
30	0x3b9a9f7b	0.0047187186
31	0x3b9f442e	0.0048604226
32	0x3ba8d699	0.005152535
33	0x3bd19ee0	0.006397113
34	0x3b8874aa	0.004164298
35	0x3b4cd666	0.003125572
36	0x3b5a440e	0.0033304724
37	0x3b5b5520	0.0033467487
38	0x3bc5e2db	0.006039006
39	0x3babbc14	0.0052409265
40	0x3b8469f3	0.0040409504
41	0x3b741912	0.0037246388
42	0x3b9687ae	0.004593811
43	0x3bfcffd6	0.0077209277
44	0x3beb47e2	0.0071802
45	0x3ba02e44	0.004888328
46	0x3ba992eb	0.0051749847
47	0x3bd94099	0.006630015
48	0x3befec68	0.007321883
49	0x3bf2ddab	0.007411679
50	0x3b14f863	0.0022731058
51	0xba3172c7	-0.00067691173
52	0xbad38d1f	-0.001614008
53	0xbac0d904	-0.0014713113
54	0xba63a779	-0.0008684318
55	0xba99e427	-0.0011740968
56	0xbb406ddb	-0.0029362354
57	0xbafd05ec	-0.0019304133
58	0xba4628b5	-0.00075591664
59	0xba6995db	-0.0008910575
60	0xbb25dba8	-0.0025307927
61	0xbb1d396f	-0.0023990532
62	0xbad36a37	-0.0016129677
63	0xb8ec323d	-0.000112627145
64	0xbaba282a	-0.0014202644
65	0xba77a33c	-0.0009446626
66	0x390d4130	0.00013471092
67	0xbaa77c6f	-0.0012778173
68	0xbb2620d5	-0.002534916
69	0xbb59737a	-0.0033180402
70	0x3b87ae78	0.0041406713
71	0x3b1c40e1	0.0023842382
72	0x3a47e2f2	0.0007625065
73	0xbad6b5ea	-0.0016381119
74	0xbac67bac	-0.0015143058
75	0x3bad3a34	0.0052864794
76	0x3bb33f57	0.005470197
77	0x3ba97e40	0.005172521
78	0x3b7e363f	0.0038789657
79	0x3b2d7731	0.0026468749
80	0x3ba8a9db	0.0051472015
81	0x3bc8c73c	0.006127266
82	0x3bdbd30c	0.0067085084
83	0x3b8b1b30	0.0042451844
84	0x3956048d	0.00020410326
85	0x3b728f37	0.0037011632
86	0x3bb2af67	0.0054530385
87	0x3bddc6be	0.0067680767
88	0x3ba9f553	0.0051867156
89	0x3b2efc6f	0.0026700755
90	0x3b3c93fd	0.0028774731
91	0x3b9ab174	0.004720861
92	0x3bc00766	0.005860257
93	0x3b9af9ae	0.004729471
94	0x3b9dcd14	0.004815707
95	0x3a686e8a	0.0008866569
96	0x3b9ae74f	0.004727281
97	0x3bed4248	0.0072405674
98	0x3bad520d	0.005289322
99	0x3b286062	0.0025692214
100	0x3b70efbb	0.0036763984
101	0x3b932e55	0.004491607
102	0x3b946d3c	0.0045296233
103	0x3b873c2d	0.0041270466
104	0x3b44d834	0.0030036094
105	0x3b5bb87c	0.003352671
106	0x3bb27756	0.005446355
107	0x3bb8eb47	0.0056432816
108	0x3bb9d810	0.0056715086
109	0x3b91b0c7	0.0044461223
110	0x3b2c69ea	0.0026308247
111	0x3b595ab9	0.0033165647
112	0x3baa48f5	0.0051966854
113	0x3bcfe73a	0.006344703
114	0x3b98dc4b	0.004664933
115	0xba462076	-0.00075579376
116	0xb9f93517	-0.00047532536
117	0x3b28b6c9	0.0025743714
118	0x3bb8ac27	0.0056357565
119	0x3b730f82	0.00370881
120	0xba8b1207	-0.0010610231
121	0xba99f7b2	-0.0011746793
122	0x3a644101	0.0008707196
123	0x3b0b96b9	0.0021299555
124	0x3b948ef2	0.004533642
125	0xbc0f27e3	-0.008737537
126	0xbc162687	-0.009164459
127	0xbb8151e4	-0.0039465297
128	0xbb7fedd5	-0.003905167
129	0xbbfda89e	-0.007741048
130	0xbc4c1d58	-0.012458168
131	0xbc161376	-0.009159913
132	0xbbbd0e2d	-0.005769512
133	0xbbb357b4	-0.0054731015
134	0xbbcd3de3	-0.006263481
135	0xbc0a477b	-0.008439894
136	0xbbb6f8da	-0.0055838646
137	0xbbb6d0dc	-0.005579097
138	0xbb6d85d2	-0.0036243093
139	0xbbc6db91	-0.006068655
140	0xbb6a52c3	-0.0035754896
141	0xbabe127c	-0.0014501358
142	0xbb22e6d0	-0.0024856813
143	0xbb048fbc	-0.0020227274
144	0xbb624a25	-0.0034529057
145	0xbb3730c8	-0.002795266
146	0xbae5ba94	-0.0017526918
147	0xbb25297e	-0.0025201733
148	0xbb019899	-0.0019774793
149	0xb9e1371d	-0.00042956407
150	0x3ad05ebd	0.0015897375
151	0x3a1eda4e	0.00060597516
152	0xba3d9f2c	-0.0007233496
153	0xba367056	-0.00069594884
154	0xb93c4cbd	-0.00017957664
155	0x3b1d2b37	0.0023982057
156	0x369caab6	4.6690357e-06
157	0xbadc4c9e	-0.0016807502
158	0xbb024db1	-0.0019882733
159	0xba915246	-0.0011087141
160	0x39a860ac	0.00032115483
161	0xba81ac91	-0.0009893348
162	0xbb316053	-0.002706547
163	0xbb6be21f	-0.0035992933
164	0xba844edf	-0.0010094306
165	0xbacd5eee	-0.001566855
166	0xbb876371	-0.0041317274
167	0xbbcd25c3	-0.006260605
168	0xbb9cc9c4	-0.0047847945
169	0xb9517924	-0.00019976922
170	0xb995e0a5	-0.00028586868
171	0xbb24a642	-0.0025123511
172	0xbb3d6394	-0.0028898465
173	0xbaca8e9a	-0.0015453876
174	0xb98e9c61	-0.00027200862
175	0x3a88a07d	0.0010423806
176	0x3b73134f	0.0037090366
177	0x3b84c257	0.0040514874
178	0x3bc49c21	0.0060000573
179	0x3c04e152	0.008110361
180	0x3a83e122	0.0010061602
181	0x3b2c8686	0.00263253
182	0x3b7ed5ec	0.0038884832
183	0x3bd97464	0.0066361893
184	0x3bdabf33	0.0066756248
185	0x3a5e6867	0.0008484185
186	0x3ac6a944	0.0015156646
187	0x3b95b483	0.004568638
188	0x3ba76837	0.005108859
189	0x3b6d21c8	0.0036183465
190	0xb91a896f	-0.00014737782
191	0x3b301f68	0.0026874188
192	0x3ba4a7e0	0.005024895
193	0x3b7e0ab8	0.0038763713
194	0xb7ae4895	-2.0776215e-05
195	0x38976230	7.21853e-05
196	0x3b1826bd	0.002321645
197	0x3ba04bec	0.004891863
198	0x3bb90943	0.005646856
199	0xba8a82ec	-0.0010567582
200	0xbb866671	-0.0041015674
201	0xbb7c40b9	-0.0038490726
202	0x39e441ff	0.0004353672
203	0x3b0c9698	0.0021452066
204	0x3b897e36	0.0041959537
205	0xbb758c55	-0.0037467678
206	0xbac5004b	-0.0015029995
207	0x3ac437c1	0.0014970229
208	0x3ae45b62	0.0017422254
209	0x3b23d903	0.0025001175
210	0xba89ebc9	-0.001052254
211	0x3a9ba47c	0.0011874582
212	0x3984ed46	0.00025353784
213	0xb9a71fc1	-0.0003187638
214	0x3aba405f	0.0014209858
215	0x3a856c40	0.0010179356
216	0x3aa3ad81	0.0012487621
217	0xba0a0c34	-0.00052661006
218	0x395ea096	0.00021231393
219	0x3b58cafa	0.0033079968
220	0x3b88e2ff	0.0041774507
221	0x3b2c3465	0.0026276347
222	0x3b55cca4	0.0032623196
223	0x3b87f0e1	0.004148588
224	0x3ba0cd1a	0.0049072625
225	0x3b43d90b	0.0029884006
226	0x3ae332d9	0.0017333879
227	0x3a8228c8	0.0009930367
228	0x3ad2ab33	0.001607275
229	0x3ba87ec4	0.0051420648
230	0x3af66e41	0.0018801169
231	0x3a930d44	0.0011219163
232	0x3a62f043	0.00086570176
233	0x3b16faed	0.0023037747
234	0x3bb1014a	0.005401765
235	0x3a9e702b	0.0012087872
236	0x3ab19819	0.0013549357
237	0x39fc7b4f	0.00048157058
238	0x3b86b73a	0.004111198
239	0x3c07711f	0.008266716
240	0x3a292b02	0.0006453247
241	0xba2ce6a7	-0.0006595649
242	0xba311911	-0.00067557493
243	0x3b4dee75	0.003142265
244	0x3be9a4b7	0.0071302312
245	0xb94bcdb3	-0.00019436218
246	0xbb10bb61	-0.0022084343
247	0xb9634453	-0.0002167386
248	0x3b7de235	0.0038739566
249	0x3bc2997f	0.0059387083

exp_avg_sq f4 [10, 1, 5, 5]
0	0x3a01fa18	0.00049582263
1	0x39cb6e27	0.00038801247
2	0x3965050a	0.00021841019
3	0x396f70ca	0.00022834833
4	0x39d6335e	0.00040855532
5	0x3a02d5ba	0.0004990954
6	0x39aeaae7	0.00033315198
7	0x39510793	0.00019934615
8	0x3990d65b	0.00027625528
9	0x3a2548d2	0.00063051016
10	0x3a0d8b93	0.00053995213
11	0x39ecd58c	0.00045172533
12	0x39c24f33	0.00037061571
13	0x3a16142b	0.0005725051
14	0x3a8628f9	0.00102356
15	0x3a295265	0.0006459116
16	0x3a37e053	0.0007014323
17	0x3a6605df	0.00087746786
18	0x3a9db735	0.0012032749
19	0x3ab3de31	0.0013722834
20	0x3a425b59	0.00074141246
21	0x3a7105ec	0.0009194303
22	0x3aa0e25b	0.001227449
23	0x3ac69139	0.0015149481
24	0x3aae8561	0.0013314896
25	0x395b9362	0.00020940372
26	0x395db2ad	0.00021142764
27	0x396402e1	0.00021744847
28	0x394d7a09	0.00019595785
29	0x3921e4e4	0.00015439425
30	0x397c8b4b	0.00024084483
31	0x396107dc	0.000214606
32	0x3950c026	0.00019908007
33	0x393f7e10	0.00018262141
34	0x39335f5d	0.00017106296
35	0x39339024	0.00017124467
36	0x3914e638	0.00014200143
37	0x391f0b6e	0.0001516768
38	0x3927a7e5	0.00015988907
39	0x39382b0a	0.0001756364
40	0x39065497	0.00012810748
41	0x3909574e	0.00013097862
42	0x392314cb	0.00015552637
43	0x39586fe2	0.00020641045
44	0x3964711f	0.00021785915
45	0x391ae0fe	0.000147704
46	0x3937eba5	0.00017540024
47	0x3962b368	0.00021619874
48	0x3988f2ba	0.00026120787
49	0x3980d34f	0.000245715
50	0x39e24c8c	0.0004316311
51	0x3a0759ea	0.00051632395
52	0x3a037119	0.0005014106
53	0x39cc3882	0.00038952014
54	0x398ab337	0.00026454937
55	0x39fd3bad	0.00048300382
56	0x3a0660d2	0.00051261217
57	0x39d3ae1a	0.00040374772
58	0x396c4124	0.0002253098
59	0x3927b140	0.00015992392
60	0x3a0807c2	0.0005189144
61	0x39e8c37c	0.00044396135
62	0x39475e16	0.00019013169
63	0x38cd39b0	9.785907e-05
64	0x38ceea32	9.866468e-05
65	0x39f660a5	0.00046992782
66	0x399d4653	0.0002999777
67	0x38e420f9	0.00010878029
68	0x3891cb5e	6.952019e-05
69	0x38d1e37f	0.00010008271
70	0x39cc00d9	0.00038910544
71	0x397c618c	0.00024068932
72	0x38fe3e10	0.00012123224
73	0x38d4ea08	0.000101525395
74	0x393d67d5	0.00018063125
75	0x39881abb	0.00025959857
76	0x3990573c	0.00027530815
77	0x399a2499	0.00029400436
78	0x39c262c0	0.00037076138
79	0x39de2771	0.00042372526
80	0x39564139	0.00020432928
81	0x3975a578	0.00023426663
82	0x399d17f3	0.00029963217
83	0x39cde7ed	0.00039273445
84	0x39ca09a5	0.00038535628
85	0x39273192	0.00015944827
86	0x395efb64	0.0002126522
87	0x39a06b41	0.00030597489
88	0x39bc05bd	0.0003586243
89	0x39a5d211	0.00031627764
90	0x3954b00f	0.00020283482
91	0x3988ca26	0.00026090554
92	0x39a02a51	0.00030549106
93	0x399e3a4e	0.0003017955
94	0x39785324	0.00023682095
95	0x39804804	0.00024467718
96	0x39936b67	0.00028118046
97	0x399c3835	0.00029796516
98	0x398f262e	0.00027303532
99	0x395bc794	0.00020959816
100	0x397ff209	0.0002440886
101	0x3930d8e2	0.00016865463
102	0x392ae252	0.00016296774
103	0x39136dee	0.00014059964
104	0x39008a8e	0.00012258647
105	0x3947b63b	0.00019046005
106	0x3944c027	0.00018763599
107	0x39597e10	0.00020741695
108	0x392b62fb	0.00016344704
109	0x390a55f8	0.00013192731
110	0x392a1a56	0.00016222274
111	0x3917823b	0.00014448997
112	0x39357685	0.00017305657
113	0x3921f6f6	0.00015446157
114	0x3915586f	0.00014242691
115	0x3908a43e	0.00013031156
116	0x390a6cb6	0.00013201204
117	0x392dcad1	0.0001657412
118	0x3938279d	0.00017562365
119	0x394b541c	0.00019390922
120	0x3921125d	0.00015360997
121	0x3953cc2e	0.00020198591
122	0x396737d8	0.0002205068
123	0x3950c1d5	0.00019908634
124	0x395fcf1a	0.00021344089
125	0x3a77c331	0.0009451388
126	0x3a882d2c	0.0010389439
127	0x3a8391d6	0.0010037969
128	0x3a877371	0.0010334087
129	0x3a95e04a	0.0011434641
130	0x3a8131ff	0.0009856819
131	0x3a6d862a	0.00090608245
132	0x3a54fc67	0.0008124769
133	0x3a63fedf	0.00086973415
134	0x3a8367c7	0.0010025435
135	0x3a27bc8d	0.00063986407
136	0x39ef8679	0.00045685822
137	0x39f49ecc	0.0004665762
138	0x3a2dbbc7	0.0006627407
139	0x3a54e83d	0.00081217644
140	0x39a4f873	0.00031465627
141	0x39584108	0.00020623591
142	0x398b66ef	0.00026588837
143	0x39fcf2e6	0.0004824616
144	0x3a2d5639	0.00066122744
145	0x394ad93b	0.00019345146
146	0x391d65a5	0.00015010552
147	0x39799ba9	0.00023804478
148	0x39ced38d	0.00039449
149	0x3a1233bf	0.0005577169
150	0x38c93b4b	9.595471e-05
151	0x38984aba	7.261844e-05
152	0x38a5fc68	7.9148274e-05
153	0x38df14e7	0.00010637362
154	0x39172ef7	0.00014417978
155	0x390a980f	0.00013217352
156	0x38d3ee4d	0.00010105651
157	0x38e8c44f	0.000110991874
158	0x39104146	0.00013757226
159	0x39515837	0.00019964656
160	0x39494587	0.00019194755
161	0x39495ea5	0.00019204112
162	0x393dfd6b	0.0001811885
163	0x39664a3f	0.00021962168
164	0x398302ec	0.00024988444
165	0x396e9058	0.00022751221
166	0x396a8be3	0.00022368091
167	0x3968dbc0	0.00022207107
168	0x397b2804	0.00023952132
169	0x3962754b	0.00021596735
170	0x3944183c	0.00018701045
171	0x39358c26	0.00017313714
172	0x39403921	0.00018331829
173	0x393daf64	0.00018089783
174	0x3914884a	0.00014165152
175	0x389b0ab7	7.392972e-05
176	0x38d99c13	0.000103764374
177	0x3999e35d	0.00029351833
178	0x3a17c691	0.00057897816
179	0x3a1af455	0.0005911042
180	0x385fdbae	5.3371936e-05
181	0x38b6b0bf	8.711358e-05
182	0x39bc2ff8	0.00035893894
183	0x3a32afa9	0.00068163365
184	0x3a22f143	0.00062157604
185	0x38417ea9	4.6132747e-05
186	0x38c38a71	9.324111e-05
187	0x39f2af10	0.0004628827
188	0x3a58bdfa	0.0008268055
189	0x3a274ccd	0.00063819886
190	0x38606223	5.349716e-05
191	0x3923f3e4	0.00015635748
192	0x3a233dfb	0.00062271924
193	0x3a6dc3f5	0.00090700324
194	0x3a2bf7ab	0.0006560038
195	0x38e2004b	0.00010776574
196	0x39b1f828	0.00033944962
197	0x3a391b6b	0.00070612755
198	0x3a648df1	0.00087186607
199	0x3a2ba9aa	0.0006548414
200	0x3980818f	0.0002451059
201	0x38f8fa52	0.00011872187
202	0x38909ffc	6.8962545e-05
203	0x38815c78	6.168423e-05
204	0x3902fc66	0.00012491792
205	0x38f1c1bf	0.000115278635
206	0x385c6c12	5.2552736e-05
207	0x3833ef74	4.2899934e-05
208	0x387c3276	6.0128477e-05
209	0x392eccc1	0.0001667021
210	0x38692ce1	5.5593326e-05
211	0x3831ccc0	4.2390777e-05
212	0x384cd210	4.8833026e-05
213	0x38d27c3e	0.00010036722
214	0x399c2506	0.00029782223
215	0x385e3d2f	5.2985906e-05
216	0x38836a69	6.266387e-05
217	0x38e4395c	0.00010882571
218	0x3995d208	0.0002857598
219	0x3a013edc	0.0004930326
220	0x38b7fc7e	8.77315e-05
221	0x390b81b3	0.0001330439
222	0x399e1d57	0.00030157968
223	0x3a02b59f	0.000498617
224	0x3a171466	0.00057632325
225	0x38868cc0	6.415835e-05
226	0x384417ab	4.6752084e-05
227	0x3896b124	7.1855524e-05
228	0x393e1e3f	0.0001813108
229	0x39a493ce	0.0003139064
230	0x384ce8fc	4.8854374e-05
231	0x3839cfdb	4.4301018e-05
232	0x38b40ba8	8.58524e-05
233	0x396d70f1	0.00022644155
234	0x39d55ac1	0.00040694143
235	0x38a857a1	8.0271864e-05
236	0x38d9fb98	0.00010394229
237	0x39303b66	0.00016806796
238	0x39ac39c5	0.00032849438
239	0x3a0b2982	0.00053086143
240	0x39243ab8	0.00015662133
241	0x395b874c	0.0002093587
242	0x39a17c77	0.00030801047
243	0x3a08df20	0.00052212365
244	0x3a1f993f	0.0006088204
245	0x3967996d	0.00022087032
246	0x3999c7c3	0.00029331268
247	0x39e78e80	0.00044165924
248	0x3a1fc665	0.0006094932
249	0x3a137a7c	0.00056258566
