saved/models/Mnist_LeNet/0502_095806/checkpoint-epoch7.pth (torch, 362006 bytes, 32 tensors)

conv1.weight f4 [10, 1, 5, 5]
0	0xbe221794	-0.15829307
1	0xbdc07912	-0.09398092
2	0xbe383349	-0.17988314
3	0xbb198015	-0.002342229
4	0xbe205730	-0.1565826
5	0x3e317f9a	0.17333832
6	0xbe9672c0	-0.29384422
7	0xbf096ff7	-0.5368647
8	0xbededcce	-0.43527836
9	0xbdf9e8cc	-0.122026056
10	0x3dc9b804	0.09849551
11	0x3e419f33	0.18908386
12	0xbe459f89	-0.19299139
13	0xbe6f170c	-0.23348635
14	0xbde199ec	-0.110156864
15	0x3dea4fbe	0.11440991
16	0x3db60364	0.088873655
17	0x3eb23328	0.34804654
18	0x3e0078a3	0.1254602
19	0x3e49ce01	0.1970749
20	0x3e1c5b2d	0.15269156
21	0x3e336088	0.17517292
22	0x3e8786d3	0.2647005
23	0x3eda3bf4	0.42623866
24	0x3da6045e	0.08106302
25	0x3db5834a	0.08862932
26	0xb9fec47e	-0.00048593053
27	0x3e657566	0.22408065
28	0x3e27c7ff	0.16384886
29	0xbe99a7ca	-0.30010825
30	0x3e348e28	0.17632353
31	0x3df494ff	0.11942481
32	0x3e13e62a	0.1444327
33	0x3e24e2f1	0.16102196
34	0x3d90c9d6	0.07069747
35	0xbdcc6e5d	-0.099819876
36	0xbe3c598d	-0.18393536
37	0xbc281dc3	-0.010261002
38	0xbc85943f	-0.01630604
39	0x3d1eb346	0.038745187
40	0xbe336684	-0.17519575
41	0xbddc1769	-0.10746653
42	0xbcb69aa7	-0.02229054
43	0x3e4d6436	0.20057759
44	0x3d1cbafc	0.03826426
45	0xbd697bc4	-0.057002798
46	0x3d09a438	0.033603877
47	0x3cd66c2a	0.026174624
48	0x3e39f7aa	0.18160883
49	0x3e4e583a	0.20150843
50	0x3e5ee8a4	0.21768433
51	0x3e48d117	0.19611011
52	0x3e12f813	0.14352445
53	0x3e1998f7	0.14999758
54	0xbdcaf3c8	-0.09909779
55	0x3da40c9f	0.0801022
56	0x3da7828c	0.08179197
57	0x3e71fbd3	0.2363122
58	0xbdf36c98	-0.11885947
59	0xbeb44ac0	-0.3521328
60	0x3e810979	0.2520254
61	0x3eb45ad3	0.35225543
62	0xbdb3385b	-0.08750983
63	0xbecbd8ae	-0.3981375
64	0xbe7c4436	-0.24635395
65	0x3e516ec1	0.20452406
66	0x3ca818b9	0.020519601
67	0xbe403405	-0.18769844
68	0xbefdc369	-0.4956315
69	0x3d2bd068	0.0419468
70	0x3e837f48	0.25683045
71	0x3cfa9369	0.030587869
72	0xbeb52dd7	-0.35386536
73	0xbe9e3099	-0.30896452
74	0x3e0ab451	0.13545348
75	0x3dc9ca2a	0.09853013
76	0x3e0394a2	0.12849668
77	0xbde3edec	-0.11129364
78	0x3d9c540b	0.076332174
79	0x3e90e14d	0.2829689
80	0xbcacde72	-0.021102164
81	0xbdce1548	-0.10062653
82	0x3ca9d957	0.020733519
83	0x3decbde0	0.11559653
84	0x3dc10025	0.09423856
85	0xbea20668	-0.31645513
86	0xbe520622	-0.20510152
87	0x3e6ad628	0.22933257
88	0x3e7a59e4	0.24448353
89	0x3e210a1d	0.15726514
90	0xbe8e13e6	-0.27749556
91	0x3e598223	0.2124105
92	0x3e5830a1	0.211123
93	0x3e7166e6	0.23574409
94	0xbde03f96	-0.10949628
95	0x3e2a8d10	0.16655374
96	0x3e5cbd63	0.2155662
97	0x3d3a9bd7	0.045558777
98	0x3b0f7365	0.002188885
99	0xbe3d22b5	-0.18470271
100	0x3e1ca524	0.15297371
101	0xbe288eec	-0.1646077
102	0x3cfb6125	0.03068597
103	0xbe305640	-0.17220402
104	0xbe432278	-0.19056118
105	0xbda53760	-0.080672026
106	0x3c11708c	0.008876931
107	0x3e9c514a	0.3053077
108	0x3e03433d	0.12818618
109	0xbe5f577f	-0.21810721
110	0x3d878b51	0.06618369
111	0xbe5f5d83	-0.21813016
112	0x3df3f465	0.11911849
113	0xbc5a4c14	-0.0133238025
114	0xbe045c60	-0.12925863
115	0xbdc2a5a7	-0.09504252
116	0xbe9078d9	-0.282172
117	0xbcf1816f	-0.029480664
118	0x3de13d06	0.109979674
119	0x3e859be8	0.2609551
120	0xbd4f2bad	-0.05057876
121	0x3e2a6695	0.16640694
122	0x3e5334c6	0.206256
123	0xbe02ef1e	-0.12786528
124	0x3e29966d	0.16561289
125	0x3e0a2223	0.13489585
126	0x3eba48f5	0.36383787
127	0x3e8a8fc1	0.270628
128	0x3e49dcd2	0.19713143
129	0x3ea795c3	0.32731447
130	0x3dcd0199	0.1001007
131	0x3e67398a	0.22580543
132	0x3e1205c9	0.1426002
133	0xbce845f5	-0.02835367
134	0x3d69479c	0.056953058
135	0xbe6dbe07	-0.23217021
136	0x3ae06795	0.0017120714
137	0x3dab70da	0.08371134
138	0x3da907ea	0.082534626
139	0x3d632af0	0.05546087
140	0xbe901bbd	-0.28146163
141	0xbe926008	-0.2858889
142	0xbe019f5b	-0.12658446
143	0x3dbf052a	0.09327157
144	0x3e057beb	0.13035552
145	0xbe85cbf0	-0.26132154
146	0xbedb2fca	-0.42809898
147	0xbeb17e3f	-0.3466663
148	0xbee1f601	-0.44133
149	0xbe70aade	-0.2350268
150	0xbe25957f	-0.1617031
151	0xbdde9218	-0.10867709
152	0xbddf14a5	-0.108926095
153	0xbda96b00	-0.08272362
154	0xbdb20990	-0.0869323
155	0x3d661fbc	0.056182608
156	0xbe611eb5	-0.2198437
157	0xbdf5ecd3	-0.12008061
158	0xbe9fe7b0	-0.3123145
159	0x3de85ae1	0.11345459
160	0x3d4ffc47	0.0507777
161	0x3e7bfbed	0.24607821
162	0xbd9c3e23	-0.07629039
163	0x3e78bb88	0.24290287
164	0x3e969848	0.29413056
165	0x3e5a5d2e	0.21324608
166	0x3e52b25c	0.20575851
167	0x3ea51f4c	0.3225044
168	0x3e6ea404	0.23304754
169	0x3e23dd2d	0.1600234
170	0xbe251919	-0.16122855
171	0xbe624e82	-0.22100261
172	0xbe316cf8	-0.17326725
173	0xbe1898b1	-0.14901997
174	0xbea10c9f	-0.31454942
175	0xbe6a9d68	-0.22911608
176	0xbe99f4a6	-0.30069464
177	0xbcf77c4b	-0.030210635
178	0x3e82fb26	0.25582236
179	0x3ce5b2f9	0.028039442
180	0xbea097aa	-0.3136571
181	0xbe7d3e73	-0.24730854
182	0x3e495389	0.19660772
183	0x3cb73f87	0.02236916
184	0xbd855fb4	-0.065123945
185	0xbe983765	-0.29729763
186	0xbe8222ff	-0.25417325
187	0x3e1745df	0.14772747
188	0x3e9603d0	0.29299784
189	0xbddafadd	-0.106923796
190	0xbe903f38	-0.28173232
191	0xbe991b14	-0.2990347
192	0x3ddd64e4	0.10810259
193	0x3e923929	0.28559235
194	0xbcf4755e	-0.029841121
195	0xbe839fcc	-0.25707853
196	0xbd023f14	-0.031798437
197	0xbdfdde06	-0.12395863
198	0x3e95fa69	0.2929261
199	0x3e60c927	0.21951734
200	0x3d94246b	0.07233509
201	0x3da28a04	0.07936481
202	0xbd80db89	-0.06291873
203	0xbed54e27	-0.41661188
204	0xbf1c14b0	-0.60969067
205	0x3dce4ae5	0.10072879
206	0xbe3de16e	-0.18543026
207	0xbee1ebc3	-0.44125184
208	0xbedd1918	-0.43183208
209	0xbcd4587f	-0.025921104
210	0xbe4b0e0d	-0.19829579
211	0xbf028694	-0.509866
212	0xbea7ea87	-0.32796118
213	0xbe3377cc	-0.17526168
214	0x3e837725	0.25676838
215	0xbed6f19c	-0.41981208
216	0xbe90e612	-0.2830053
217	0xbe1924a4	-0.14955384
218	0x3e4d2bcc	0.20036238
219	0x3e7093ba	0.23493853
220	0xbf167dfe	-0.58786
221	0xbe3204ff	-0.17384718
222	0x3e6fdb2f	0.23423456
223	0x3e01ad02	0.12663653
224	0x3e4d4f9a	0.20049897
225	0xbe77d115	-0.24200852
226	0xbe50f5fa	-0.20406333
227	0xbeabc4a2	-0.33548456
228	0xbd855476	-0.0651025
229	0x3d678614	0.05652435
230	0xbe34cfde	-0.1765742
231	0xbe2ddab3	-0.16977958
232	0xbe884082	-0.26611716
233	0x3cd76c64	0.026296802
234	0x3dd062e8	0.10175115
235	0xbe90cd87	-0.28281805
236	0xbc368366	-0.011139726
237	0xbcaf378e	-0.021388795
238	0xbdcdbf59	-0.10046262
239	0x3e5bcace	0.21464083
240	0xbd67c3a3	-0.056583058
241	0xbc0e8f6b	-0.008701186
242	0xbd3baefe	-0.045821182
243	0x3dd76749	0.10517747
244	0x3e916ce3	0.28403386
245	0x3ccc25e8	0.024920419
246	0xbd84961b	-0.06473943
247	0x3d11c7f2	0.035591073
248	0x3e7e4959	0.24832667
249	0x3e8d7320	0.27626896

conv1.bias f4 [10]
0	0x3e65c047	0.22436629
1	0xbe09ae97	-0.13445507
2	0x3dbf2bed	0.0933455
3	0xbe948dc6	-0.29014415
4	0x3d6586c1	0.056036714
5	0x3e1a725c	0.15082687
6	0x3d992f38	0.074797094
7	0xbe9be6bd	-0.30449477
8	0x3def110c	0.11673173
9	0xbd4601ca	-0.04834155

conv2.weight f4 [20, 10, 5, 5]
0	0x3da4b3f6	0.08042137
1	0x3997fc18	0.0002898879
2	0xbdc5f265	-0.09665374
3	0xbd990e1a	-0.07473393
4	0xbdffc6a1	-0.12489057
5	0x3e102058	0.14074838
6	0x3e4ad2ef	0.19807027
7	0x3dd0ebe0	0.102012396
8	0xbc9abcfa	-0.01888894
9	0xbe0a9e96	-0.13537058
10	0x3d39a255	0.045320828
11	0x3db5876f	0.088637225
12	0x3d652d2a	0.055951275
13	0xbdc84bfa	-0.097801164
14	0xbe0ac735	-0.13552554
15	0xbc92c485	-0.017915973
16	0x3bdc6e89	0.006727044
17	0xbd201850	-0.039085686
18	0xbe026933	-0.12735443
19	0xbe629424	-0.22126824
20	0x3de6b0a3	0.112641595
21	0xbe1824c3	-0.14857773
22	0xbe15eafb	-0.14640419
23	0xbe550915	-0.20804246
24	0xbe203c10	-0.15647912
25	0xbdc71697	-0.097211055
26	0xbdc68613	-0.096935414
27	0xbd43a77c	-0.047767147
28	0xbc88a334	-0.016679384
29	0x3bbb0db2	0.0057084197
30	0x3d995e3c	0.07488677
31	0xbd34654a	-0.04404191
32	0x3a656a05	0.0008751455
33	0x3c5a50a4	0.01332489
34	0x3c9ec1b6	0.019379478
35	0x3d9e4c66	0.077294156
36	0x3d836fc9	0.06417806
37	0x3d381c60	0.044948936
38	0x3d96536c	0.0734013
39	0x3cddbd37	0.027067764
40	0x3be3dac0	0.0069535673
41	0x3dc33dd4	0.09533277
42	0x3d42327b	0.047411423
43	0x3d3d3d07	0.04620078
44	0xbce05354	-0.027383484
45	0xbdcfd6a3	-0.101483606
46	0xbd5b0a3a	-0.05347655
47	0xbd41945e	-0.047260635
48	0xbc9b57fc	-0.018962853
49	0x38d4feb0	0.00010156387
50	0x3cb1f303	0.021722322
51	0x3de8e248	0.11371285
52	0x3dc52618	0.096264064
53	0x3e19a1c1	0.1500311
54	0xbdb358df	-0.08757185
55	0xbdf63050	-0.12020934
56	0xbe362a99	-0.17789687
57	0xbc41de4c	-0.011832785
58	0x3c90757e	0.01763415
59	0xbdd5620a	-0.1041909
60	0xbe15fdc7	-0.1464759
61	0xbe1d984e	-0.15390131
62	0x3d415441	0.04719949
63	0xbc8d7fe7	-0.017272903
64	0xbd3ed499	-0.046589468
65	0xbc8e7221	-0.017388405
66	0x3d4bab6b	0.049724024
67	0x3ddcf994	0.10789791
68	0xbd7af21e	-0.061266057
69	0x3b845423	0.00403835
70	0x3da76cde	0.08175062
71	0x3d8a1e80	0.06744099
72	0x3daa24fa	0.08307834
73	0x3d1e03e6	0.038577937
74	0x3d53264b	0.05155019
75	0x3bb9db56	0.005671899
76	0xbda1a378	-0.07892507
77	0xbda1d051	-0.07901061
78	0x3dc7f176	0.09762852
79	0x3d894b8b	0.06703862
80	0xbc1839dc	-0.0092911385
81	0x3cc6bc32	0.02425966
82	0xbd9aa521	-0.07551027
83	0xbd8817e3	-0.06645181
84	0xbcee07fa	-0.029056538
85	0x3b910d73	0.004426652
86	0xbce10f67	-0.027473165
87	0xbc84c1f3	-0.016205763
88	0x3d58f626	0.05296912
89	0x3d27cb56	0.0409654
90	0x3cbed6be	0.023295756
91	0x3d1328a8	0.035927445
92	0x3dba5783	0.09098723
93	0x3bbaea17	0.005704175
94	0x3cc7ccf6	0.024389725
95	0x3d369cdc	0.044583187
96	0x3d269cfe	0.040677063
97	0x3d8af877	0.06785672
98	0x3d206dd3	0.039167237
99	0xbd21c4bb	-0.039494257
100	0xbc3d8331	-0.011566923
101	0xbc9c77d3	-0.019100105
102	0xbdba7d4a	-0.09105928
103	0x3b9665d1	0.004589774
104	0xbbdc29da	-0.0067188563
105	0x3e10f484	0.14155775
106	0x3dbd1930	0.0923332
107	0x3cb1e414	0.021715201
108	0x3ce26b68	0.027639106
109	0xbd9f4d78	-0.07778448
110	0x3dc92719	0.098219104
111	0x3df01f04	0.11724666
112	0x3d9f59d6	0.07780807
113	0x3cee9692	0.029124532
114	0xbd957e4e	-0.07299481
115	0x3c977dc6	0.01849259
116	0x3dcda45c	0.10041115
117	0x3d05c71d	0.032660592
118	0xbd8737f2	-0.066024676
119	0xbd9637c9	-0.07334859
120	0xbcf73fed	-0.03018185
121	0x39cd5bc7	0.00039169026
122	0x3d82ac4c	0.06380519
123	0xbc85d8aa	-0.016338665
124	0xbdffa832	-0.124832526
125	0xbe1ce2cb	-0.1532089
126	0xbe773252	-0.2414029
127	0xbdc1d4bb	-0.09464403
128	0xbdf38ce4	-0.11892107
129	0xbe225772	-0.1585367
130	0x3de109a4	0.10988167
131	0xbcce460d	-0.025179887
132	0xbddc641e	-0.10761283
133	0x3cbf99a9	0.0233887
134	0xbd01b1cf	-0.031663712
135	0x3da7fdbc	0.08202693
136	0x3d95b2ff	0.073095314
137	0x3dcba53a	0.09943624
138	0x3c48c6e7	0.012254453
139	0xbdeb3f8f	-0.11486732
140	0x3e1dcd66	0.15410385
141	0x3d7ab88c	0.061211154
142	0xbcd40038	-0.02587901
143	0x3d38fcd1	0.04516298
144	0xbda315da	-0.07963152
145	0xbd826601	-0.06367112
146	0x3d0c5885	0.034264106
147	0xbd5c1c97	-0.053738203
148	0x3cec55c8	0.028849497
149	0xbcb143f1	-0.021638842
150	0x3df49a91	0.11943544
151	0xbc89dabd	-0.016827935
152	0xbdd9b712	-0.10630621
153	0xbd025c60	-0.031826377
154	0xbda62094	-0.081116825
155	0x3bbbe553	0.0057341247
156	0x3d1ba6a2	0.03800071
157	0x3d950e26	0.07278089
158	0xbcc35c19	-0.023847627
159	0xbc6a2f1c	-0.014293458
160	0x3d8597d1	0.06523097
161	0x3d204f33	0.03913803
162	0x3d347ca1	0.044064168
163	0xbd757eb6	-0.059935294
164	0xbdbe61a8	-0.0929597
165	0xbc710c35	-0.014712383
166	0x3db96d24	0.0905402
167	0x3dacb281	0.084324844
168	0x3bc7d2f5	0.006098146
169	0xbd1241ff	-0.03570747
170	0xbd525f97	-0.051360693
171	0xbcc8560e	-0.024455097
172	0xbceb161f	-0.028697072
173	0xbc26e365	-0.010186051
174	0xbe1381f0	-0.14405036
175	0xbdaa1afb	-0.08305927
176	0xbdd6a780	-0.10481167
177	0xbd2aba78	-0.041681737
178	0x3dd54fc2	0.10415603
179	0x3bcb0c5c	0.0061965417
180	0xbd1182ab	-0.035525005
181	0xbd74d001	-0.05976868
182	0xbd91b252	-0.0711409
183	0xbab021e1	-0.0013437831
184	0x3d91de15	0.07122437
185	0xbe1e3681	-0.15450479
186	0xbdd3ec6d	-0.10347829
187	0xbd8447a6	-0.06458978
188	0x3a78a2a2	0.00094846834
189	0x3d2f87b4	0.042854026
190	0xbdf52494	-0.11969867
191	0xbe189fd1	-0.14904715
192	0x3d0ff51a	0.035145856
193	0x3dc482c6	0.095952556
194	0x3ad9e48d	0.00166239
195	0xbd9ec4a1	-0.07752348
196	0xbd9c11a0	-0.07620549
197	0x3d8d75ff	0.069072716
198	0x3c64d284	0.013966206
199	0x3cadc424	0.021211691
200	0x3d85c5c4	0.065318614
201	0xbd1496b5	-0.036276538
202	0x3d49b5d8	0.049245685
203	0x3d0523a8	0.032504708
204	0x3e0ef8e4	0.13962132
205	0xbdfc9606	-0.12333302
206	0xbdfadeb8	-0.122495115
207	0xbda754d0	-0.081704736
208	0xbdd00c05	-0.101585425
209	0x3d75c7e0	0.06000507
210	0xbe1bd590	-0.15218186
211	0xbe4d9334	-0.20075685
212	0xbe2d2043	-0.16906838
213	0xbde82d66	-0.11336784
214	0x3c9aa0aa	0.018875439
215	0x3d96845c	0.07349464
216	0x3cada65f	0.021197496
217	0xbc8a144e	-0.016855385
218	0xbc1bed3a	-0.009517008
219	0x3df5a565	0.11994437
220	0x3e898876	0.26861924
221	0x3e30e6d0	0.17275548
222	0x3d43dc66	0.04781761
223	0x3e11c09d	0.14233632
224	0x3c8f3dad	0.017485464
225	0xba999213	-0.0011716507
226	0xbe1476e3	-0.14498477
227	0x3c685cfe	0.014182327
228	0x3d771ae4	0.06032838
229	0x3d2c8b9d	0.042125333
230	0xbddb743a	-0.10715528
231	0xbe0a8079	-0.13525571
232	0x3ca28b62	0.019841854
233	0x3d942450	0.072334886
234	0x3cce79c0	0.02520454
235	0xbd9ebb8d	-0.07750616
236	0xbd6a6691	-0.05722672
237	0xbd048eb7	-0.032362666
238	0x3d883662	0.06650998
239	0x3d786d94	0.060651377
240	0x3ca0a604	0.019610412
241	0x3d53b945	0.05169036
242	0x3d4dc7ae	0.050239258
243	0x3dac8e1f	0.08425545
244	0xbdb19f8c	-0.08673009
245	0x3d2ff798	0.042960733
246	0x3bd7bc6d	0.0065837414
247	0x3dbedbfa	0.09319301
248	0x3d943857	0.072373085
249	0x3a8eaaee	0.0010884681
250	0x3d8b2833	0.06794777
251	0xbb0246e6	-0.0019878685
252	0x3cef9ed6	0.029250544
253	0xbd518608	-0.051153213
254	0xbc260fb6	-0.010135582
255	0x3e2d7b12	0.16941479

conv2.bias f4 [20]
0	0x3d2b1ea9	0.041777287
1	0xbcd8cc00	-0.026464462
2	0xbc57a3f6	-0.01316165
3	0xbd15bb39	-0.036555503
4	0x3d21be98	0.039488405
5	0x3b89741e	0.0041947505
6	0xbcf0cc96	-0.02939443
7	0x3d8c6189	0.06854541
8	0x3cb2d78e	0.0218313
9	0x3de2f248	0.11081368
10	0xbc9ac127	-0.01889093
11	0x3db5e98a	0.08882435
12	0xbd91e72f	-0.07124173
13	0x3d09e4b8	0.03366539
14	0x3d228e32	0.03968639
15	0x3d23ccef	0.03999036
16	0xbd554b7d	-0.052073944
17	0xbc930149	-0.017944949
18	0xbc12a8a0	-0.008951336
19	0x3d6949ae	0.056955032

fc1.weight f4 [50, 320]
0	0x3d95d7af	0.07316529
1	0x3d25d947	0.040490415
2	0xbc2f3212	-0.01069309
3	0x3d73bb42	0.059504755
4	0x3e2d401d	0.16918989
5	0x3cf7598d	0.030194068
6	0x3ceb2055	0.02870194
7	0x3d21005e	0.03930699
8	0x3c640b9a	0.013918782
9	0xbdeb3efa	-0.11486621
10	0xbdffa1a0	-0.124819994
11	0xbd97e3b4	-0.07416478
12	0xbcbe22c7	-0.023209943
13	0xbd11e92a	-0.035622753
14	0xbc3f313c	-0.011669453
15	0xbd3b8543	-0.045781385
16	0x3cf06e6d	0.02934953
17	0xbd1f9e62	-0.038969405
18	0x3d09f276	0.033678494
19	0x3d5b3037	0.053512778
20	0xbd096b88	-0.033549815
21	0x3a8f7d0c	0.0010947301
22	0x3d570cf4	0.052502587
23	0xbd531844	-0.051536813
24	0x3d09cf3c	0.0336449
25	0xbce2c760	-0.02768296
26	0x3d6c66b2	0.057715125
27	0x3d929258	0.07156819
28	0x3c267f73	0.010162222
29	0xbd2cd8fb	-0.042199116
30	0xbddb62e0	-0.10712218
31	0x3cb3bf1a	0.02194171
32	0x3d86fd46	0.06591277
33	0x3d02f1f5	0.03196903
34	0xbdc31f1a	-0.095274165
35	0xbd42757a	-0.047475316
36	0xbb892c4c	-0.004186189
37	0xbcd04333	-0.025422668
38	0xbbb182f0	-0.0054172203
39	0xbd7e2ffc	-0.06205748
40	0x3c22c901	0.009935618
41	0x3dc3b3f7	0.0955581
42	0xbbadc2b4	-0.0053027514
43	0xbd17db46	-0.03707435
44	0x3e22227b	0.15833466
45	0x3d3befed	0.045883108
46	0x3cd67088	0.026176706
47	0x399abc15	0.000295133
48	0xbd2139ca	-0.039361753
49	0x3c023bbc	0.007948812
50	0xbd234322	-0.039858945
51	0xbcd737c8	-0.026271716
52	0x3cfd2aa6	0.030904125
53	0xbcba5c65	-0.022749135
54	0xbc8fa5e9	-0.017535167
55	0xbceb8187	-0.028748287
56	0xbc0cd274	-0.008595098
57	0xbcc68632	-0.024233911
58	0x3d8e6c69	0.06954271
59	0x3d99d166	0.07510643
60	0xbd22162b	-0.039571922
61	0x3d5b3637	0.0535185
62	0x3da8ea24	0.08247784
63	0x3d2f5394	0.042804316
64	0xbd5b14f7	-0.05348679
65	0xbd871b9f	-0.06597065
66	0xbd8cb677	-0.0687074
67	0x3cd173f7	0.025567992
68	0xbb7fac71	-0.0039012695
69	0xbdd11a31	-0.10210074
70	0x3dad6f58	0.08468503
71	0x3dbce288	0.09222895
72	0x3dabcde7	0.08388882
73	0xbd05a243	-0.032625448
74	0xbd600776	-0.054694615
75	0xbd446199	-0.04794464
76	0x3d753fbb	0.05987523
77	0xbd602ac1	-0.054728273
78	0xbe2ce715	-0.16885026
79	0xbe34d61b	-0.176598
80	0x3d82d9f1	0.06389225
81	0x3ccac60f	0.024752645
82	0x3d4e1c47	0.050319936
83	0x3d4f7db3	0.050656985
84	0x3d3e3852	0.04644043
85	0xbe28d6c7	-0.16488181
86	0xbde020d5	-0.10943762
87	0xbdbc314c	-0.0918909
88	0xbdd58c5b	-0.10427161
89	0x3c8ee831	0.017444702
90	0x3c115a52	0.008871632
91	0xbded6ce5	-0.115930356
92	0x3caf2b26	0.02138288
93	0x3d67f20f	0.05662733
94	0x3d34e410	0.04416281
95	0xbe18f7c9	-0.14938273
96	0x3d4af243	0.049547445
97	0x3df7ccb6	0.120995924
98	0x3dbbfd54	0.09179178
99	0x3d10e776	0.03537699
100	0xbd8cae1f	-0.068691485
101	0x3c8fa142	0.017532948
102	0x3d2ffb96	0.04296454
103	0xbe3fe79b	-0.18740694
104	0xbd9f811b	-0.07788297
105	0xbc13501e	-0.008991269
106	0x3d802692	0.06257357
107	0xbda46492	-0.08026995
108	0x3da5d125	0.08096532
109	0xbbe8161b	-0.0070827133
110	0xbd0e41d3	-0.034730744
111	0xbd3f5883	-0.04671527
112	0x3cca4cee	0.024694886
113	0xbcb3df73	-0.021957135
114	0xbb84a484	-0.004047932
115	0x3d5ea4e2	0.054356463
116	0xba3c748b	-0.0007188997
117	0xbd0e2b8e	-0.034709506
118	0x3d3c169c	0.04592
119	0x3d407af9	0.046992276
120	0xbbefc36c	-0.0073169973
121	0x3c3a94cc	0.011388015
122	0x3dbd7119	0.09250087
123	0x3d8cad51	0.06868995
124	0x3cc7c197	0.024384303
125	0xbccef299	-0.025262164
126	0x3c43df63	0.011955115
127	0xbce37acf	-0.02776852
128	0x3b4ee4a0	0.0031569377
129	0xbd01858b	-0.031621497
130	0x3c311142	0.010807337
131	0xbbbbca92	-0.0057309354
132	0xbc692fc4	-0.01423258
133	0xbc5352b7	-0.012898139
134	0xbdae32da	-0.08505793
135	0xbb73c0e7	-0.0037193836
136	0x3af61769	0.0018775287
137	0x3d4f4930	0.050606906
138	0xbdd813b2	-0.105506316
139	0x3d152757	0.03641447
140	0x3d728d63	0.059216868
141	0x3db0b6ca	0.08628614
142	0x3c49ef24	0.012325082
143	0x3d05508b	0.032547515
144	0x3d31245b	0.043247562
145	0xbd253fec	-0.040344164
146	0xbd4f8085	-0.050659675
147	0x3dd6dc60	0.10491252
148	0x3d6a0706	0.057135604
149	0xbe1af639	-0.15132989
150	0x3ca0e271	0.019639226
151	0x3db034e6	0.086038396
152	0xbd11d497	-0.035603132
153	0xbe1d5948	-0.1536609
154	0xbe1c3e2b	-0.1525809
155	0x3cb31feb	0.021865806
156	0xbd453e23	-0.04815496
157	0xbd4ae3a3	-0.049533498
158	0xbe3bd8cc	-0.1834442
159	0xbe0ca882	-0.13736156
160	0xbd518d29	-0.05116001
161	0xbd07cc2b	-0.033153694
162	0xbd368559	-0.044560764
163	0x3cea2128	0.028580263
164	0x3d05ada5	0.032636303
165	0x3d3959cf	0.045251664
166	0xbd899983	-0.06718733
167	0xbc95b571	-0.018274995
168	0x3d130a3f	0.035898443
169	0x3d645ec4	0.055754438
170	0xbe34211d	-0.17590757
171	0xbbf0c980	-0.0073482394
172	0x3d0c6d3d	0.034283865
173	0x3d9dd6cc	0.07706985
174	0xbda61d33	-0.08111038
175	0xbd243ba7	-0.04009595
176	0x3c03dcc8	0.008048244
177	0x3d160f8c	0.03663592
178	0x3bd0516f	0.006357364
179	0x3d537bb1	0.051631633
180	0xbe467d61	-0.19383766
181	0xbdcd21d3	-0.10016217
182	0xbe1d4cc8	-0.15361321
183	0x3d7465e1	0.05966747
184	0xbde99593	-0.11405482
185	0x3d099563	0.033589732
186	0x3ca72c9b	0.020407012
187	0xbe0c26b9	-0.13686647
188	0xbd6f1a8a	-0.05837492
189	0x3de3c14a	0.11120851
190	0x3ac9e7a4	0.0015404117
191	0xbe7b341b	-0.24531595
192	0x3d17253f	0.036900755
193	0xbdb579b7	-0.08861106
194	0xbccbd978	-0.02488397
195	0x3bfb0aa8	0.0076611824
196	0x3c36de1a	0.011161352
197	0x3c944f1f	0.018104134
198	0xbd6ccae1	-0.057810668
199	0x3d828755	0.06373469
200	0x3dd7df84	0.10540679
201	0xbcddc57c	-0.027071707
202	0x3b0055ea	0.0019582459
203	0x3d0bfd88	0.034177333
204	0xbc3065c1	-0.0107664475
205	0x3d622bd5	0.055217583
206	0x3bc25ea4	0.005931692
207	0xbc2afe44	-0.010436598
208	0x3cf1e2aa	0.029527027
209	0xbc9d014e	-0.019165661
210	0x3d09d74e	0.033652596
211	0xbce368e3	-0.027759975
212	0xbdc7f0b5	-0.09762708
213	0xbd07cb32	-0.033152767
214	0xbd0fba90	-0.03509003
215	0xbd46e9d5	-0.048562843
216	0x3d188172	0.037232824
217	0xbbdc338e	-0.006720013
218	0xbde05fb7	-0.10955756
219	0x3d388fe6	0.045059107
220	0x3d13b25b	0.036058765
221	0xbd072a90	-0.032999575
222	0x3d1c93de	0.038226955
223	0x3cd64076	0.026153784
224	0x3b1da822	0.0024056514
225	0x3ca9147d	0.020639652
226	0x3b89098f	0.0041820477
227	0x3d0d0f8c	0.034438655
228	0x3cd441b6	0.02591024
229	0x3d643391	0.05571324
230	0x3d526839	0.051368926
231	0xbd1e9a9d	-0.03872167
232	0x3c5e0930	0.013551995
233	0x3d6400e6	0.05566492
234	0xbd272118	-0.040803045
235	0xbc573c92	-0.013137
236	0x3b6b3fda	0.0035896213
237	0x3d4822fa	0.04886148
238	0x3ce96428	0.028490141
239	0x3cb6b31f	0.022302208
240	0xbcec306c	-0.028831683
241	0xbc9a4d0c	-0.018835567
242	0x3af55737	0.0018718009
243	0xbd95ea2b	-0.073200546
244	0x3d877db1	0.066157706
245	0xbd9999df	-0.07500052
246	0x3db80bcd	0.08986626
247	0xbb25aae8	-0.002527887
248	0xbd1965d9	-0.037450645
249	0x3d8d18b3	0.068894766
250	0x3cfce6ea	0.030871827
251	0x3d0b013a	0.033936717
252	0xbc3d9ae3	-0.011572572
253	0x3e104d7c	0.14092058
254	0x3b0ec00f	0.0021781956
255	0xbda2a451	-0.07941497

fc1.bias f4 [50]
0	0x3db01c63	0.08599164
1	0x3d055c75	0.032558877
2	0x3ddf65b1	0.10908068
3	0x3e203b10	0.1564753
4	0x3d48f8f7	0.049065556
5	0x3e1e3f49	0.15453829
6	0x3d7d1b4e	0.061793618
7	0x3e2ec127	0.1706587
8	0x3d19b6de	0.03752791
9	0xbd2423fc	-0.04007338
10	0x3d683828	0.05669418
11	0x3cc8bd2f	0.024504272
12	0x3e393daa	0.18089929
13	0x3e2a8ec9	0.1665603
14	0x3e070f4a	0.13189426
15	0x3e1c7fbb	0.152831
16	0x3cfbe92f	0.030750839
17	0x3e1b0a91	0.1514075
18	0x3d08f589	0.033437286
19	0x3e051100	0.12994766
20	0x3deff8c8	0.11717373
21	0x3dc6c66e	0.09705816
22	0x3ccb3209	0.024804132
23	0x3c810c56	0.015752953
24	0x3de574f8	0.11203951
25	0xbb8a836a	-0.0042270916
26	0xbcb84904	-0.022495754
27	0x3ce7d22c	0.02829846
28	0x3e0ca778	0.1373576
29	0x3d98269d	0.0742924
30	0x3dfe4ae7	0.1241663
31	0x3e0734ad	0.13203688
32	0x3db91de4	0.09038904
33	0x3deb5824	0.11491421
34	0xbb91944a	-0.0044427263
35	0x3d9b710d	0.07589922
36	0x3dff3b1f	0.12462448
37	0x3dc156eb	0.094404064
38	0xbb60e8da	-0.0034318478
39	0x3d8e9dc5	0.06963686
40	0x3d60db49	0.054896627
41	0x3ddd98eb	0.108201824
42	0x3cbca00c	0.023025535
43	0xbc600c4a	-0.013674805
44	0x3e34c5b7	0.17653547
45	0x3be5637b	0.0070003844
46	0x3e387ed9	0.18017139
47	0x3d247a8a	0.040155925
48	0xbcccaa32	-0.0249835
49	0x3d40e8a8	0.04709688

fc2.weight f4 [10, 50]
0	0x3e572851	0.21011473
1	0xbe412c7b	-0.18864624
2	0x3dcbd72d	0.09953151
3	0xbe11171f	-0.14168976
4	0xbe5a377d	-0.2131023
5	0xbe7d0302	-0.24708179
6	0x3dca125b	0.09866782
7	0xbe38a2f2	-0.18030909
8	0xbdfad4ab	-0.122475944
9	0xbb86e9ae	-0.0041172123
10	0xbe68fb42	-0.22752097
11	0x3d885f41	0.06658793
12	0xbe1d7907	-0.153782
13	0xbe16ed47	-0.14738952
14	0xbdad1fa4	-0.084533006
15	0xbe463094	-0.19354469
16	0xbe72953b	-0.2368974
17	0xbe557cfe	-0.20848462
18	0x3e1c472b	0.15261523
19	0xbe027b21	-0.12742282
20	0x3e28ebb7	0.16496168
21	0x3c76c558	0.015061699
22	0xbe19e2fb	-0.15027992
23	0x3dcb7c25	0.09935788
24	0xbe7d6100	-0.24744034
25	0x3e1a5bf6	0.15074143
26	0xbdaa82d2	-0.08325733
27	0xbe310477	-0.1728686
28	0xbe0620ce	-0.13098451
29	0x3e087f8f	0.1332991
30	0xbe487f37	-0.19579779
31	0xbd802786	-0.062575385
32	0x3dfd7e09	0.12377555
33	0x3d144eb1	0.03620786
34	0xbd92fdb1	-0.07177294
35	0x3dcec0c2	0.100953594
36	0x3dfb865b	0.12281486
37	0x3da096a3	0.07841232
38	0x3e0fd4f6	0.14046082
39	0x3e39afb0	0.18133426
40	0x3da4fbea	0.08055861
41	0x3da4c5be	0.08045529
42	0xbdcb0f29	-0.09915001
43	0x3e3c91ee	0.18415043
44	0xbe55fcee	-0.20897266
45	0xbb048899	-0.002022302
46	0x3e1c54d5	0.15266736
47	0xbd558024	-0.052124158
48	0xbd4da477	-0.050205674
49	0x3db0d8ce	0.08635102
50	0xbdccd9e2	-0.10002495
51	0xbd88414b	-0.06653079
52	0xbe895ff1	-0.2683101
53	0x3e3b20d2	0.18274239
54	0x3e1021fc	0.14075464
55	0x3dc4e241	0.09613467
56	0x3e0c43c6	0.13697729
57	0x3e372fb9	0.17889298
58	0xbe7adf42	-0.24499229
59	0xbe33ffce	-0.1757805
60	0xbdc44b52	-0.09584679
61	0xbda0521a	-0.0782816
62	0x3d9abb4d	0.07555256
63	0x3db72546	0.08942656
64	0xbe6d07d9	-0.23147525
65	0x3e1c8f96	0.15289149
66	0xbe049b1c	-0.12949795
67	0x3e0f9fd3	0.14025812
68	0x3deb6ed2	0.11495747
69	0x3df66806	0.1203156
70	0xbe0278a7	-0.12741338
71	0xbe5f9120	-0.21832705
72	0xbe880a42	-0.26570326
73	0x3e2a20f1	0.16614129
74	0x3e043361	0.12910224
75	0xbe8178db	-0.25287518
76	0xbe686f3c	-0.22698683
77	0xbe1263c3	-0.14295869
78	0x3dd0a032	0.10186805
79	0xbcd9f4f8	-0.026606068
80	0x3d94f041	0.07272387
81	0x3dec3278	0.11533064
82	0x3df79919	0.12089748
83	0x3d965f6c	0.07342419
84	0xbe3a5725	-0.18197306
85	0xbe312e1d	-0.17302747
86	0xbe887114	-0.26648772
87	0x3d8197cb	0.0632778
88	0xbeb820fb	-0.35962662
89	0xbe5cc051	-0.21557738
90	0xbe383492	-0.17988804
91	0xbd872369	-0.06598551
92	0xbe2b725f	-0.16742848
93	0xbd5c2611	-0.05374724
94	0x3dc4f937	0.096178465
95	0xbe71d1d7	-0.23615204
96	0x3e1df432	0.15425184
97	0xbe88015a	-0.2656353
98	0xbda1f0a6	-0.07907228
99	0xbe814e0a	-0.25254852
100	0xbda0b7ec	-0.0784758
101	0xbdd3b989	-0.103381224
102	0xbe61b8fd	-0.22043224
103	0xbbd28f63	-0.0064257844
104	0xbe1dc54e	-0.15407297
105	0xbec84612	-0.3911596
106	0x3e11ad46	0.14226255
107	0xbdf9be59	-0.12194509
108	0xbe501646	-0.20320997
109	0x3ded06c9	0.1157356
110	0xbd1ff56e	-0.03905242
111	0x3d8d2386	0.06891541
112	0xbe62dd54	-0.22154742
113	0xbde868e1	-0.11348129
114	0xbe5858a3	-0.21127562
115	0x3dee6bda	0.11641665
116	0xbdf98a4a	-0.1218458
117	0xbe83bce8	-0.25730062
118	0x3e15287e	0.14566228
119	0x3e05fb16	0.13084063
120	0xbdbd965b	-0.09257194
121	0x3d7772fa	0.060412385
122	0x3973a549	0.0002323586
123	0x3c31af6f	0.010845049
124	0x3e1377c6	0.14401159
125	0x3e041e1b	0.1290211
126	0x3e04d589	0.12972082
127	0xbdedbb7e	-0.11608027
128	0x3dfa2be9	0.122154064
129	0x3dd5c45e	0.10437845
130	0x3dcb9ff2	0.099426165
131	0x3df2a705	0.11848263
132	0x3df92246	0.1216474
133	0x3b6545ec	0.0034984304
134	0xbe5b2702	-0.21401599
135	0x3db7734a	0.089575365
136	0xbe3534fc	-0.17695993
137	0x3dd504cd	0.10401306
138	0xbdab4179	-0.08362097
139	0xbdca9f76	-0.09893696
140	0x3b5c39ee	0.0033603865
141	0x3dc9003a	0.09814496
142	0x3e020c74	0.12700063
143	0x3e21b060	0.15789938
144	0x3d42be0f	0.047544535
145	0x3dd43230	0.10361135
146	0xbe4bcfd4	-0.19903499
147	0xbdcf4f83	-0.101225875
148	0xbd8101ce	-0.06299172
149	0xbceb73c7	-0.02874173
150	0xbdf02b64	-0.11727026
151	0xbde6ad9a	-0.112635806
152	0xbe5352d6	-0.20637068
153	0xbe931666	-0.28728026
154	0xbdf2cf8d	-0.118559934
155	0xbe0e4260	-0.13892508
156	0xbda7237a	-0.081610635
157	0xbe6bf138	-0.23041236
158	0x3db708e7	0.08937245
159	0x3e0bdfa9	0.13659538
160	0x3dd85e3e	0.1056485
161	0x3df78eac	0.120877594
162	0x3dcd80e3	0.10034349
163	0xbe56663a	-0.20937434
164	0xbddb5048	-0.10708672
165	0x3e05f0fd	0.13080211
166	0xbc23ff3a	-0.010009581
167	0x3e0a1525	0.13484628
168	0xbcefbd54	-0.029265083
169	0x3d9da0de	0.076966986
170	0xbe1670cf	-0.1469147
171	0x3e0769ac	0.13223904
172	0xbe406f73	-0.18792515
173	0xbe4a2dd7	-0.19744049
174	0xbd938f64	-0.07205084
175	0xbe0872bf	-0.13325022
176	0xbe19273a	-0.1495637
177	0x3e172eec	0.14763993
178	0x3e023c76	0.12718377
179	0x3e0da9bc	0.1383428
180	0x3dcba1c5	0.099429645
181	0x3cafa785	0.021442184
182	0xbe4d019c	-0.20020145
183	0x3dd332c3	0.103124164
184	0x3d536d1d	0.05161773
185	0xbd864c2c	-0.065574974
186	0x3d1d8f69	0.038466845
187	0x3e185ad6	0.14878401
188	0xbe1c3957	-0.15256248
189	0xbb007f8b	-0.0019607272
190	0xbd843c2e	-0.06456791
191	0x3dc0ce0d	0.09414301
192	0x3d3b5973	0.045739602
193	0xbd944cde	-0.07241224
194	0x3dd0c614	0.101940304
195	0xbdafbc8c	-0.08580884
196	0xbe37973c	-0.17928785
197	0xbe42cf17	-0.19024311
198	0xbde7f0a3	-0.11325195
199	0x3db690a2	0.08914305
200	0xbc57dbb0	-0.013174936
201	0x3db94609	0.09046561
202	0xbe2e05c0	-0.16994381
203	0x3e27e773	0.16396885
204	0x3de1f745	0.11033491
205	0x3c4ef1a7	0.012630857
206	0x3e05507b	0.13018982
207	0x3e2848dd	0.16434045
208	0x3d2819ed	0.04104035
209	0x3e0e3967	0.13889085
210	0x3de03e2a	0.10949357
211	0xbe1bac64	-0.1520248
212	0x3d58422c	0.05279748
213	0x3d374a28	0.044748455
214	0x3db08546	0.0861917
215	0x3ddc3880	0.10752964
216	0x3e0b6393	0.13612203
217	0x3ae4e844	0.001746424
218	0x3d59ec7d	0.05320405
219	0xbe259c35	-0.1617287
220	0xbdca0e0e	-0.09865962
221	0xbddc0678	-0.10743421
222	0x3dfaa7ca	0.122390345
223	0x3e2595ce	0.16170427
224	0xbd7da72d	-0.06192701
225	0x3cea32fd	0.028588766
226	0x3e0b7ff7	0.13623033
227	0x3e076ec8	0.13225853
228	0xbd5d044d	-0.05395918
229	0xbe3e9847	-0.18612777
230	0xbde85b78	-0.11345571
231	0xbd2584fd	-0.04041003
232	0x3d5df362	0.054187186
233	0xbe466ab0	-0.19376636
234	0x3da70233	0.08154716
235	0xbe1a8aaa	-0.15091959
236	0x3dbd7085	0.09249977
237	0xbe1d5c2d	-0.15367194
238	0x3e07593c	0.13217634
239	0x3d894a18	0.067035854
240	0xbe1472da	-0.14496937
241	0xbe53e3a9	-0.20692314
242	0xbe6a69ad	-0.22891875
243	0x3c37c11a	0.011215473
244	0xbe15350f	-0.14571021
245	0x3dbf1d77	0.09331792
246	0xbddd57b9	-0.108077474
247	0x3e1da0dd	0.15393396
248	0x3e626802	0.22109988
249	0xbe927ae1	-0.28609374
250	0xbd2dcd06	-0.042431854
251	0x3dc9955d	0.09842942
252	0x3e073a34	0.13205796
253	0xbdf4813c	-0.11938712
254	0x3e0994f8	0.13435733
255	0x3d55685d	0.05210148

fc2.bias f4 [10]
0	0xbdf530e8	-0.11972219
1	0x3ea3a890	0.3196454
2	0xbd027856	-0.031853043
3	0x3bb374ef	0.005476586
4	0xbe7aa00a	-0.24475113
5	0x3da6eb2e	0.08150326
6	0xbd6a908b	-0.057266753
7	0x3d2aef1d	0.041731942
8	0x3e4fdc6f	0.20298932
9	0xbec4d26d	-0.38441792

exp_avg f4 [10, 1, 5, 5]
0	0xba0bffbe	-0.0005340538
1	0x3a9a13e8	0.00117552
2	0x3b17e0b0	0.0023174696
3	0x3b276c30	0.0025546663
4	0x3b597f01	0.0033187272
5	0x38b7a3a7	8.7566026e-05
6	0x3b19504a	0.0023393803
7	0x3b513c54	0.0031926828
8	0x3b7b1efe	0.0038318033
9	0x3bb60f23	0.0055560037
10	0xb8a1c38c	-7.713502e-05
11	0xbaf88361	-0.0018960052
12	0x397032fd	0.00022907178
13	0x3b0e3835	0.0021700982
14	0x3b7e7599	0.0038827418
15	0xbb7c6e9c	-0.0038518077
16	0xbb8e8050	-0.004348792
17	0xbb9a236b	-0.004703929
18	0xbb237583	-0.0024941869
19	0xbb039654	-0.0020078616
20	0xbbbc934a	-0.005754863
21	0xbbbb8962	-0.0057231644
22	0xbbda0a20	-0.006654039
23	0xbbe40a69	-0.006959249
24	0xbb6b0576	-0.003586141
25	0xbb5a2e6e	-0.0033291834
26	0xba8ef9c3	-0.0010908175
27	0x3ad639f1	0.0016344172
28	0x3a90c025	0.0011043592
29	0xb9ed6367	-0.00045278223
30	0xbb7f354c	-0.003894168
31	0xbaebbe6c	-0.0017985827
32	0xb93c1d98	-0.00017940102
33	0x3a725f31	0.0009245752
34	0x3b91e9c5	0.0044529163
35	0xbb22f66d	-0.002486612
36	0xbaad9b43	-0.0013245124
37	0xbafcf3c5	-0.0019298723
38	0x3b3c32ae	0.002871673
39	0x3bf94c3a	0.007607964
40	0xb9865363	-0.000256206
41	0x3a93e6b4	0.0011283965
42	0x3acb8d2a	0.0015529741
43	0x3bd17438	0.006392028
44	0x3c1e30e2	0.009655209
45	0x3b16b9cb	0.0022998925
46	0x3b378d12	0.0028007668
47	0x3b5067e2	0.00318002
48	0x3bf4475d	0.007454796
49	0x3c254a7f	0.010088562
50	0x3c214b40	0.009844601
51	0x3c68b8c0	0.014204204
52	0x3c2fa786	0.010721093
53	0x3c222891	0.009897367
54	0x3c30bb4a	0.010786841
55	0x3c216533	0.009850788
56	0x3c5d049b	0.013489868
57	0x3c299a7d	0.010351774
58	0x3bed7308	0.007246379
59	0x3c0f0022	0.008728059
60	0x3c1487a1	0.00906554
61	0x3c2c61b6	0.010521343
62	0x3b9e68f3	0.0048342883
63	0x3b9377de	0.0045003733
64	0x3bdbc37e	0.006706654
65	0x3c0ccf98	0.008594416
66	0x3bc452a5	0.0059912973
67	0x3ad88e44	0.0016521891
68	0x3b07d688	0.0020727236
69	0x3bbf8256	0.0058443947
70	0x3c235c26	0.0099707
71	0x3be951ce	0.0071203476
72	0x3b81b70c	0.0039585885
73	0x3ba43f87	0.005012456
74	0x3baccc3a	0.005273369
75	0x3b49a909	0.0030770919
76	0x3b862301	0.0040935283
77	0x3a19b835	0.0005863936
78	0x39ee3010	0.00045430707
79	0x3b821552	0.0039698267
80	0x3b99dff6	0.0046958877
81	0x3bb15c23	0.005412595
82	0x3b42d650	0.002972979
83	0x3b14fb40	0.0022732764
84	0x3b8b1a3c	0.0042450707
85	0x3baf591d	0.0053511993
86	0x3b7e11d0	0.0038767941
87	0x3a12d3f7	0.0005601043
88	0x3b178c8e	0.0023124549
89	0x3b8d658e	0.004315085
90	0x3bf5c480	0.0075002313
91	0x3b9b052e	0.004730842
92	0x3b24189d	0.0025039085
93	0x3ac4df8c	0.0015020235
94	0x3b53eb1e	0.0032336186
95	0x3bc37e90	0.005966015
96	0x3ba7e26f	0.0051234285
97	0x3b90ef83	0.0044230833
98	0x3bb5f712	0.0055531347
99	0x3b594b04	0.0033156285
100	0xbbf158e5	-0.0073653334
101	0xbb74bf15	-0.003734534
102	0x393c397e	0.00017950495
103	0x3b62f4c9	0.0034630767
104	0x3b8620ac	0.0040932503
105	0xbbc9b8a4	-0.006156044
106	0xbb6dfe11	-0.0036314765
107	0xbb22c13e	-0.002483442
108	0xb827d18d	-4.0011062e-05
109	0x3a9e5405	0.0012079483
110	0xbb3e897a	-0.0029073642
111	0xbb50aa6b	-0.0031839858
112	0xbb93b6cc	-0.004507875
113	0xbb099567	-0.0020993592
114	0x3a2be8e8	0.0006557838
115	0xbaee6d6e	-0.0018190572
116	0xbb51c63f	-0.0032009033
117	0xbb52ce02	-0.0032166247
118	0xb8ea407e	-0.00011170002
119	0x3b2286a0	0.002479948
120	0xbb6b92e1	-0.00359457
121	0xbb728598	-0.0037005898
122	0xbb1c008b	-0.0023804035
123	0xb9d12b66	-0.0003989592
124	0x3b470526	0.003036806
125	0xbc135142	-0.008991541
126	0xbc3089aa	-0.010775009
127	0xbc13880e	-0.009004606
128	0xbbdda815	-0.0067644217
129	0xbb7ccb07	-0.0038573162
130	0xbc2d9f1a	-0.010597015
131	0xbc39d1e6	-0.011341548
132	0xbc291ca5	-0.010321771
133	0xbc032e00	-0.008006573
134	0xbbbd0760	-0.0057687014
135	0xbc410e27	-0.011783159
136	0xbc0614ac	-0.0081836395
137	0xbc01775d	-0.007901994
138	0xbbbb9c83	-0.0057254448
139	0xbb4ece51	-0.003155608
140	0xbbfd9e9e	-0.007739856
141	0xba5b0612	-0.00083550916
142	0xbb375172	-0.002797213
143	0x3a83b38b	0.0010048015
144	0x3b937271	0.0044997265
145	0xbb92862d	-0.0044715614
146	0x3a301ff1	0.0006718627
147	0xbab4a75a	-0.0013782785
148	0x3af78b95	0.0018886203
149	0x3c16e718	0.0092103705
150	0xbbc10af8	-0.0058912
151	0xbb5d963c	-0.003381147
152	0xbaa33dd2	-0.0012454337
153	0x396ed38a	0.00022776253
154	0x3976cb33	0.00023536086
155	0xbbd3ce5b	-0.0064638085
156	0xbb05c9f0	-0.0020414554
157	0x3ab74914	0.0013983571
158	0x3b4500fd	0.0030060404
159	0x382c765a	4.111822e-05
160	0xbbf4aa2c	-0.007466575
161	0xbb20b23e	-0.0024520303
162	0x3ab9c00f	0.0014171618
163	0x3b1503a3	0.0022737763
164	0xba791c29	-0.00095027924
165	0xbc0e9873	-0.008703339
166	0xbba1c89a	-0.0049372436
167	0xbb5e527d	-0.0033923679
168	0xbb088831	-0.002083313
169	0xbaf040d1	-0.0018329864
170	0xbbd1688e	-0.0063906377
171	0xbb903e73	-0.004401976
172	0xbb723c5d	-0.003696225
173	0xbb5522f3	-0.0032522052
174	0xbada3db7	-0.0016650473
175	0x3a5ab4cc	0.0008342981
176	0xb8c510af	-9.3967996e-05
177	0xb91aff91	-0.0001478179
178	0x3a874f66	0.0010323345
179	0x3b38b5cf	0.0028184538
180	0x3a7cc667	0.00096426014
181	0xba85573c	-0.0010173093
182	0xba866a99	-0.0010255157
183	0xba3fe080	-0.0007319525
184	0x3ab7ec06	0.0014032132
185	0x3a598a34	0.0008298487
186	0xba05ba1f	-0.00051012816
187	0x3a2a794b	0.00065030594
188	0x3a6c8171	0.0009021974
189	0xbada2e55	-0.0016645888
190	0x3aec41dd	0.0018025
191	0x3a695b03	0.00089018064
192	0x3afd0154	0.0019302764
193	0x38fa9f21	0.00011950569
194	0xbb0af7d1	-0.002120484
195	0x3b321262	0.0027171602
196	0x3afa3a47	0.0019090854
197	0x3b16cbc9	0.002300965
198	0xb929a2f8	-0.00016177807
199	0xbaed17f1	-0.00180888
200	0xbb1669d9	-0.0022951274
201	0xbb25a842	-0.0025277291
202	0xbb0a8963	-0.0021139018
203	0xbb2ed5f9	-0.002667783
204	0xbb3913c4	-0.002824054
205	0x39315757	0.00016912572
206	0xbb12f83b	-0.002242579
207	0xba2088d1	-0.0006123903
208	0xbb115e3c	-0.0022181412
209	0xbb1d2b16	-0.002398198
210	0x3977e391	0.0002364053
211	0xba078446	-0.00051695516
212	0xbaa4227d	-0.0012522485
213	0xbb540f0f	-0.0032357608
214	0xbbcd6987	-0.0062686834
215	0x3a49e578	0.0007701735
216	0xb92f8578	-0.00016739022
217	0xba88d061	-0.0010438078
218	0xbb855707	-0.0040692124
219	0xbb89f41b	-0.004210008
220	0xbaa70883	-0.0012743626
221	0xbb29f43f	-0.0025932936
222	0xbb74a30d	-0.003732863
223	0xbb9b8486	-0.0047460226
224	0xbb149050	-0.0022669025
225	0xbad859c2	-0.0016506242
226	0xbb2c13ab	-0.002625684
227	0xb9e56b23	-0.00043758107
228	0xba5d3a0c	-0.00084391306
229	0xbb52d73c	-0.0032171747
230	0xbb07ac83	-0.002070219
231	0xbb0c07aa	-0.0021366873
232	0xb985a447	-0.00025490133
233	0xbb00271b	-0.0019554559
234	0xbb6f5485	-0.0036518883
235	0xbb33851b	-0.002739257
236	0xbb8dfc47	-0.0043330523
237	0xbb64d780	-0.0034918487
238	0xbb85ca9e	-0.0040829917
239	0xbc04dc3d	-0.0081091495
240	0xbb6e7eb0	-0.003639143
241	0xbbc35b77	-0.005961831
242	0xbbd70f38	-0.0065630935
243	0xbbfb5404	-0.0076699276
244	0xbc2c4476	-0.010514369
245	0xbb1f48f4	-0.0024304958
246	0xbba77803	-0.005110742
247	0xbb668685	-0.0035175395
248	0xbbce7e7b	-0.0063016987
249	0xbc125217	-0.008930705

exp_avg_sq f4 [10, 1, 5, 5]
0	0x3a3df3a4	0.0007246083
1	0x3a11af0e	0.0005557396
2	0x3998aa44	0.00029118557
3	0x3996ad7e	0.0002873949
4	0x39f580bf	0.00046825965
5	0x3a423dc2	0.00074097153
6	0x39f06c33	0.00045856982
7	0x398166f0	0.00024681492
8	0x39a951ff	0.00032295284
9	0x3a386c36	0.00070351677
10	0x3a4cd4d3	0.00078136957
11	0x3a1c305a	0.00059581327
12	0x39e573eb	0.0004376465
13	0x3a2bce9a	0.00065539184
14	0x3a9852fb	0.001162141
15	0x3a5bff24	0.0008392206
16	0x3a5e204d	0.0008473441
17	0x3a8436d1	0.0010087137
18	0x3ab2c12a	0.001363789
19	0x3ad02ca7	0.0015882448
20	0x3a6f303b	0.00091243134
21	0x3a8fd814	0.001097443
22	0x3abd7193	0.0014453403
23	0x3ae9a734	0.001782632
24	0x3ad2556b	0.0016047185
25	0x397a60ca	0.00023877915
26	0x398055ab	0.0002447789
27	0x3981a40e	0.00024727028
28	0x3960e27b	0.00021446675
29	0x3927061d	0.00015928638
30	0x398d501e	0.00026953308
31	0x397ad0ac	0.00023919594
32	0x39676608	0.00022067886
33	0x395aa1e8	0.00020850415
34	0x394216db	0.00018509796
35	0x394656d6	0.000189151
36	0x39272be9	0.00015942719
37	0x3939a8ef	0.00017705908
38	0x394bf38c	0.00019450317
39	0x395b2239	0.00020898216
40	0x39142a63	0.0001413017
41	0x391cbd85	0.00014947921
42	0x393ff882	0.00018307756
43	0x3983896f	0.00025088663
44	0x3989813a	0.00026226958
45	0x39302156	0.00016797087
46	0x39521d07	0.00020037974
47	0x39858913	0.00025469865
48	0x399fee17	0.00030504234
49	0x3998f6c2	0.00029175548
50	0x3a17505d	0.0005772168
51	0x3a3424bb	0.00068719283
52	0x3a276e0b	0.0006386942
53	0x39f67435	0.00047007357
54	0x399dc72b	0.00030093765
55	0x3a31f176	0.00067879946
56	0x3a39cb10	0.00070874486
57	0x3a075dec	0.0005163837
58	0x398b3b1f	0.00026556195
59	0x39435be0	0.00018630875
60	0x3a45e54b	0.0007549121
61	0x3a1e558e	0.00060399703
62	0x39797bb4	0.00023792573
63	0x38e67eb3	0.00010990854
64	0x38eb4a55	0.00011219519
65	0x3a302d38	0.00067206053
66	0x39d68d2e	0.00040922448
67	0x390e123d	0.0001354897
68	0x38aabdfc	8.141619e-05
69	0x390307e2	0.0001249607
70	0x3a1192ac	0.0005553167
71	0x39aa4f56	0.00032484037
72	0x3921d3f5	0.00015433117
73	0x3904c1d1	0.00012660703
74	0x39761ec1	0.00023471845
75	0x39b4a4c2	0.0003445503
76	0x39c23909	0.00037045058
77	0x39c4b4ea	0.00037518825
78	0x39f91187	0.0004750604
79	0x3a0e96ac	0.0005439322
80	0x3988e6af	0.00026111814
81	0x3999daa5	0.00029345337
82	0x39c29fab	0.00037121525
83	0x39fc882f	0.0004816665
84	0x39fad7ce	0.00047844503
85	0x395afe5c	0.00020884856
86	0x39905a6b	0.00027533187
87	0x39d4085c	0.0004044202
88	0x39e8e837	0.00044423502
89	0x39c64191	0.00037814354
90	0x399421a2	0.00028253818
91	0x39c43f14	0.0003743103
92	0x39d9f3e0	0.00041571166
93	0x39c63152	0.0003780225
94	0x399410ab	0.00028241178
95	0x39c64c43	0.00037822322
96	0x39d9360c	0.00041429733
97	0x39d0d4cf	0.00039831406
98	0x39b4f931	0.00034517937
99	0x398c7289	0.00026788216
100	0x3990d344	0.00027623225
101	0x3951352c	0.00019951601
102	0x39543899	0.0002023898
103	0x3921eef0	0.00015443168
104	0x38fa45e8	0.0001193395
105	0x3965916a	0.00021893313
106	0x39644af4	0.00021771697
107	0x3987b871	0.00025886626
108	0x394c8801	0.00019505621
109	0x390edc78	0.00013624306
110	0x39425516	0.00018532979
111	0x3930f36f	0.00016875354
112	0x396ae8dd	0.00022402727
113	0x39570929	0.0002050741
114	0x39307a02	0.0001683012
115	0x3920c9ac	0.00015333918
116	0x3922b38f	0.00015516415
117	0x395eeb2c	0.00021259178
118	0x39719961	0.00023040689
119	0x39775cf5	0.00023590385
120	0x3942c002	0.0001857281
121	0x397848d8	0.0002367826
122	0x398df433	0.00027075558
123	0x397d87a0	0.00024178484
124	0x398653e4	0.00025620975
125	0x3aae2d1f	0.0013288594
126	0x3aaab07b	0.0013022566
127	0x3a94b54c	0.0011345535
128	0x3a949cd7	0.0011338246
129	0x3aaa24ab	0.0012980899
130	0x3aaba280	0.0013094693
131	0x3a908afa	0.0011027746
132	0x3a707583	0.0009172784
133	0x3a794269	0.0009508492
134	0x3a94b985	0.0011346793
135	0x3a58f69d	0.00082764943
136	0x3a0e8fdb	0.0005438306
137	0x3a090207	0.00052264374
138	0x3a3ff1a6	0.000732208
139	0x3a763d98	0.00093933335
140	0x39d62e85	0.0004085192
141	0x3980a04d	0.00024533496
142	0x39a34476	0.0003114079
143	0x3a114304	0.0005541297
144	0x3a53d12a	0.0008080179
145	0x3982dc7c	0.00024959806
146	0x393b3182	0.00017852153
147	0x398e9eaa	0.00027202565
148	0x39f0fdea	0.00045965548
149	0x3a3bcd58	0.00071640825
150	0x390608f2	0.00012782568
151	0x38cb63cf	9.698385e-05
152	0x38d55c9c	0.00010173881
153	0x390ac092	0.00013232444
154	0x395101de	0.00019932489
155	0x3933f034	0.00017160253
156	0x390657f3	0.00012812
157	0x39101b4c	0.00013743079
158	0x393f352d	0.00018234989
159	0x39a446a6	0.00031333155
160	0x3981c5f3	0.0002475228
161	0x397f923f	0.00024373176
162	0x397e08bc	0.00024226581
163	0x39aef527	0.0003337052
164	0x39d45aeb	0.0004050353
165	0x398f52a6	0.00027336663
166	0x39953f7d	0.00028466797
167	0x39a5898b	0.0003157373
168	0x39c2c162	0.00037146645
169	0x39adb675	0.00033133072
170	0x3972c5ed	0.00023152652
171	0x3975fc08	0.0002345891
172	0x398acbae	0.00026473164
173	0x398b8581	0.00026611614
174	0x395728f5	0.00020519255
175	0x38bffca5	9.1546484e-05
176	0x39096020	0.00013101147
177	0x39b1251e	0.00033787725
178	0x3a2add88	0.0006517996
179	0x3a31a6d4	0.00067768735
180	0x3882bc8c	6.234003e-05
181	0x38d425e7	0.000101160076
182	0x39c77941	0.0003804658
183	0x3a3f4f89	0.00072979234
184	0x3a3645c3	0.00069531443
185	0x38592ebc	5.1780356e-05
186	0x38c8df1a	9.578299e-05
187	0x39f60321	0.00046923108
188	0x3a679197	0.0008833645
189	0x3a3dcabf	0.00072399894
190	0x387c86c9	6.020701e-05
191	0x39222bfb	0.00015465908
192	0x3a277c9d	0.0006389113
193	0x3a82c488	0.0009976784
194	0x3a48768d	0.000764706
195	0x38f8d3d1	0.000118650154
196	0x39b987f0	0.0003538723
197	0x3a4e960c	0.0007880635
198	0x3a84ede5	0.0010141699
199	0x3a51c696	0.0008002309
200	0x39c9aefc	0.0003846808
201	0x393d5d67	0.0001805924
202	0x38c0abda	9.187283e-05
203	0x38904bb9	6.8805595e-05
204	0x39129200	0.00013978034
205	0x393d2fa0	0.00018042186
206	0x3898e06a	7.289725e-05
207	0x3861cff7	5.3837863e-05
208	0x388879f2	6.5076994e-05
209	0x394739eb	0.00018999695
210	0x38a25e9a	7.742383e-05
211	0x38733a6b	5.799012e-05
212	0x3881a96b	6.182756e-05
213	0x38fa2adc	0.00011928912
214	0x39b6aa75	0.00034840746
215	0x3889fb02	6.579423e-05
216	0x389ef50a	7.579669e-05
217	0x3904058f	0.00012590572
218	0x39a997f1	0.00032347397
219	0x3a12948f	0.0005591595
220	0x38eb3d70	0.00011217117
221	0x3930dfbf	0.0001686802
222	0x39b7af74	0.00035035203
223	0x3a13adc1	0.00056334963
224	0x3a2e9b06	0.00066606735
225	0x38a28989	7.75038e-05
226	0x386c5587	5.634644e-05
227	0x38b8945c	8.801438e-05
228	0x396770b8	0.00022071868
229	0x39c90cae	0.00038347155
230	0x388065d0	6.12248e-05
231	0x385cfee5	5.2689476e-05
232	0x38e5d8b0	0.00010959932
233	0x39957377	0.00028505523
234	0x3a00df4a	0.0004916085
235	0x38cc8d3f	9.753787e-05
236	0x3902932e	0.00012452595
237	0x3960aa05	0.00021425642
238	0x39d89953	0.00041312966
239	0x3a201b5c	0.00061075925
240	0x393fad30	0.00018279697
241	0x3985b9c8	0.00025506155
242	0x39caca27	0.00038679058
243	0x3a22c4a7	0.0006209113
244	0x3a32aaeb	0.000681563
245	0x3982fb1c	0.00024982623
246	0x39b679e5	0.00034804564
247	0x3a0ab964	0.00052919076
248	0x3a371953	0.00069846696
249	0x3a25a447	0.000631873
