saved/models/Mnist_LeNet/0502_095806/checkpoint-epoch4.pth (torch, 362006 bytes, 32 tensors)

conv1.weight f4 [10, 1, 5, 5]
000000 90 e7 2a be 6f d5 ec bd 8d ce 64 be ec 74 25 bd
       -0.16689897 -0.11564147 -0.22344418 -0.04039471
000010 06 3c 5e be dd 39 12 3e 1c 3b 9a be 28 f8 f1 be
       -0.21702585 0.14279886 -0.30123222 -0.4725964
000020 99 34 cc be 04 ab b1 bd 52 19 a1 3d aa ba 26 3e
       -0.3988388 -0.08675197 0.078661576 0.16282144
000030 9e 4d 33 be 39 b2 37 be 92 a4 99 bd d9 ad fe 3d
       -0.17510077 -0.1793908 -0.075020924 0.124355026
000040 e8 b3 82 3d 88 fb ad 3e af 93 0f 3e 69 c9 52 3e
       0.06381971 0.33980966 0.1402118 0.20584644
000050 2c 2e 5f 3e 0c 93 4e 3e c7 b9 88 3e 40 8b d5 3e
       0.21794957 0.20173281 0.26704237 0.41707802
000060 64 bf 81 3d bc 8e cd 3d e6 bf 96 bc 0a 60 6a 3e
       0.06335333 0.1003699 -0.018402051 0.22888198
000070 ef c5 47 3e 4b 68 8a be 20 8f 43 3e 09 21 11 3e
       0.195091 -0.27032694 0.19097567 0.14172758
000080 8e 04 37 3e 39 ce 3b 3e 38 e5 d3 3d f6 7c 8e bd
       0.17872831 0.18340386 0.103464544 -0.06957428
000090 82 57 21 be 9d 6e d7 3c da bc 39 bc 75 4f 3d 3d
       -0.15756038 0.026297862 -0.01133653 0.046218354
0000a0 85 f4 fc bd 06 58 a5 bd ac 95 a1 ba 4d 2c 78 3e
       -0.12351326 -0.0807343 -0.0012327931 0.2423565
0000b0 27 13 97 3d 39 2f 54 bd 9d be 5a 3c 29 23 10 3d
       0.073767 -0.051802848 0.01335111 0.03518978
0000c0 55 33 67 3e b7 0a 71 3e 8b 3c 59 3e 06 8e 42 3e
       0.22578175 0.23539244 0.21214502 0.1899949
0000d0 47 5b 12 3e a9 7d 07 3e 38 26 cb bd 01 09 6e 3d
       0.14292632 0.1323153 -0.09919399 0.058114056
0000e0 48 da 98 3d 47 b7 6f 3e 66 8a d1 bd 23 0b aa be
       0.07463509 0.23409759 -0.102314755 -0.33211622
0000f0 bf 15 75 3e f4 09 af 3e 72 27 ee bd 20 58 b0 be
       0.23934077 0.3418728 -0.11628617 -0.34442234
000100 1b 8c 54 be 11 84 3e 3e 40 f2 08 3d f3 f0 40 be
       -0.20756571 0.18605067 0.033434153 -0.18841915
000110 4c d7 dd be 12 b4 53 3d e3 49 96 3e c2 de aa 3d
       -0.4332832 0.0516854 0.29353246 0.08343269
000120 1d e7 bf be 49 a7 af be a7 27 d5 3d bd 84 91 3d
       -0.37481013 -0.34307316 0.10407954 0.07105396
000130 71 23 04 3e 52 0d d9 bd c5 70 ae 3d 78 53 8b 3e
       0.12904145 -0.10598244 0.08517603 0.2721212
000140 3a 52 17 bc a1 45 62 bd 20 36 9d 3d 59 d6 f7 3d
       -0.009235913 -0.055242185 0.07676339 0.121014304
000150 5f db 65 3d 36 c1 84 be 0b a3 1b be aa c8 8a 3e
       0.05611741 -0.25928658 -0.15198915 0.2710622
000160 1d 4c 82 3e 31 13 19 3e 01 fa 7f be 13 3b 61 3e
       0.25448695 0.14948727 -0.24997713 0.21995191
000170 6c 16 54 3e b4 12 7b 3e 1d ae aa bd b7 07 2e 3e
       0.20711678 0.24518853 -0.08333991 0.1699513
000180 63 42 81 3e 16 5f f1 3d 41 2d b3 3d f7 21 0b be
       0.25245962 0.11785714 0.08748866 -0.13587175
000190 31 02 43 3e 74 5a 17 be 44 41 a0 3c 75 7d 1b be
       0.19043805 -0.14780599 0.019562371 -0.15184577
0001a0 ec 5c 13 be 8b df 78 bd 46 4d 28 3c 59 3b 82 3e
       -0.14390916 -0.060760062 0.01027233 0.25435904
0001b0 af fc e6 3d f9 46 0e be 56 87 bb 3d fa f8 43 be
       0.11278664 -0.13894261 0.09156673 -0.19137946
0001c0 1f 0f d3 3d f9 40 a8 bc 42 76 a7 bd ff 85 9a bd
       0.103056185 -0.020538794 -0.08176853 -0.07545089
0001d0 cc e0 82 be d6 d0 65 bc 16 94 f2 3d 57 de 8a 3e
       -0.2556213 -0.014026841 0.118446514 0.27122757
0001e0 08 49 72 bd 82 e1 0a 3e fa 13 51 3e 68 a4 bb bd
       -0.05915168 0.13562587 0.20417777 -0.091622174
0001f0 c4 6f 5a 3e 18 26 f6 3d c1 92 af 3e f7 72 88 3e
       0.21331698 0.120189846 0.34291652 0.2665021
000200 20 10 52 3e 29 3c a6 3e 6a 64 97 3d 68 51 54 3e
       0.20513964 0.32467774 0.07392199 0.20734179
000210 d8 2e 0a 3e c1 61 ee bc 22 a8 a7 3d aa 43 63 be
       0.13494432 -0.029099347 0.08186366 -0.2219378
000220 28 09 fa ba 95 62 30 3d 06 b4 92 3d 00 8b 45 3d
       -0.0019076215 0.043062765 0.07163243 0.048228264
000230 b4 02 6e be 6b 07 90 be 08 8e e5 bd 9c 09 e5 3d
       -0.23243219 -0.2813066 -0.11208731 0.111834735
000240 87 e7 ec 3d 9d 1e 95 be 49 f1 d7 be f5 ec 9e be
       0.11567598 -0.2912492 -0.42176273 -0.3104016
000250 a9 f1 d1 be fb f8 6e be 60 11 55 be 14 4b 44 be
       -0.41004685 -0.23337166 -0.2080741 -0.19169265
000260 bd 0e 02 be ae 72 46 bc bf 5c 10 bd 89 4a 40 3d
       -0.12700935 -0.012112303 -0.0352447 0.046946082
000270 05 26 61 be 76 28 af bd 93 c9 89 be f6 2d ca 3d
       -0.2198716 -0.08552639 -0.269116 0.098720476
000280 0a 3b 3c 3d 89 a3 7f 3e 51 3c d9 bd 1b ad 54 3e
       0.04595474 0.24964727 -0.106072076 0.2076916
000290 36 e3 81 3e a1 a9 67 3e d3 da 31 3e e7 4e 8c 3e
       0.2536866 0.22623302 0.17368631 0.27403948
0002a0 54 ad 4b 3e f1 0a 41 3e 6e 75 aa bd 18 6d 2f be
       0.19890338 0.1885183 -0.08323179 -0.1713146
0002b0 ff 57 cf bd d4 66 b6 bd 08 a9 6e be e2 fb 71 be
       -0.10124206 -0.08906332 -0.23306668 -0.23631242
0002c0 ab b8 a5 be f7 79 ae bc 62 40 86 3e af aa 9c 3d
       -0.32367453 -0.021298392 0.26220995 0.07649743
0002d0 b1 e0 87 be 8e 38 60 be 30 88 4c 3e a5 95 9d 3b
       -0.26538613 -0.21896574 0.19973826 0.004809099
0002e0 5a ef e2 bc 0f 53 8f be b8 1d 80 be ca 6d 29 3e
       -0.027702022 -0.27993056 -0.25022674 0.16545787
0002f0 4f be 92 3e 96 2a c4 bd 8d be 9e be d7 47 90 be
       0.2866082 -0.09578435 -0.31004754 -0.2817981
000300 20 f4 00 3e 75 4b 95 3e 5b 3f 2e bd 53 b1 87 be
       0.12593126 0.29159132 -0.04254089 -0.26502475
000310 0c df 65 bc 72 99 d7 bd 25 17 99 3e 6e 60 52 3e
       -0.014030229 -0.10527314 0.2990047 0.20544598
000320 24 73 68 3d a6 ba 0c 3c a3 f4 ef bd a0 ba cf be
       0.05675043 0.008589422 -0.117165826 -0.4057207
000330 0c 17 fb be f8 c6 3c 3d 5d bc 4c be 6f fa b2 be
       -0.4904102 0.04608819 -0.1999373 -0.3495669
000340 01 2c b4 be 14 06 4c 3c d6 e5 53 be b6 81 c7 be
       -0.35189822 0.012452621 -0.20693144 -0.3896615
000350 e6 25 71 be 7f 6b 41 be ea bd 46 3e 4b 5a b1 be
       -0.23549613 -0.18888663 0.19408384 -0.346392
000360 01 91 35 be 3d 41 0c be 74 3c 2a 3e 6b c4 4b 3e
       -0.17731096 -0.13696761 0.16624624 0.19899146
000370 1a 50 01 bf 76 f1 49 be 79 8f 49 3e 41 a6 d8 3d
       -0.5051285 -0.19721016 0.19683637 0.105785854
000380 8a 2f 62 3e ef 13 80 be 71 2f 4e be c4 b5 b4 be
       0.22088447 -0.25015208 -0.20135285 -0.35294926
000390 b5 00 5f bd c1 fc 83 3d 1d 26 18 be ea bd 0f be
       -0.054444034 0.06444693 -0.14858289 -0.1403729
0003a0 4d 9e 7d be d3 30 01 3d 00 7b ce 3d eb a2 8e be
       -0.24767418 0.031540703 0.10082054 -0.27858672
0003b0 c5 32 90 3c 65 aa 2f bc e6 fd c5 bd bd 11 63 3e
       0.017602334 -0.010721778 -0.09667568 0.22174735
0003c0 af 7a 40 bd 69 5f ec bc 1d cd 67 bd 17 10 fd 3d
       -0.046992 -0.028854089 -0.056592096 0.123565845
0003d0 24 3b 91 3e 62 a7 88 3d a5 67 b7 bd 2f 38 05 3d
       0.28365433 0.06672551 -0.089553155 0.032524284
0003e0 e5 06 88 3e c4 4a 8a 3e
       0.2656776 0.27010167

conv1.bias f4 [10]
000000 3f 5d 66 3e 1a 8d 51 bd a6 38 07 3e c2 66 52 be
       0.22496508 -0.051159956 0.13205203 -0.20547011
000010 d7 18 c8 3d d4 91 0f 3e 42 ca fd 3d 31 f6 65 be
       0.09770363 0.14020473 0.12392093 -0.22457196
000020 b9 1c 30 3e 43 0c c2 3d
       0.17198457 0.09474995

conv2.weight f4 [20, 10, 5, 5]
000000 8c db 8b 3d ec 18 58 3b d1 d6 c3 bd 58 7b 16 bd
       0.068289846 0.003297384 -0.09562457 -0.036738724
000010 ea 4d 9d bd fa 07 fd 3d cb b8 2c 3e 09 01 89 3d
       -0.076808766 0.12355037 0.16867368 0.066896506
000020 72 c4 93 bc 83 ab e4 bd 55 51 b2 39 9a 5f bc 3d
       -0.018038008 -0.11165526 0.00034011403 0.09197922
000030 4c 6b 34 3d 25 f3 b2 bd 32 70 cf bd 12 96 82 bc
       0.04404764 -0.087377824 -0.101288214 -0.0159407
000040 70 a2 73 3c e4 28 54 bd 46 de f3 bd 71 4d 2f be
       0.014870271 -0.05179681 -0.1190763 -0.17119385
000050 08 76 08 3e 32 d0 cd bd 3a cb c8 bd 35 1b 1f be
       0.13326275 -0.10049476 -0.098043874 -0.15537722
000060 65 6f c6 bd 52 84 a2 bd 42 02 bd bd 5d e5 0a bd
       -0.096892156 -0.07935394 -0.09228946 -0.033910144
000070 fc 34 aa bc 98 d4 4d bc 5f f1 81 3d a9 de 7b bd
       -0.020777218 -0.012562893 0.06344866 -0.061491642
000080 8b 15 a5 3c 92 e2 93 3c 2d ca 57 3c b2 0e c5 3d
       0.020151874 0.018052373 0.013170761 0.096219435
000090 19 8f 85 3d 1d a7 17 3d 52 d7 af 3d 59 84 df 3c
       0.06521434 0.037024606 0.08585991 0.027284788
0000a0 98 90 b0 3c c8 d1 cc 3d 0c 20 7f 3d 8e c2 3f 3d
       0.021553323 0.1000095 0.06228642 0.0468164
0000b0 2a 94 b9 bc 6f c0 77 bd bb d9 06 bd 68 14 66 bd
       -0.022653658 -0.060486253 -0.032922488 -0.056171805
0000c0 ee 3a db bc 4d c2 cf ba 2d 82 bb 3c 98 e4 d4 3d
       -0.026761498 -0.0015850753 0.022889221 0.10395163
0000d0 5b 98 70 3d 20 b1 14 3e 7f ea 29 bd 55 a3 cd bd
       0.058739047 0.14520693 -0.0414834 -0.10040919
0000e0 6d 39 03 be 38 1c 9b bc 8c 3b 6b 3d 7d f7 6b bd
       -0.12814875 -0.018934354 0.057429835 -0.05760907
0000f0 89 fe 1c be cc e1 14 be 17 36 35 3d 23 f2 69 3c
       -0.15331472 -0.1453926 0.044241037 0.014278921
000100 f5 fe 3c bc 55 77 45 bd f2 33 22 3c c5 db c4 3d
       -0.011535396 -0.048209507 0.00990008 0.0961223
000110 9f 74 61 bd 4d d5 8d 3b 25 a5 88 3d 64 4d df 3c
       -0.05504286 0.004328406 0.06672124 0.027258582
000120 94 2d 96 3d e0 e1 10 3d c6 81 56 3d 47 70 ad 3c
       0.07332912 0.03537166 0.052369855 0.021171702
000130 38 a2 99 bd c9 ab a1 bd df 49 a3 3d ca 38 49 3d
       -0.07501644 -0.078940935 0.07973074 0.049126424
000140 62 94 88 3b 97 d3 b4 3c 76 d5 4f bd 81 20 62 bd
       0.0041680792 0.02207355 -0.05074068 -0.05520678
000150 cc aa 16 bd b4 20 54 3c b9 54 7e bc 79 4d a0 3c
       -0.03678398 0.01294725 -0.015523129 0.019568192
000160 c8 5f 86 3d 74 d1 4b 3d 0e 1e 5f 3c 66 62 ef 3c
       0.065612376 0.049760297 0.013618005 0.029221725
000170 89 32 ad 3d 1a 34 8f 3b a6 1f e6 3c 39 ae 21 3d
       0.084569044 0.0043702247 0.028091263 0.039472792
000180 6e a6 ae 3c cd e6 63 3d ac d0 2c 3d 2c 41 f8 bc
       0.021319594 0.05564003 0.042191193 -0.030304514
000190 59 f1 43 bb 85 eb d5 bc 93 30 b4 bd d3 b0 fe 39
       -0.0029898493 -0.026113281 -0.08798327 0.000485784
0001a0 d1 92 aa 3a 44 d9 02 3e 2f e9 79 3d c7 4e 08 3d
       0.0013013725 0.12778193 0.061013397 0.033278253
0001b0 6f 55 0e 3d a7 be 85 bd e3 54 cb 3d de ff af 3d
       0.034749445 -0.06530505 0.099283 0.08593725
0001c0 4d 1b a8 3d 59 26 56 3d c1 d5 48 bd 36 07 3f bb
       0.08208332 0.052282665 -0.049031977 -0.0029148585
0001d0 71 8c 9b 3d c3 fc 32 3d 8a a1 65 bd 68 ab 0e bd
       0.075951464 0.043698084 -0.05606226 -0.034831434
0001e0 f6 0e 85 bc ee 96 67 3b 30 44 3a 3d 5b b6 5e bc
       -0.016242485 0.0035337764 0.045475185 -0.013593282
0001f0 db e9 ee bd 60 82 3b be 1f 68 46 be 0f 0a a1 bd
       -0.11665698 -0.18311453 -0.19375657 -0.07863247
000200 74 57 ca bd a0 a8 e2 bd 03 31 9b 3d f2 06 ee bc
       -0.098799616 -0.11067319 0.075777076 -0.029056046
000210 f7 18 e1 bd 6e 52 3d bc 5a 1b 82 bd 27 74 8f 3d
       -0.1099109 -0.011555297 -0.06352873 0.07004576
000220 f0 79 11 3d 7e d2 91 3d e8 46 ed ba 49 9b f6 bd
       0.03551668 0.07120226 -0.0018102797 -0.12041337
000230 61 79 11 3e 1f 89 3d 3d fe 6e f7 bc a8 36 45 3d
       0.14206459 0.046273347 -0.030204292 0.048147827
000240 15 4b 93 bd 0b dc 43 bd 0e c1 26 3d 3f 84 5f bd
       -0.07192055 -0.04781727 0.040711455 -0.05456948
000250 42 39 0e 3d 3b 40 0f bc 09 76 ab 3d 45 28 9e bc
       0.034722574 -0.008743341 0.08372123 -0.019306311
000260 ef 5a e0 bd b2 4a 7a bb 2a 59 65 bd ed 36 49 3c
       -0.10954844 -0.0038191495 -0.055993237 0.012281162
000270 47 fb a2 3c 7f f2 3f 3d 55 8f 8a bc a4 1f 0d 3c
       0.019895209 0.04686212 -0.01691405 0.008613501
000280 b8 37 24 3d 05 b9 22 3d 71 d2 62 3d 06 55 37 bd
       0.0400922 0.03972723 0.055376474 -0.04475882
000290 0c a5 9b bd ce 77 16 bd ee 1e 8a 3d 7f 78 96 3d
       -0.075998396 -0.03673535 0.067441806 0.073472016
0002a0 36 03 f3 3b a8 46 ac bc 6f 10 45 bd f8 56 0e 3b
       0.0074161543 -0.021029785 -0.048111375 0.0021719318
0002b0 42 23 d8 bb be 44 c0 b9 bd bf e7 bd 6e fe 19 bd
       -0.006596 -0.0003667231 -0.11315868 -0.03759616
0002c0 a9 4e 9a bd fd bc 6c bd f5 75 aa 3d 17 ad 8d 3b
       -0.075345345 -0.05779742 0.0832328 0.0043236124
0002d0 46 27 f1 bb a3 f5 69 bd 6a fb a7 bd 26 61 16 3c
       -0.007359418 -0.057119023 -0.0820225 0.009178435
0002e0 ae d0 8b 3d 91 bf 06 be a8 02 05 be f5 16 9d bd
       0.06826912 -0.13159014 -0.12989295 -0.07670394
0002f0 c8 4a a9 3c 8b f6 22 3d f0 65 ba bd 2d f3 19 be
       0.020665541 0.039785903 -0.09101474 -0.1503417
000300 ae 6c 00 3c 5b 70 ea 3d 96 f1 0d bc 60 51 47 bd
       0.007838411 0.11447211 -0.008663556 -0.04866159
000310 04 a7 89 bd c1 15 23 3d ec 94 83 3c 27 ce d1 bb
       -0.06721309 0.039815668 0.016062222 -0.006402749
000320 55 ea 75 3d 1a 49 b6 bd e0 83 1d 3c 6b 12 99 3c
       0.06003793 -0.08900662 0.009613961 0.01868554
000330 37 88 06 3e b0 1d 0a be fe 15 f0 bd 29 14 49 bd
       0.131379 -0.13487887 -0.11722945 -0.04909149
000340 d8 42 78 bd 37 83 b3 3d 38 bb 26 be f4 e0 15 be
       -0.060610622 0.087652616 -0.16282356 -0.14636594
000350 62 7a 0c be fb 50 d2 bd 98 f6 c4 3b f0 89 f9 3c
       -0.1371856 -0.10269352 0.0060108416 0.030461282
000360 1d 4e 4b bc cf 99 79 bc b9 e4 59 bc 43 45 d3 3d
       -0.01240876 -0.015234425 -0.013299161 0.10315945
000370 df be 41 3e 20 09 bd 3d 1d f1 2e 3d 4e c5 16 3e
       0.18920468 0.09230256 0.042710412 0.14723703
000380 c0 ab 7c 3c 8a 8b 8e 3b 14 7d ed bd 51 a6 31 3c
       0.015421808 0.0043501304 -0.115961224 0.010842876
000390 dd ea 64 3d a3 80 0b 3d 49 c3 df bd b9 58 db bd
       0.055888046 0.034058224 -0.109259196 -0.10710282
0003a0 30 d4 5f 3c 66 bf 91 3d b4 d2 a1 3c 65 0d 0a be
       0.013661429 0.071165845 0.019753791 -0.13481672
0003b0 74 76 89 bd 49 6f dc bc 6c 16 85 3d c2 16 fe 3c
       -0.06712046 -0.026908534 0.06498417 0.031016711
0003c0 0e 95 e8 3b 3a 04 d1 3c 6f df 2b 3d b6 48 ac 3d
       0.007097847 0.02551471 0.04196113 0.08412306
0003d0 04 90 e4 bd e6 28 9a 3c 7d 75 e7 bc 04 3d 8c 3d
       -0.11160281 0.01881833 -0.028254265 0.06847575
0003e0 32 19 a8 3d 70 ec 27 bc 98 a8 16 3d 31 7c 46 3c
       0.082079306 -0.010249242 0.036781877 0.0121145705
0003f0 94 53 fe 3c c4 e6 8c bd 23 54 e6 bc 77 35 0c 3e
       0.031045713 -0.068799525 -0.028116291 0.1369227

conv2.bias f4 [20]
000000 7f d1 93 3c 7d 69 22 bd 81 50 d7 3a 82 32 9e bc
       0.018044231 -0.039651383 0.001642719 -0.019311193
000010 92 8b 26 3d ef a1 9d 3c 1e 7f d1 bb f6 45 8f 3d
       0.04066045 0.019242255 -0.0063933274 0.06995766
000020 60 4a fc 3c 48 7d cc 3d 22 15 0f bd 6a 99 97 3d
       0.030797184 0.09984833 -0.034932263 0.07402308
000030 28 2a 67 bd a8 55 94 3c 32 8e 22 3d 2d 26 14 3d
       -0.056436688 0.01810725 0.03968639 0.03616922
000040 4d f0 03 bd 7a 12 13 bd 58 98 a5 bc bf 57 8a 3d
       -0.03221159 -0.035906292 -0.020214245 0.067550175

fc1.weight f4 [50, 320]
000000 d2 01 ee 3d 6e 83 c3 3c 31 a0 44 bd e0 c4 7e 3d
       0.11621441 0.023866381 -0.048004333 0.062199473
000010 fe 64 10 3e d6 3e 6d 3d 7b 35 be 3c 4c d4 6f 3d
       0.14101025 0.057921253 0.02321886 0.05855207
000020 f5 4b e8 3c bd d7 d0 bd e3 85 e1 bd 73 d6 66 bd
       0.028356532 -0.10197399 -0.11011865 -0.05635686
000030 45 30 a6 bc b4 f0 1a bd 3d fd c6 3c 2b c2 86 bc
       -0.020286689 -0.03782721 0.024290675 -0.016450008
000040 18 12 4f 3d 30 d5 9c bc e1 e3 08 3d ad 74 c1 3d
       0.050554365 -0.019144624 0.033420447 0.09446082
000050 95 91 53 bd a8 59 42 bd 58 f2 4d 3d f6 01 4f bd
       -0.05165251 -0.047448784 0.050279945 -0.05053898
000060 24 c9 49 3d 93 dc 8f bc 17 b4 55 3d 29 ab b1 3d
       0.04926409 -0.017561233 0.0521737 0.08675224
000070 a8 a9 9c 3c 95 25 15 bd b8 fc bd bd 4a 5e e6 3c
       0.019123867 -0.036412794 -0.09276718 0.028121132
000080 e9 fa 37 3d 06 70 c7 3c 8e c1 2a bd aa 71 22 bd
       0.04491702 0.02434541 -0.041688494 -0.03965918
000090 3b 99 c5 bc fb b8 db bc 24 22 c3 bb b1 b6 3a bd
       -0.024120918 -0.026821604 -0.0059549976 -0.045584384
0000a0 13 6a 4b bb 2d db 8d 3d 2f 58 89 bc 4c d5 55 bc
       -0.0031038567 0.0692657 -0.016765682 -0.013051342
0000b0 0e 2b 07 3e 23 48 87 3d 16 e1 c9 ba 34 a8 d5 bb
       0.13200018 0.06605556 -0.0015402164 -0.0065202955
0000c0 86 8d 7c bd 1d 04 06 3c b2 b3 b9 bd 66 28 8e bc
       -0.061658405 0.008179692 -0.09067477 -0.017353248
0000d0 3d 5a 1d 3d f2 19 32 bd 43 c8 39 bc 33 29 08 bd
       0.038416136 -0.043481775 -0.01133925 -0.033242416
0000e0 0e 3f ed bb cd 16 25 bd 61 9f 8c 3d 9f c2 82 3d
       -0.0072401827 -0.040304948 0.068663366 0.06384777
0000f0 b7 5f f2 bc e4 73 b3 3d c0 ed 53 3d ee 6c a5 3c
       -0.029586656 0.08762339 0.051740408 0.020193543
000100 84 be 8c bd ec 30 50 bd 19 a9 9c bd b2 d0 ff 3c
       -0.068722755 -0.050827906 -0.0764944 0.031227443
000110 e5 4a 0d bd c2 dc c9 bd 72 f3 77 3d b4 0b e0 3d
       -0.034495253 -0.09856559 0.060534902 0.10939732
000120 cf 09 52 3d 87 a0 25 bd 2a c4 67 bd c9 fa 6b bd
       0.051278885 -0.040436294 -0.05658356 -0.057612214
000130 c7 f9 85 3d 3a ab 69 bc 71 95 0f be dc 5a d3 bd
       0.06541782 -0.014262015 -0.14021851 -0.103200644
000140 46 36 93 3d 13 fc 8a 3c 65 61 e2 3b e8 be 0a 3d
       0.07188086 0.016965901 0.006908583 0.03387347
000150 52 a5 93 3a 56 3e 18 be 94 a6 9c bd 04 ba 8a bd
       0.0011264479 -0.1486753 -0.0764896 -0.06773761
000160 3e 2d 06 be f9 6d f6 3b fb 7c 1b bc df bb f0 bd
       -0.13103196 0.007520434 -0.009490247 -0.117545836
000170 bb 6b e0 3b ca 1c 0c 3d 54 62 21 3d 20 46 07 be
       0.00684878 0.034207143 0.039400414 -0.13210344
000180 81 cd cc 3c 15 a9 e5 3d a3 08 89 3d b0 b4 66 3d
       0.025000336 0.112138905 0.066911004 0.05632466
000190 ab 9a 35 bd ac 1a ef bb 86 3d db 3b dc e0 f4 bd
       -0.044336956 -0.0072968807 0.006690684 -0.11956951
0001a0 cc 5e af bd 1b 4f dc 3b 16 9a 56 3d 98 16 5f bd
       -0.08563003 0.0067232973 0.05239304 -0.054464906
0001b0 12 57 9c 3d 4e 05 1c 3c e1 5b 04 bd 38 2d 00 bd
       0.07633795 0.009522749 -0.032314185 -0.031293124
0001c0 03 84 44 3d b1 45 96 bb 2d d5 03 bc 05 06 9c 3d
       0.04797746 -0.0045859446 -0.008046431 0.07618336
0001d0 9d 85 14 3c 22 df 29 bd e7 6d 87 3c 6c 0e 3c 3d
       0.009065059 -0.04147256 0.016531898 0.04591219
0001e0 1e e3 4b bc c9 34 98 3c 25 a1 35 3d 34 fd 70 3d
       -0.012444286 0.018579857 0.044343133 0.058835223
0001f0 d9 4e 29 3d 29 a1 95 bc 22 29 19 bd 0a 4f db bc
       0.04133496 -0.018265324 -0.037392743 -0.026771087
000200 7b a7 d0 bc 94 de 08 bd f3 86 5d bc 63 b8 13 bd
       -0.025470486 -0.033415392 -0.013520944 -0.036064517
000210 ad 2c 8b bc 76 a8 88 3b 97 36 9e bd 0b 62 4e bd
       -0.016989077 0.0041704727 -0.07725256 -0.05038647
000220 fd 39 b2 bb 0b bd 5b 3d 56 38 84 bd 39 da f2 bc
       -0.0054390416 0.053647082 -0.06456058 -0.029645072
000230 5c 93 34 3d 1f 7a ea 3d 5f 5c 3d 3b 6e 42 bc bc
       0.044085845 0.11449074 0.0028894169 -0.022980895
000240 23 43 e1 3c 37 a6 9d bd 95 46 56 bd 14 bd a2 3d
       0.027497834 -0.076977186 -0.052313406 0.0794622
000250 f8 20 a0 3d 6a 62 fb bd 78 10 bf bb ff 22 aa 3d
       0.07818788 -0.1227463 -0.0058308206 0.08307456
000260 f1 bb 3d bb e4 da f5 bd f1 27 ed bd f6 d8 78 3b
       -0.0028951133 -0.12004641 -0.11579884 0.0037971116
000270 72 61 5a bd b7 04 39 bd 78 f4 2a be 6c c9 d7 bd
       -0.053315587 -0.045170512 -0.1669482 -0.10536465
000280 03 01 b1 bd 38 e0 5a bd 69 6b 7e bd 52 ef 5c bc
       -0.08642771 -0.053436488 -0.062114153 -0.013484793
000290 bf bd 89 3c 29 37 b6 3c 35 29 a2 bd e7 3e cd bc
       0.01681411 0.0222431 -0.07918016 -0.025054408
0002a0 5f d7 0b 3d 48 5e 2c 3c 39 89 08 be e6 ff f6 3b
       0.03414094 0.010520525 -0.13333596 0.0075378297
0002b0 0c 00 25 3d a2 3d 8c 3d 58 f2 dd bc a3 c2 0a bc
       0.040283248 0.06847693 -0.027093098 -0.008469257
0002c0 99 aa 90 3c c8 47 f5 3c 9b d7 83 bb 92 e7 89 3c
       0.017659472 0.029941455 -0.004023505 0.016834054
0002d0 87 04 26 be cc 44 c2 bd 2b b7 16 be 4a 95 14 3d
       -0.16212665 -0.09485778 -0.1471831 0.036275186
0002e0 ae 8f 8d bd 87 ed 90 3c 33 91 7e 3a 18 31 cf bd
       -0.0691217 0.017691387 0.00097109674 -0.10116786
0002f0 3f f3 43 bd 7a ca cb 3d 5e 38 a2 3c c6 13 32 be
       -0.0478394 0.09950729 0.019802269 -0.17390355
000300 4c db 20 3d 74 b4 df bc 95 5c 16 bd a4 a3 05 3d
       0.039271638 -0.027307726 -0.036709387 0.032626763
000310 ca 0c 46 3a 9f 50 99 3c 96 0d 3b bd ee df 1b 3d
       0.00075550063 0.018715201 -0.045667253 0.038055353
000320 84 8f b0 3d ec 3d 37 bb a2 b7 6c bc d0 41 94 3c
       0.086211234 -0.0027960492 -0.014448078 0.018097788
000330 57 cd 02 bc fc b0 7b 3c 40 79 84 bc 14 9c 99 bc
       -0.007983527 0.015362021 -0.016171098 -0.018751182
000340 aa 16 16 bc a1 82 27 bc 4e 92 a7 3c 80 0e 7a bb
       -0.009160677 -0.010224015 0.020455506 -0.0038155615
000350 1e 22 3f bd af f7 a4 bb 0b 73 2e bd ee 46 b7 bc
       -0.046663396 -0.005034409 -0.042590182 -0.02237269
000360 b2 b7 e2 3c 7e 0e d5 ba cf 68 aa bd 8a ab 3f 3d
       0.027675483 -0.0016254929 -0.08320772 0.04679445
000370 7b ab f0 3c 4f 1a a1 bc 50 bd 54 3d e6 73 ab 3c
       0.029378643 -0.019665865 0.051938355 0.020929288
000380 22 a8 1d 3b 7d 14 a9 3c 8f 09 89 3b 8c 0f 0d 3d
       0.0024056514 0.020639652 0.0041820477 0.034438655
000390 b6 41 d4 3c 91 33 64 3d 39 68 52 3d 9d 9a 1e bd
       0.02591024 0.05571324 0.051368926 -0.03872167
0003a0 30 09 5e 3c e6 00 64 3d 18 21 27 bd 92 3c 57 bc
       0.013551995 0.05566492 -0.040803045 -0.013137
0003b0 da 3f 6b 3b fa 22 48 3d 28 64 e9 3c 1f b3 b6 3c
       0.0035896213 0.04886148 0.028490141 0.022302208
0003c0 64 ff 49 bd d0 bf 93 bc df 12 ae 3c 62 9a 04 bd
       -0.049315825 -0.0180358 0.021249233 -0.032373793
0003d0 4d d2 c2 3c 59 dd 31 bd be 05 9b 3d 68 5e 67 ba
       0.02378192 -0.043423984 0.075694546 -0.00088260183
0003e0 b9 e9 39 bd c5 fa 5f 3d 4a 44 f7 bb 72 40 e3 3c
       -0.04538891 0.05468251 -0.0075459825 0.02774069
0003f0 56 e4 25 3d 09 a4 0f 3e 4b f9 0b 3d 1c dc 74 bd
       0.04050096 0.14027418 0.03417329 -0.059780225

fc1.bias f4 [50]
000000 da 5a 1a 3d ab b1 06 bc b9 78 aa 3d a6 24 e3 3d
       0.0376843 -0.00822107 0.08323807 0.110909745
000010 97 a6 37 3b 55 a7 ea 3d 41 84 03 3d 98 03 bf 3d
       0.002802288 0.11457697 0.03210855 0.09326857
000020 16 cd 35 3d 0a 33 10 bd 15 99 ca 3c e2 91 1b 3b
       0.04438504 -0.035204925 0.024731198 0.0023738076
000030 12 4f 04 3e fc 0d fe 3d 7a 1c d0 3d 22 26 c5 3d
       0.12920788 0.12405011 0.101616815 0.09626414
000040 a1 d7 13 3d 86 65 c1 3d 7c 15 b4 bc 86 f0 b4 3d
       0.03609431 0.09443192 -0.0219829 0.08834939
000050 a3 8c 96 3d e1 ca 94 3d 38 27 27 3c 0c 26 86 3b
       0.07351043 0.072652586 0.010202222 0.004093891
000060 58 f6 42 3d c7 78 8f bb fe db 31 bd 74 16 1f 3d
       0.047598213 -0.0043784115 -0.04342269 0.038839772
000070 6f 87 a3 3d 06 05 00 3d 99 47 79 3d af e6 9e 3d
       0.07984816 0.03125479 0.060859296 0.07758843
000080 dd 9c 3d 3d ec 22 95 3d 97 af 15 3c e9 b2 0a 3d
       0.046292175 0.072820514 0.009136102 0.03386203
000090 9b 20 c8 3d a4 c6 43 3d 58 4c 8a ba 02 41 20 3d
       0.09771844 0.04779686 -0.0010551317 0.039124496
0000a0 92 96 f4 3c 02 17 98 3d 04 5d 36 3c 48 6b 1c bd
       0.029856954 0.074262634 0.011130575 -0.03818825
0000b0 7a 72 da 3d 25 0c 92 3c 05 0b c8 3d 9b 76 a2 3c
       0.10666366 0.017828057 0.09767727 0.019831946
0000c0 b0 05 1d bc e9 42 58 3d
       -0.009583876 0.052798185

fc2.weight f4 [10, 50]
000000 b5 66 49 3e 5a 05 22 be 88 49 da 3d b1 58 1b be
       0.19668086 -0.15822354 0.10658556 -0.15170552
000010 f7 73 50 be 1e 9a 61 be 03 06 c2 3d 77 57 32 be
       -0.20356737 -0.22031447 0.09473803 -0.17416178
000020 81 fb f8 bd d8 38 1f bd 03 ed 6d be ed 3b 72 3d
       -0.121573456 -0.03887257 -0.23234944 0.05913918
000030 23 51 db bd be 93 1c be e9 18 a2 bd 37 fa 38 be
       -0.10708835 -0.15290734 -0.079149075 -0.180642
000040 f0 34 81 be f7 47 6d be 7f 0f 1a 3e c8 1b d8 bd
       -0.252357 -0.23171984 0.15044974 -0.10552174
000050 0d a7 2f 3e f8 cb 44 3d 45 10 01 be 31 2c b5 3d
       0.17153569 0.048046082 -0.12603863 0.088463195
000060 1a e8 60 be bb bc 15 3e f7 21 94 bd 90 b1 13 be
       -0.2196354 0.14622776 -0.07233041 -0.14423203
000070 d2 9d ff bd 0a 7c 01 3e a1 1e 34 be 14 cd 5c bd
       -0.12481274 0.12644973 -0.17589809 -0.053906515
000080 f7 9c fb 3d e5 73 f5 3c 2e 23 6b bd b5 ce c3 3d
       0.12285798 0.02996249 -0.057406597 0.095609106
000090 b2 09 fe 3d 93 05 a5 3d 22 41 2e 3e 2f d5 18 3e
       0.12404193 0.08057704 0.17017034 0.14925073
0000a0 2a 0f b4 3d 24 f8 b3 3d 7d 38 b7 bd ff 82 27 3e
       0.08791955 0.087875634 -0.08946321 0.16358565
0000b0 4b 3c 43 be 68 3a a3 3c 3d e8 1a 3e 6a f1 34 bd
       -0.19065969 0.019925311 0.15127654 -0.044175543
0000c0 42 f6 fa bc 6c 6c 91 3d 0e ab ce bd de b2 4f bd
       -0.030635003 0.07100758 -0.1009122 -0.05070769
0000d0 2d be 63 be 18 ec 30 3e 3d 69 cf 3d 31 7d 92 3d
       -0.22240515 0.17277563 0.101274945 0.071527846
0000e0 1f e7 0e 3e fb c0 37 3e 7d fa 5e be ae 15 32 be
       0.13955353 0.1794471 -0.21775241 -0.17391083
0000f0 c8 31 85 bd 89 ec 47 bd 7e 59 82 3d cd c4 b8 3d
       -0.06503636 -0.048809562 0.063647255 0.09021912
000100 00 85 69 be 88 1e 23 3e 0f 5c f7 bd 3d 68 09 3e
       -0.22804642 0.15929615 -0.12078106 0.1341867
000110 5c 4e 01 3e 72 78 ef 3d 9c 1e fc bd b5 3d 53 be
       0.12627548 0.11692895 -0.12310526 -0.20629008
000120 eb 24 7d be f1 c5 13 3e 1b 4e f7 3d 29 5d 66 be
       -0.24721114 0.14430977 0.12075444 -0.22496475
000130 06 31 3e be f2 b9 f3 bd 87 9a e1 3d 1a 2b 29 3b
       -0.18573388 -0.11900701 0.11015802 0.0025813044
000140 21 f4 81 3d 57 0f ff 3d b9 3f e1 3d 20 13 80 3d
       0.06345392 0.12454098 0.10998482 0.06253648
000150 d9 ba 00 be 5f c9 08 be 42 92 6a be 53 b5 57 bc
       -0.12571277 -0.13358067 -0.22907355 -0.01316579
000160 2a 20 91 be bc 19 4e be 5c 20 3a be 28 06 38 bd
       -0.28344852 -0.20127004 -0.18176407 -0.044927746
000170 c1 75 2d be 77 8d 1d bd 4c 52 d1 3d 40 66 6d be
       -0.16939451 -0.03846499 0.10220775 -0.23183537
000180 c2 be 17 3e b6 f4 58 be 56 5d 9b bd 95 b5 6f be
       0.14818862 -0.211871 -0.07586162 -0.23409112
000190 bf 04 8c bd 63 9d b2 bd 63 e6 51 be dc 19 91 bc
       -0.06836843 -0.087214254 -0.20498042 -0.017712526
0001a0 f8 b5 fc bd d9 5a c2 be 44 b5 0b 3e 5f a9 dd bd
       -0.12339395 -0.37959936 0.13643366 -0.108233206
0001b0 fb 71 3e be 3d 53 de 3d 54 f2 f7 bc 06 a7 9d 3d
       -0.18598168 0.1085572 -0.030266918 0.07697873
0001c0 41 42 2d be 38 b4 09 be b2 c8 4e be 3e b6 e1 3d
       -0.16919805 -0.13447654 -0.20193747 0.11021088
0001d0 c3 02 cf bd d3 d3 5f be 7f 7e 08 3e ba c7 02 3e
       -0.10107949 -0.21858148 0.13329504 0.12771502
0001e0 0f ba 01 be 6f 61 3e 3d a1 95 63 3b cb 6b 02 3c
       -0.12668632 0.04647964 0.0034726637 0.00796027
0001f0 f0 87 01 3e 16 b7 dd 3d c1 51 d3 3d 70 3c ec bd
       0.12649512 0.108259365 0.10318328 -0.11534965
000200 e8 c2 e5 3d b5 34 dd 3d 8f 0e c6 3d 31 78 de 3d
       0.11218816 0.10801069 0.096707456 0.108627684
000210 6a ff f4 3d 21 67 1c 3d a7 0e 60 be 3e b2 86 3d
       0.11962779 0.03818429 -0.2188059 0.06576966
000220 e4 38 38 be 85 b4 02 3e 4c d5 99 bd 31 d8 64 bd
       -0.17990452 0.12764175 -0.07511386 -0.05587024
000230 60 3f 92 bb 1c ee c0 3d ce 35 e2 3d fb 18 1b 3e
       -0.0044631213 0.09420416 0.11045419 0.15146248
000240 6a 69 2f 3d 6b 21 b9 3d 50 df 30 be 5f a8 15 be
       0.04282514 0.09039577 -0.17272687 -0.1461501
000250 88 e4 a4 bd 08 e2 22 bd 9a 8a e6 bd 4a c2 81 bd
       -0.080514014 -0.03976634 -0.11256905 -0.06335886
000260 d9 c6 35 be 87 0b 70 be e1 c1 c8 bd c9 c5 01 be
       -0.17751636 -0.23441897 -0.098026045 -0.12673105
000270 e3 7d 1b be 82 ba 63 be e6 f5 b5 3d a3 6a 02 3e
       -0.1518474 -0.22239116 0.08884792 0.12735991
000280 5c c4 ef 3d f2 83 02 3e 22 90 ae 3d e5 dc 52 be
       0.117073745 0.12745646 0.08523585 -0.20592077
000290 c1 6a e4 bd 30 a4 14 3e 1e b4 51 3c d1 db da 3d
       -0.11153174 0.14515758 0.012799291 0.10686458
0002a0 2b 5d 86 bc 52 a0 8e 3d 02 3c f5 bd 55 38 09 3e
       -0.016401848 0.069641724 -0.11974336 0.13400395
0002b0 a7 91 48 be 93 a8 31 be b8 b0 8e bd e2 fa 15 be
       -0.19586812 -0.17349462 -0.069673 -0.14646485
0002c0 89 49 ff bd 83 c5 0a 3e 36 66 05 3e a3 5d e4 3d
       -0.124651976 0.13551907 0.13027272 0.11150672
0002d0 28 b7 ae 3d 46 b0 d7 3c f3 76 4a be c5 58 d2 3d
       0.08531028 0.02632917 -0.19771938 0.10270838
0002e0 42 3f 0d 3d 10 ed 3c bd d8 87 dc 3c e6 58 0f 3e
       0.034484155 -0.046124518 0.026920244 0.13998756
0002f0 2f a7 0d be 15 ab 4d 3c f6 bf bb bc 60 12 b1 3d
       -0.13833307 0.012552996 -0.022918683 0.08646083
000300 ab 12 27 3c 98 c3 2d bd e9 cf 9e 3d ad c6 59 bd
       0.010197322 -0.04242286 0.077544995 -0.053167988
000310 89 2f 35 be 11 ff 2e be ab d8 ab bd a1 12 99 3d
       -0.17693914 -0.17089488 -0.083909355 0.07474256
000320 23 71 cb 3c 33 63 a6 3d ee 9d 2f be c4 4a 29 3e
       0.024834221 0.081243895 -0.17150089 0.16532427
000330 97 52 f3 3d 24 86 38 bc 3c cd 0e 3e 38 9b 2c 3e
       0.11880987 -0.01126245 0.13945478 0.16856086
000340 16 35 2b 3d 95 23 0f 3e bf 12 bf 3d b7 9c 1e be
       0.041798674 0.13978417 0.093297474 -0.1548947
000350 94 2b 81 3d 86 ed 27 3d 5b 91 9f 3d 35 34 ef 3d
       0.0630714 0.040998004 0.07791396 0.116798796
000360 3f 00 f9 3d 01 70 54 bc 6a 89 90 3d d9 63 31 be
       0.1215825 -0.012966157 0.0705746 -0.17323245
000370 9b 50 83 bd 50 66 a2 bd 23 c7 00 3e 6a 1a 1d 3e
       -0.06411859 -0.07929671 0.12575965 0.15342107
000380 fb 96 b1 bd db 85 36 3d 7e 2c 11 3e 50 d4 0d 3e
       -0.08671375 0.04456125 0.14177129 0.13850522
000390 ef f8 bf bd 22 05 26 be d0 52 d6 bd c0 f5 85 bd
       -0.09373652 -0.16212896 -0.10465014 -0.06541014
0003a0 95 cf 40 3d b4 be 3a be 8a 78 bf 3d a8 54 3e be
       0.047072966 -0.1823681 0.09349163 -0.18586981
0003b0 6d d4 b5 3d e6 4c ba bd a9 98 bb 3d a6 39 8c 3d
       0.088784076 -0.090966985 0.09159977 0.06846933
0003c0 5c dc f7 bd e5 42 52 be f1 16 76 be 7a 7b 7f bc
       -0.12102577 -0.2053333 -0.24032189 -0.015593404
0003d0 cc bc fe bd b6 a0 bd 3d 61 9e d7 bd fc 21 27 3e
       -0.12438354 0.09259169 -0.10528255 0.16321558
0003e0 0f f8 50 3e b4 b8 8d be 60 f5 a5 bd 16 18 c0 3d
       0.20407127 -0.2767998 -0.08103442 0.09379594
0003f0 6a a4 03 3e ab c5 01 be b1 e5 15 3e 22 10 64 3d
       0.12855688 -0.1267306 0.14638402 0.055679448

fc2.bias f4 [10]
000000 de 7e 33 be d1 1f 44 3e 9f 3f 3d 3c e2 80 aa 3c
       -0.17528865 0.19152762 0.011550813 0.02081341
000010 15 87 56 be 33 01 c2 3d 6b f0 3e bd 6f 1a 19 bb
       -0.20949967 0.09472885 -0.046616 -0.0023361703
000020 a8 7b 1a 3e f8 b9 78 be
       0.15086234 -0.24289691

exp_avg f4 [10, 1, 5, 5]
000000 f5 12 c7 bb 25 19 ab bb 39 8f f0 39 1d 26 d8 39
       -0.006075258 -0.0052215033 0.00045883076 0.00041227127
000010 ff 3e 3b bb 3e bb ff bb 51 25 5a bb 9b e8 c6 3a
       -0.0028571484 -0.0078043034 -0.0033286402 0.0015175523
000020 9c f6 42 3a fd 5b 05 bb 89 92 07 bc 58 d9 96 bb
       0.00074372604 -0.0020349019 -0.008274683 -0.004603546
000030 17 39 f7 b9 64 2b 2d bb a0 90 bc ba 90 cf f3 bb
       -0.00047154046 -0.0026423568 -0.0014386363 -0.007440515
000040 1a a3 8b bb 8b 16 e0 ba af c6 ea ba 65 9c 28 3a
       -0.0042613866 -0.0017096562 -0.0017911996 0.0006431996
000050 48 6a 04 bc cc 25 f4 ba eb df 6e 37 75 26 43 3a
       -0.00808198 -0.0018626987 1.423804e-05 0.000744439
000060 cd b2 61 3b c2 57 a5 3a 92 4a ad 3a c9 14 e5 3b
       0.003443885 0.0012614655 0.0013221076 0.006991003
000070 ac 01 09 3c 85 60 a8 3b 18 2d 19 3b 93 23 31 3b
       0.008362215 0.005138459 0.0023372825 0.002702926
000080 13 e7 f7 3b 45 95 cc 3b 97 aa 60 3b e0 a0 d7 3a
       0.007565388 0.0062433803 0.0034281367 0.0016451143
000090 06 4d 3d 3a 9c 67 00 3b 50 34 33 3b 90 4b 11 3b
       0.0007221255 0.0019593006 0.0027344413 0.0022170283
0000a0 29 61 15 b9 00 9b fd ba 9c bd 65 ba c0 53 91 3a
       -0.00014245942 -0.0019348562 -0.0008763911 0.0011087582
0000b0 e5 6c 17 3b 61 bc ba ba 22 b0 8d bb 0d 30 33 bb
       0.0023105678 -0.0014246815 -0.004323975 -0.0027341873
0000c0 91 b5 5d ba 74 22 92 ba f5 a4 fd 3b da 17 0f 3c
       -0.00084575365 -0.0011149184 0.0077406117 0.008733714
0000d0 13 d6 f7 3b 3c 70 8f 3a 2c 04 3f bb 82 d1 9b 3b
       0.0075633614 0.0010943483 -0.0029146774 0.0047552
0000e0 b5 19 b8 3b 0f bb e5 3a 84 be 96 bb 6e d7 b3 bb
       0.005618299 0.0017527061 -0.004600348 -0.0054883277
0000f0 cb 3b dd 3b 8a 85 b2 3b 14 b5 e5 39 31 62 8a bb
       0.0067515126 0.005448048 0.00043813197 -0.004223131
000100 65 5c 3f bb 7e 07 ec 3b 83 20 80 3b ae ae 0b ba
       -0.0029199359 0.0072030416 0.0039101257 -0.00053284585
000110 9a 70 92 ba 6e bf b2 ba 87 e0 5d 3b e0 13 84 3a
       -0.0011172474 -0.0013637373 0.0033855753 0.0010076724
000120 d0 2a 1b bb 9e 80 e8 ba 8a 0b e3 ba 7d e9 c8 3b
       -0.0023676641 -0.0017738526 -0.0017322164 0.0061313496
000130 b5 a9 8d 3b da 54 50 3b 55 59 8b 3b 7f 11 4f 3b
       0.004323209 0.0031788857 0.0042525926 0.0031596122
000140 f5 47 9e 3b f9 22 8d 3b a5 ab 65 3b 5c 47 95 3b
       0.0048303553 0.0043071476 0.0035044935 0.004555626
000150 71 09 97 3a ae 6d 24 3b af 84 d1 3a 6a 26 4c 3b
       0.00115232 0.0025089788 0.0015984977 0.0031150826
000160 70 77 5c 3b 67 bf 44 bb 44 e0 60 ba 83 af c8 ba
       0.0033640526 -0.0030021311 -0.000857834 -0.0015311096
000170 2b 8d 9a 3a b8 cf 65 b9 e1 28 af bb 0a 27 64 3a
       0.0011791339 -0.00021916523 -0.0053454493 0.0008703327
000180 a3 e5 65 3b 8c 66 b1 3b 52 cb 1f 3a ca 1d d8 ba
       0.00350795 0.005413836 0.0006095666 -0.001648837
000190 66 73 f6 ba 23 b3 d6 3a fe 23 9f 3b 09 2f 39 3b
       -0.0018802702 0.0016380291 0.0048565855 0.0028256795
0001a0 4e 07 04 3b 4b 61 ce b9 07 4c 03 39 2a f0 4f b9
       0.0020145955 -0.0003936387 0.00012521456 -0.00019830526
0001b0 58 c0 19 39 6d 37 a2 39 d3 e2 c7 ba 3c 2d 31 ba
       0.0001466287 0.00030940343 -0.0015250094 -0.00067587546
0001c0 f6 6e d9 b9 d1 97 ab 39 1c c9 18 b9 45 bc 0b bb
       -0.00041472138 0.00032728774 -0.00014570769 -0.0021321934
0001d0 24 31 14 bb d6 55 ea ba f3 90 1e 39 f9 50 f6 ba
       -0.0022612298 -0.0017878364 0.00015122052 -0.0018792442
0001e0 31 64 79 bb 5a eb 7e bb f6 e5 72 b8 80 17 70 3a
       -0.0038054103 -0.0038897605 -5.7911464e-05 0.0009158775
0001f0 a7 f9 dc ba 47 02 b2 bc cb d7 94 bc 2f fb 49 bc
       -0.001685907 -0.021729602 -0.018169304 -0.012327953
000200 f1 40 c2 bb 1f 48 9c bb bb 1a 8f bc 7e 1f 66 bc
       -0.005928152 -0.0047693397 -0.0174688 -0.014045594
000210 62 0c 2b bc c7 06 c8 bb 5b 1f e1 bb 87 44 10 bc
       -0.010439964 -0.0061043235 -0.006870193 -0.008805401
000220 2c fe 9f bb f4 a0 b6 bb f0 c3 a7 bb ba fa c8 bb
       -0.0048825946 -0.0055733863 -0.005119793 -0.0061334046
000230 c5 97 d3 ba 11 d1 87 3a 7b 4f 49 bb 3e 46 61 bb
       -0.0016143253 0.0010361989 -0.003071754 -0.0034374143
000240 c7 fe 7e bb c1 95 11 3b b4 4a 9d 3b 49 d5 52 ba
       -0.0038909183 0.0022214504 0.004800165 -0.0008042646
000250 05 17 07 bb 4e c5 63 bb b3 61 e1 b4 11 a6 af 3a
       -0.0020613086 -0.0034755054 -4.19806e-07 0.0013400932
000260 1b 2d 23 3a fc c3 89 ba 2c e8 14 bb 49 8a 13 ba
       0.0006224678 -0.0010510678 -0.0022721393 -0.0005628211
000270 67 8e 07 3b 9c 73 e9 39 7c 09 01 bb ba 13 44 bb
       0.0020684244 0.0004452736 -0.001968949 -0.0029918985
000280 4b 3e 8e 39 da 66 99 b8 ba d4 27 ba 0e 5b eb ba
       0.00027130762 -7.314766e-05 -0.0006402243 -0.0017956214
000290 62 1b 1b bb 8b f5 81 bb 90 80 85 bb 44 04 83 bb
       -0.0023667444 -0.0039660386 -0.0040741637 -0.0039983112
0002a0 9b 01 28 bb 67 46 0d bb 0f 62 19 bb 7b 0a be ba
       -0.0025635723 -0.0021556856 -0.0023404395 -0.0014498973
0002b0 33 0c 9e ba 54 dc ad ba d5 cf 4c 39 a4 3d 8b 3a
       -0.0012058079 -0.0013264515 0.0001953238 0.0010623229
0002c0 bd b0 9a 3a 5a b9 bd 3b 49 14 24 3c 57 fd 3a 3c
       0.001180194 0.005789918 0.010014602 0.01141294
0002d0 e4 dd e7 b9 b5 da ab 3a 24 06 0e 3c 9b 7c 36 3c
       -0.00044225075 0.0013111444 0.008668456 0.011138107
0002e0 86 3f 3a 3c af 6f e7 39 0f d4 b4 3a 54 53 16 3c
       0.011367684 0.00044142964 0.0013796109 0.00917514
0002f0 32 24 44 3c 4a 51 21 3c 84 5e 81 3a 25 11 80 3a
       0.01197152 0.009846041 0.0009870087 0.0009770734
000300 bb 64 02 3c 21 ba 28 3c 48 b8 dc 3b 07 5d 02 ba
       0.007958586 0.010298283 0.006735835 -0.00049729686
000310 13 39 ea 38 f9 fa 87 3b 74 79 ae 3b 97 7c ab 3b
       0.000111686204 0.0041497913 0.005324537 0.005233358
000320 fe 06 2e 3a 29 80 d9 3a b4 ef c2 3a 83 a2 41 ba
       0.0006638615 0.0016593981 0.0014872462 -0.0007386582
000330 96 a5 a0 3a e0 6d 02 3a 00 f7 c6 38 09 81 8a 39
       0.001225638 0.0004975479 9.487383e-05 0.0002641755
000340 58 88 82 b8 45 27 8b ba 94 40 e4 b6 a9 7c 2a 39
       -6.224279e-05 -0.0010616562 -6.8024474e-06 0.00016258903
000350 43 b2 52 3a c8 e3 ff ba cb 0f bb ba 6b a1 89 39
       0.00080374273 -0.001952284 -0.0014271674 0.00026250942
000360 f1 d8 80 39 b3 09 41 b9 0b f9 84 b9 53 fb 00 3b
       0.00024575696 -0.00018409528 -0.00025362553 0.001968105
000370 87 21 70 3a a8 8f 5e b9 ce 97 ee ba 4c 25 45 3b
       0.00091602694 -0.00021225086 -0.00182032 0.0030082045
000380 56 15 c9 3b 5b a3 0e 3b ba 37 b6 3a 35 ea dd 3a
       0.0061365766 0.0021764848 0.0013902106 0.0016930761
000390 41 67 15 3b 27 d1 11 3b e8 3b 22 ba d8 24 36 b9
       0.002279714 0.0022249909 -0.00061887363 -0.00017370598
0003a0 c1 d3 79 39 19 c7 c3 3a 60 a8 10 3b b4 08 15 3b
       0.00023825375 0.0014936655 0.0022073016 0.0022740783
0003b0 b4 c6 37 3b b8 19 0d 3b fb d9 08 3b 00 be 15 3b
       0.002804202 0.0021530222 0.002088188 0.0022848845
0003c0 e1 25 82 3b f7 28 cb 3a 2a 49 8e 3a 7b 01 99 3b
       0.0039718007 0.0015499879 0.0010855545 0.004669366
0003d0 e4 e6 9e 3b 42 7b 2d 3b be 7e 13 3a 27 8f 06 ba
       0.0048493017 0.0026471172 0.0005626491 -0.00051330257
0003e0 56 dc 7e 3b ce c4 88 3b
       0.0038888655 0.0041738516

exp_avg_sq f4 [10, 1, 5, 5]
000000 33 68 dd 39 84 7c aa 39 91 09 4b 39 a5 6e 4c 39
       0.0004223004 0.00032517698 0.00019363152 0.00019496174
000010 13 52 ae 39 52 72 dd 39 28 52 90 39 75 76 32 39
       0.00033249016 0.0004223758 0.00027527031 0.00017019532
000020 37 5c 6a 39 c4 b1 01 3a c7 bb f5 39 b7 4d ca 39
       0.00022350332 0.00049474486 0.00046869947 0.00038586344
000030 16 ac a8 39 07 e7 fd 39 cd a8 59 3a c6 4a 17 3a
       0.0003217167 0.0004842805 0.00083030463 0.0005771335
000040 f8 da 25 3a 43 f1 50 3a 43 2a 86 3a 8f 64 93 3a
       0.00063268794 0.0007970521 0.0010235984 0.0011245179
000050 27 c7 33 3a c4 d1 5f 3a fa f1 8f 3a 41 d8 a6 3a
       0.0006857984 0.00085380324 0.0010982149 0.0012729244
000060 97 3b 8c 3a df 3c 44 39 dc 5e 48 39 fc b4 4d 39
       0.0010698912 0.00018714693 0.00019108824 0.00019617745
000070 7a 1b 3a 39 6c 8f 18 39 f5 c5 65 39 fb 3e 4d 39
       0.00017748578 0.00014549278 0.00021912887 0.00019573786
000080 96 df 38 39 3c 9a 2a 39 da cf 25 39 65 9f 29 39
       0.000176309 0.0001626992 0.00015813057 0.00016176475
000090 7f c6 0e 39 a1 bb 11 39 d5 5d 18 39 f5 42 25 39
       0.00013616121 0.00013898175 0.00014530805 0.0001576057
0000a0 80 03 fe 38 fd c2 00 39 41 8c 14 39 76 72 40 39
       0.00012112316 0.0001227967 0.00014166629 0.00018353187
0000b0 5c 7d 41 39 06 d7 0d 39 07 de 23 39 55 08 4a 39
       0.00018452614 0.0001352691 0.00015627603 0.00019267325
0000c0 81 04 6c 39 97 53 59 39 84 f0 a9 39 71 02 d0 39
       0.00022508392 0.00020725872 0.0003241339 0.0003967467
0000d0 9e 67 c9 39 93 48 99 39 a9 29 56 39 0b ad bf 39
       0.00038414908 0.00029236506 0.0002042415 0.00036559286
0000e0 af 21 d6 39 5c aa a2 39 1e 6a 33 39 2d 4a 07 39
       0.00040842357 0.00031025975 0.00017110302 0.00012902236
0000f0 81 52 d3 39 d7 81 b8 39 e3 23 23 39 bc a7 a7 38
       0.00040306526 0.00035191953 0.0001555826 7.9944235e-05
000100 e6 8f a9 38 18 e2 c0 39 24 0f 7a 39 4f ef c5 38
       8.085351e-05 0.00036789547 0.00023847498 9.438267e-05
000110 9e c3 78 38 57 6f b1 38 52 e7 a1 39 e0 b5 50 39
       5.930999e-05 8.460756e-05 0.0003088066 0.0001990418
000120 d6 4e e8 38 b7 a0 b5 38 8d b6 1d 39 30 f7 5c 39
       0.000110773064 8.660688e-05 0.00015040692 0.0002107292
000130 25 ea 6c 39 7c db 7c 39 d6 48 a1 39 4c 68 bd 39
       0.0002259394 0.00024114357 0.0003076258 0.00036126596
000140 a7 1e 36 39 a5 77 51 39 ec 81 83 39 20 9a af 39
       0.00017368291 0.00019976364 0.00025083066 0.00033493433
000150 12 97 ad 39 96 6b 10 39 f9 9a 39 39 9f 44 84 39
       0.00033109688 0.00013772989 0.00017700707 0.0002522813
000160 8c 70 9d 39 45 5e 89 39 8b 15 35 39 f7 4a 5e 39
       0.00030029227 0.00026200913 0.0001726953 0.00021199496
000170 43 17 82 39 45 57 80 39 7a 92 46 39 53 a6 5d 39
       0.00024812864 0.00024479083 0.00018937318 0.00021138163
000180 74 ff 7b 39 de c6 81 39 28 17 62 39 a1 9f 2e 39
       0.00024032389 0.00024752965 0.00021561666 0.000166534
000190 29 b0 4a 39 82 e8 16 39 84 a6 1b 39 a1 af 08 39
       0.00019329846 0.0001439173 0.00014843984 0.00013035398
0001a0 b0 c8 01 39 9a 6f 31 39 35 31 31 39 7d b5 41 39
       0.0001237716 0.0001692161 0.00016898366 0.00018473524
0001b0 f1 bc 1a 39 e5 69 05 39 ea 4f 24 39 9f 02 11 39
       0.0001475697 0.00012723317 0.00015670029 0.00013829254
0001c0 9b 7d 22 39 f9 e9 0d 39 bf a0 09 39 a1 f2 06 39
       0.00015496316 0.0001353397 0.0001312522 0.00012869622
0001d0 75 ff 05 39 47 b8 1b 39 c6 2b 20 39 bd 69 2e 39
       0.00012779034 0.000148506 0.00015275096 0.00016633324
0001e0 73 b6 16 39 3f ac 3c 39 31 7a 49 39 e7 fd 3a 39
       0.00014373082 0.00017993244 0.00019214374 0.00017832928
0001f0 19 35 3e 39 c3 d0 4b 3a 2c 1a 5e 3a 66 93 55 3a
       0.00018139592 0.00077749434 0.0008472528 0.0008147269
000200 02 29 62 3a f1 70 7f 3a fc b4 4d 3a 7d ae 3d 3a
       0.00086273265 0.00097443076 0.0007847098 0.00072357786
000210 d1 bd 32 3a 16 70 3e 3a 59 46 5c 3a b4 5c 03 3a
       0.0006818446 0.0007264627 0.00084028166 0.0005011067
000220 5d 6c bf 39 e3 84 d1 39 28 29 10 3a 6a ca 2c 3a
       0.00036511096 0.00039962595 0.0005499297 0.00065914413
000230 cf 4e 7f 39 7e 96 2b 39 9f 12 76 39 a5 9c d8 39
       0.00024348054 0.00016363894 0.00023467325 0.0004131544
000240 37 1b 0f 3a c5 4d 22 39 20 a9 03 39 ae 60 60 39
       0.00054590724 0.00015478495 0.00012556138 0.0002139832
000250 6f c0 b0 39 80 5b eb 39 0e a4 9f 38 19 24 84 38
       0.0003371271 0.00044890866 7.6122684e-05 6.300974e-05
000260 45 7e 9f 38 3a 81 da 38 69 0d 0c 39 e1 a4 e2 38
       7.60523e-05 0.000104191204 0.00013356436 0.00010807231
000270 4e 11 c0 38 df 39 db 38 61 18 05 39 6c 7f 2d 39
       9.158497e-05 0.00010453513 0.0001269295 0.00016546034
000280 49 15 27 39 68 3b 30 39 ef 36 26 39 a0 b1 3c 39
       0.0001593429 0.00016806799 0.00015851458 0.00017995248
000290 e2 0a 4d 39 a7 75 43 39 1f 3b 46 39 a3 af 42 39
       0.00019554378 0.00018640478 0.00018904776 0.00018566712
0002a0 68 e8 4a 39 f1 73 3c 39 cc 52 21 39 1f 7b 1a 39
       0.00019350799 0.00017972269 0.00015385001 0.0001473245
0002b0 3c 9b 24 39 8a 80 24 39 d0 e9 02 39 8a bd 84 38
       0.00015698088 0.00015688143 0.00012484868 6.329555e-05
0002c0 95 f5 c5 38 75 d5 88 39 a4 68 02 3a 8d 7b 05 3a
       9.439435e-05 0.0002609898 0.0004974699 0.0005091958
0002d0 b4 4a 46 38 6c 7b a7 38 a4 12 a5 39 f0 88 19 3a
       4.727645e-05 7.98617e-05 0.0003148514 0.0005856892
0002e0 22 19 0c 3a 5b f0 27 38 8e c9 a9 38 91 a4 d0 39
       0.0005344321 4.003975e-05 8.0960905e-05 0.00039795463
0002f0 25 d9 3a 3a 8b 42 0d 3a ff 27 46 38 8b 0e 0f 39
       0.0007127694 0.0005388639 4.7244128e-05 0.0001364296
000300 8d 90 0b 3a 3a 78 48 3a 57 7f 0f 3a d5 fc ca 38
       0.0005323969 0.00076473097 0.0005473992 9.679204e-05
000310 3f 41 9b 39 13 0c 1c 3a 8f c9 3d 3a ce 16 0e 3a
       0.00029612516 0.0005952727 0.00072398124 0.0005420268
000320 12 b8 2b 39 56 73 b7 38 83 e3 5a 38 f7 47 63 38
       0.00016376402 8.747603e-05 5.2187137e-05 5.418804e-05
000330 78 74 ee 38 f9 fe a2 38 bd db 18 38 d8 67 08 38
       0.00011370418 7.772254e-05 3.644427e-05 3.252164e-05
000340 06 12 4d 38 f5 e4 0f 39 04 ed 37 38 0a b0 0d 38
       4.8892594e-05 0.00013722836 4.3851338e-05 3.378097e-05
000350 5f 7d 19 38 a6 01 a0 38 9d 3a 78 39 f4 56 40 38
       3.6594804e-05 7.6297016e-05 0.00023672958 4.585735e-05
000360 87 c5 59 38 99 90 bc 38 8b 31 73 39 92 e7 d1 39
       5.1920793e-05 8.991472e-05 0.00023192742 0.0004003612
000370 1b 38 8f 38 18 c3 d7 38 a8 8f 80 39 3a a2 db 39
       6.829222e-05 0.00010288338 0.00024521095 0.00041891803
000380 97 72 fe 39 4e e5 69 38 4c 99 2c 38 d9 00 7d 38
       0.0004853203 5.5765086e-05 4.1150764e-05 6.032069e-05
000390 2d a0 20 39 97 ec 88 39 b8 31 35 38 c7 35 20 38
       0.00015318459 0.00026116215 4.3200067e-05 3.8197057e-05
0003a0 db 2a 95 38 41 bb 44 39 39 c2 b0 39 f9 c3 94 38
       7.112856e-05 0.00018761774 0.00033714043 7.093693e-05
0003b0 ed 1c b4 38 a1 1e 0a 39 26 e5 8a 39 b9 4e e1 39
       8.588457e-05 0.00013172116 0.0002649214 0.00042973997
0003c0 62 f7 0c 39 6d 0b 37 39 93 82 83 39 72 7b e1 39
       0.00013443598 0.00017456496 0.00025083552 0.00043007318
0003d0 8e 21 02 3a 0e 7b 3c 39 e7 78 7a 39 3a 30 c2 39
       0.00049641065 0.00017974919 0.00023886898 0.00037038495
0003e0 20 d1 06 3a 89 59 f3 39
       0.00051428564 0.0004641528
