saved/models/Mnist_LeNet/0502_095806/checkpoint-epoch6.pth (torch, 362006 bytes, 32 tensors)

conv1.weight f4 [10, 1, 5, 5]
0	0xbe2247ab	-0.15847652
1	0xbdce2d28	-0.100672066
2	0xbe4f562c	-0.20247716
3	0xbc0d6d9c	-0.00863209
4	0xbe27c5bf	-0.16384028
5	0x3e2fd28c	0.17170161
6	0xbe96c051	-0.294436
7	0xbf05112d	-0.51979333
8	0xbed447ab	-0.41460928
9	0xbdcd5861	-0.100266226
10	0x3dd0cef1	0.10195721
11	0x3e39af29	0.18133225
12	0xbe3f09f3	-0.18656139
13	0xbe5aa54a	-0.21352115
14	0xbdbafa36	-0.09129755
15	0x3df1b650	0.118023515
16	0x3da131ce	0.078708276
17	0x3eb1d7a5	0.34734836
18	0x3e08086f	0.13284467
19	0x3e520f25	0.2051359
20	0x3e2e150d	0.17000218
21	0x3e40affe	0.18817136
22	0x3e8b2b29	0.27181366
23	0x3edd47f0	0.43218946
24	0x3da79530	0.08182752
25	0x3dba6eff	0.09103202
26	0xbc0cde82	-0.008597972
27	0x3e66bced	0.22533007
28	0x3e30c296	0.17261729
29	0xbe991097	-0.2989547
30	0x3e3f6b95	0.18693383
31	0x3e06a2ec	0.13148087
32	0x3e261278	0.16217983
33	0x3e267ae2	0.16257814
34	0x3d9834d1	0.07431949
35	0xbd9b6b35	-0.075888075
36	0xbe2e8b30	-0.17045283
37	0x3ac5ce58	0.0015091402
38	0xbc61d0d4	-0.013782699
39	0x3d34fd35	0.04418679
40	0xbe1370b1	-0.14398457
41	0xbdbdff5d	-0.09277222
42	0xbcd9dbd4	-0.02659408
43	0x3e523dc7	0.20531379
44	0x3d30a9d9	0.04313073
45	0xbd664e8e	-0.05622726
46	0x3c793a5a	0.015211666
47	0x3c000990	0.00781478
48	0x3e364002	0.17797855
49	0x3e51be9b	0.20482866
50	0x3e62cf2c	0.22149342
51	0x3e4a6ea2	0.19768766
52	0x3e165811	0.14682032
53	0x3e12e6bb	0.14345829
54	0xbdd0795e	-0.10179399
55	0x3d9f4d1e	0.07778381
56	0x3dacb96b	0.08433803
57	0x3e7520e8	0.23938334
58	0xbde8ce83	-0.11367514
59	0xbeb54a21	-0.35408118
60	0x3e789b35	0.24277957
61	0x3eb11314	0.34584868
62	0xbdd40a47	-0.10353523
63	0xbec391ff	-0.38197324
64	0xbe730413	-0.23732023
65	0x3e434835	0.19070514
66	0x3ca9f64d	0.020747328
67	0xbe41b536	-0.18916783
68	0xbef198f3	-0.47187003
69	0x3d6a0a07	0.05713847
70	0x3e85bb03	0.2611924
71	0x3d14715f	0.03624093
72	0xbeb8d454	-0.36099494
73	0xbe9d3a17	-0.30708382
74	0x3e11985e	0.1421828
75	0x3dc95b42	0.09831859
76	0x3e09077c	0.13381761
77	0xbdd50d31	-0.10402907
78	0x3da4da7e	0.080494866
79	0x3e8fd9a9	0.2809575
80	0x3af77083	0.0018878136
81	0xbd8c5585	-0.06852249
82	0x3d3d7aa4	0.046259537
83	0x3df5466c	0.119763225
84	0x3da1605b	0.078797065
85	0xbe91a5d6	-0.28446835
86	0xbe350c5c	-0.17680496
87	0x3e7287b7	0.23684584
88	0x3e74f6cf	0.23922275
89	0x3e194244	0.14966685
90	0xbe80ff8b	-0.25194964
91	0x3e6af9d1	0.2294686
92	0x3e55a8b1	0.20865132
93	0x3e6af732	0.2294586
94	0xbdd7a2ad	-0.10529075
95	0x3e44b27e	0.19208714
96	0x3e79f71b	0.2441067
97	0x3d9507d4	0.07276884
98	0x3cf4fcd0	0.029905707
99	0xbe289548	-0.16463196
100	0x3e236b3a	0.15958872
101	0xbe2c6794	-0.16836387
102	0x3c22b934	0.009931851
103	0xbe37f8b6	-0.1796597
104	0xbe3a1a3e	-0.18174073
105	0xbd7faaed	-0.062418867
106	0x3aae912e	0.0013318413
107	0x3e8e768d	0.27824822
108	0x3def5a4e	0.11687146
109	0xbe42f2c9	-0.19037928
110	0x3da7e6b1	0.08198298
111	0xbe5dd927	-0.21664868
112	0x3dd0db34	0.1019806
113	0xbc826bd2	-0.015920553
114	0xbdf079cc	-0.11741981
115	0xbda44a9a	-0.080220416
116	0xbe8d430a	-0.2759021
117	0xbce31f5a	-0.02772491
118	0x3de78a6d	0.113056995
119	0x3e8012a4	0.25014222
120	0xbd565389	-0.05232576
121	0x3e2300dc	0.15918297
122	0x3e581fc1	0.21105863
123	0xbdfce342	-0.123480335
124	0x3e22389d	0.15841909
125	0x3e09c252	0.13453034
126	0x3ebc580d	0.36785927
127	0x3e8bdbe4	0.273162
128	0x3e4fd3ad	0.20295592
129	0x3ea8cacc	0.32967222
130	0x3dc19340	0.09451914
131	0x3e69bf0a	0.22826782
132	0x3e14e438	0.14540184
133	0xbcc739eb	-0.02431961
134	0x3d9c7415	0.076393284
135	0xbe6cddbc	-0.2313146
136	0x3b494952	0.0030713868
137	0x3d93615e	0.07196306
138	0x3db2cb2f	0.087301604
139	0x3d83a24d	0.06427441
140	0xbe8b52e2	-0.27211672
141	0xbe934513	-0.28763637
142	0xbdeced0a	-0.11568649
143	0x3de537f7	0.11192315
144	0x3e0ab706	0.1354638
145	0xbe8d9232	-0.276506
146	0xbede099f	-0.43366715
147	0xbeaa124f	-0.33217093
148	0xbed9cf6a	-0.42541057
149	0xbe694dbe	-0.22783563
150	0xbe36cf78	-0.1785258
151	0xbe108ad4	-0.14115459
152	0xbde01c3e	-0.10942887
153	0xbd4140b2	-0.04718084
154	0xbd93beb9	-0.07214112
155	0x3d81fc32	0.063469306
156	0xbe553b35	-0.20823367
157	0xbdc20e0b	-0.09475335
158	0xbe93c2de	-0.2885961
159	0x3de4a041	0.111633785
160	0x3d5674c7	0.05235746
161	0x3e868e05	0.26280227
162	0xbda2dea3	-0.07952621
163	0x3e6ce833	0.23135452
164	0x3e8e9934	0.2785126
165	0x3e5e6221	0.2171712
166	0x3e5150fa	0.20441046
167	0x3e9ceb62	0.30648333
168	0x3e5e7230	0.21723247
169	0x3e262a1a	0.16226998
170	0xbe0d32b1	-0.13788868
171	0xbe539184	-0.20660979
172	0xbe229780	-0.15878105
173	0xbe0dc807	-0.13845836
174	0xbe96c31d	-0.29445735
175	0xbe64f721	-0.22359897
176	0xbe99fe75	-0.30076948
177	0xbc5485b8	-0.012971334
178	0x3e8cc93c	0.2749728
179	0x3d6d7467	0.057972338
180	0xbe98fbce	-0.29879612
181	0xbe73c087	-0.23803912
182	0x3e559373	0.20857029
183	0x3ce18902	0.02753115
184	0xbd32acb3	-0.04362173
185	0xbe991ab5	-0.29903188
186	0xbe8344d3	-0.25638446
187	0x3e20aa22	0.156899
188	0x3e98835e	0.29787725
189	0xbdc699f5	-0.09697334
190	0xbe967417	-0.29385445
191	0xbe9a26bd	-0.3010768
192	0x3ddf0fc8	0.10891682
193	0x3e94d8e4	0.29071724
194	0xbcf15855	-0.029461065
195	0xbe8599dd	-0.2609395
196	0xbd0b3fe4	-0.033996478
197	0xbdfa4db7	-0.12221854
198	0x3e992c69	0.29916695
199	0x3e622eb5	0.2208813
200	0x3d9098a8	0.07060367
201	0x3d4bdb2b	0.04976956
202	0xbdbe78d1	-0.09300388
203	0xbede85e9	-0.4346154
204	0xbf16074c	-0.58604884
205	0x3dba4811	0.09095777
206	0xbe40abc5	-0.18815525
207	0xbed484b6	-0.415075
208	0xbece0987	-0.40241644
209	0xbca1cc34	-0.019750692
210	0xbe3d86b6	-0.1850842
211	0xbef4ff8b	-0.47851214
212	0xbe96f085	-0.29480377
213	0xbe39d900	-0.18149185
214	0x3e67443e	0.22584626
215	0xbec7e251	-0.39039853
216	0xbe82031b	-0.25392994
217	0xbe0d89fd	-0.1382217
218	0x3e46343e	0.19355866
219	0x3e5c8032	0.21533278
220	0xbf0e3068	-0.5554261
221	0xbe27afd5	-0.16375668
222	0x3e71bc95	0.23607095
223	0x3dfdf4a8	0.1240018
224	0x3e45cc64	0.1931625
225	0xbe791cb2	-0.24327353
226	0xbe50a5fa	-0.20375815
227	0xbeab3226	-0.33436698
228	0xbd630a22	-0.055429585
229	0x3d7f558d	0.062337447
230	0xbe1c9808	-0.1529237
231	0xbe1b4b6f	-0.15165494
232	0xbe7c6ef5	-0.24651702
233	0x3d1c6155	0.03817876
234	0x3dd08bda	0.101829246
235	0xbe92279d	-0.28545848
236	0xbbf9d402	-0.0076241503
237	0xbc4c7ea4	-0.012481365
238	0xbdc1b25d	-0.09457848
239	0x3e5b1243	0.21393685
240	0xbd8074b8	-0.06272262
241	0xbcc6adf5	-0.024252871
242	0xbd4ee2ff	-0.05050945
243	0x3de59e17	0.11211794
244	0x3e9055a6	0.28190345
245	0x3d1b0467	0.037845995
246	0xbd93b076	-0.07211392
247	0x3d164092	0.036682673
248	0x3e83a7eb	0.2571405
249	0x3e8e7b3c	0.27828395

conv1.bias f4 [10]
0	0x3e69740a	0.22798172
1	0xbdd258b4	-0.10270825
2	0x3dd6b349	0.10483415
3	0xbe8438ba	-0.2582453
4	0x3d875cf0	0.06609523
5	0x3e213cbf	0.15745829
6	0x3db76251	0.08954299
7	0xbe8d09ab	-0.2754644
8	0x3df55d28	0.11980659
9	0xbbbea7a5	-0.0058183246

conv2.weight f4 [20, 10, 5, 5]
0	0x3d921150	0.07132208
1	0xbc507f03	-0.012725594
2	0xbdd7f0f9	-0.10544009
3	0xbd6c41e7	-0.057680037
4	0xbdd73070	-0.105072856
5	0x3df6f54e	0.12058507
6	0x3e37ed14	0.17961532
7	0x3da5b715	0.08091561
8	0xbcbf43c1	-0.023347737
9	0xbe0b0ed1	-0.13579871
10	0x3d106d83	0.03526069
11	0x3dd32437	0.10309642
12	0x3d8bf541	0.06833888
13	0xbdbdd5a0	-0.09269261
14	0xbe02b9d0	-0.12766194
15	0xbcc063da	-0.023485113
16	0xbb24078a	-0.0025028908
17	0xbd3a456b	-0.04547636
18	0xbdffab34	-0.12483826
19	0xbe4e0786	-0.20120057
20	0x3debaa0a	0.11507042
21	0xbe1a59e7	-0.15073358
22	0xbe24967e	-0.16073033
23	0xbe5c59a1	-0.21518566
24	0xbe060c78	-0.13090694
25	0xbdb0b513	-0.08628287
26	0xbdc02f82	-0.093840614
27	0xbd4463c5	-0.04794671
28	0xbc7fd2aa	-0.015614191
29	0xbb26ef55	-0.0025472243
30	0x3d9e538c	0.07730779
31	0xbd3822d0	-0.044955075
32	0x3c747b04	0.014921907
33	0x3ca61a28	0.020276144
34	0x3c390516	0.0112927165
35	0x3da61735	0.08109895
36	0x3d5a5c12	0.05331046
37	0x3d07e67e	0.0331788
38	0x3d946fad	0.07247863
39	0x3cabfcf6	0.020994645
40	0x3b1521c0	0.0022755712
41	0x3dc51ee3	0.09625032
42	0x3d5118a9	0.05104891
43	0x3d420089	0.04736379
44	0xbd033271	-0.032030527
45	0xbdd3e150	-0.10345709
46	0xbd544ac0	-0.0518291
47	0xbd7010a1	-0.05860961
48	0xbc928186	-0.017884027
49	0xbb9f201d	-0.004856123
50	0x3c29b3f1	0.010357843
51	0x3e004b68	0.12528765
52	0x3ddef6a5	0.108868875
53	0x3e21ebfc	0.15812677
54	0xbda25c88	-0.07927805
55	0xbdfa19ec	-0.122119755
56	0xbe14c1cf	-0.14527057
57	0xbb99a4cd	-0.0046888352
58	0x3ca847c8	0.02054204
59	0xbdae1f41	-0.08502055
60	0xbe22c007	-0.15893565
61	0xbe18a8e0	-0.1490817
62	0x3d3b85ef	0.045782026
63	0xbc8360f3	-0.01603744
64	0xbcbd31e3	-0.023095077
65	0xbd190d23	-0.037366044
66	0x3d1730c9	0.03691176
67	0x3dd12eb3	0.10213985
68	0xbd845835	-0.06462137
69	0x3c57438a	0.013138661
70	0x3da1f0cb	0.07907256
71	0x3d55f924	0.052239552
72	0x3d9c89f3	0.07643499
73	0x3ce016f5	0.027354697
74	0x3d43bb9b	0.047786336
75	0x3cb8bab6	0.022549968
76	0xbd846846	-0.06465201
77	0xbda12649	-0.078686304
78	0x3db26ee8	0.0871256
79	0x3d91262c	0.07087359
80	0xbb89ec0b	-0.0042090467
81	0x3cc35667	0.02384491
82	0xbd94a5fc	-0.072582215
83	0xbd6aa884	-0.057289615
84	0xbcd25711	-0.025676282
85	0x3c28b2e9	0.010296562
86	0xbcbe4b4d	-0.023229266
87	0xbc7f4b4a	-0.015581915
88	0x3d75de2a	0.060026325
89	0x3d18cef2	0.037306733
90	0x3c418fa4	0.011814032
91	0x3cc31682	0.023814443
92	0x3da4860f	0.08033382
93	0x3a7f27f8	0.0009733434
94	0x3c67b1af	0.014141484
95	0x3cc9c476	0.024629813
96	0x3ca07b92	0.019590173
97	0x3d6d16c1	0.057883028
98	0x3cead922	0.02866799
99	0xbd478163	-0.048707377
100	0xbc635cc8	-0.013877101
101	0xbcff3b38	-0.031156167
102	0xbdc72b7f	-0.09725093
103	0x3c146aca	0.009058664
104	0xbb58d8ce	-0.003308821
105	0x3e0a0426	0.13478145
106	0x3d8e5e49	0.06951577
107	0x3d0a78de	0.033806674
108	0x3d077288	0.03306821
109	0xbda44093	-0.08020129
110	0x3dd1ef62	0.10250737
111	0x3ddee3f7	0.108833246
112	0x3da3d527	0.0799964
113	0x3cf61bc9	0.030042546
114	0xbd947300	-0.07248497
115	0x3b02470a	0.0019878768
116	0x3dbfccac	0.0936521
117	0x3d2a28e6	0.04154291
118	0xbd8459eb	-0.06462463
119	0xbd818eec	-0.06326088
120	0xbd18864d	-0.037237454
121	0xbc28d080	-0.0103036165
122	0x3d511dff	0.051053997
123	0xbc70e130	-0.014702126
124	0xbdf1b4ce	-0.11802064
125	0xbe2ce8e2	-0.16885713
126	0xbe681294	-0.22663337
127	0xbdaac25f	-0.083378546
128	0xbde81f97	-0.1133415
129	0xbe13dae5	-0.1443897
130	0x3ddd226b	0.1079758
131	0xbcb0c58d	-0.021578575
132	0xbdd5f1f0	-0.104465365
133	0x3c5c56da	0.013448441
134	0xbd000606	-0.031255744
135	0x3da4940b	0.080360495
136	0x3d72e2e1	0.0592984
137	0x3db1c6db	0.08680507
138	0x3c249dcd	0.010047388
139	0xbdd9be5a	-0.1063201
140	0x3e19926a	0.14997259
141	0x3d799e93	0.060942244
142	0xbc98d4d6	-0.018656176
143	0x3d64e6c2	0.05588413
144	0xbd94f573	-0.07273378
145	0xbd7fab6a	-0.062419333
146	0x3d2de7c4	0.042457357
147	0xbd29c840	-0.04145074
148	0x3d1f7794	0.038932398
149	0xbcb6adb8	-0.022299632
150	0x3df3c5e9	0.11902983
151	0xbba1caea	-0.0049375193
152	0xbdca758d	-0.09885702
153	0xbc498e92	-0.012302058
154	0xbd7bbf0f	-0.061461505
155	0xbc210ad4	-0.009829242
156	0x3c3ae372	0.011406766
157	0x3d5b872d	0.05359571
158	0xbcb3fe6f	-0.02197191
159	0xbc1e228e	-0.009651793
160	0x3d63112c	0.0554363
161	0x3d257362	0.04039324
162	0x3d706f11	0.05869967
163	0xbd5cf1da	-0.053941585
164	0xbdbe0034	-0.092773825
165	0xbc8a28b1	-0.016865106
166	0x3dacbbf4	0.08434287
167	0x3dbb268c	0.091382116
168	0x3ba56f13	0.0050486415
169	0xbd2898a4	-0.041161194
170	0xbd7c0b64	-0.0615343
171	0xbcbe94fb	-0.023264399
172	0xbce184ff	-0.027529238
173	0xbc5452d9	-0.012959206
174	0xbe04259c	-0.12904972
175	0xbd8fbd7e	-0.07018565
176	0xbdd06b90	-0.10176766
177	0xbd1fdf7a	-0.039031483
178	0x3dcd7ba3	0.100333475
179	0x3ac4ed1b	0.0015024276
180	0xbcd1c9b3	-0.025608873
181	0xbd9b17c6	-0.07572894
182	0xbd872b65	-0.06600074
183	0x3b2b576a	0.0026144632
184	0x3d7993b8	0.06093189
185	0xbe11a921	-0.14224674
186	0xbde9ab01	-0.114095695
187	0xbd831b1c	-0.06401655
188	0x3c15b8b1	0.009138272
189	0x3cd4fbf6	0.02599905
190	0xbe01b336	-0.1266602
191	0xbe16a7b2	-0.14712408
192	0x3cd051ff	0.025429724
193	0x3dd2f209	0.10300071
194	0xbc9c2cf6	-0.019064408
195	0xbdb9bc9e	-0.09069179
196	0xbd967c1d	-0.073478915
197	0x3d64dd66	0.055875205
198	0x3c909b6d	0.017652238
199	0x3c998683	0.018740898
200	0x3d6e76bc	0.058218703
201	0xbd8b3c62	-0.067986265
202	0x3d4e4518	0.05035886
203	0x3d32463d	0.043524016
204	0x3e11a035	0.1422127
205	0xbe06be65	-0.13158567
206	0xbdff2e8f	-0.12460052
207	0xbd45455f	-0.04816186
208	0xbd9c85b3	-0.076426886
209	0x3d75df55	0.06002744
210	0xbe201640	-0.15633488
211	0xbe308715	-0.1723903
212	0xbe1d0b67	-0.15336381
213	0xbdebdf91	-0.11517251
214	0x3adf791e	0.0017049646
215	0x3d4768e5	0.04868402
216	0x3c0085b6	0.007844379
217	0xbc1cccd0	-0.0095703155
218	0xbce3ad13	-0.02779249
219	0x3e0167a2	0.12637189
220	0x3e754de0	0.23955488
221	0x3e16e6bb	0.14736454
222	0x3d256a69	0.040384684
223	0x3e13a65e	0.14418933
224	0x3cf98327	0.030458046
225	0xbb887b34	-0.0041650776
226	0xbe18c6bb	-0.1491956
227	0x3c684fa5	0.014179145
228	0x3d824166	0.0636013
229	0x3d2486ff	0.040167805
230	0xbdfb0f2d	-0.12258754
231	0xbe190065	-0.14941557
232	0x3cb8feea	0.02258249
233	0x3d928a03	0.0715523
234	0x3c890534	0.016726114
235	0xbdc1a5a4	-0.094554216
236	0xbd7638f9	-0.060112927
237	0xbcb8e461	-0.022569837
238	0x3d7ef2a7	0.06224313
239	0x3cee255d	0.02907055
240	0x3be63fde	0.0070266565
241	0x3d0b55ac	0.03401725
242	0x3d2d7c57	0.042354908
243	0x3da6245f	0.08112406
244	0xbdee1b4c	-0.116263
245	0x3cbe0567	0.023195935
246	0xbc7ac3ce	-0.015305473
247	0x3d920544	0.071299106
248	0x3d939002	0.07205202
249	0x3b841711	0.00403107
250	0x3d7d7a5d	0.061884273
251	0xbac268e5	-0.0014832286
252	0x3cf0ca54	0.029393353
253	0xbd3e756e	-0.04649871
254	0xbc622002	-0.013801577
255	0x3e16dbf7	0.14732347

conv2.bias f4 [20]
0	0x3d0ae910	0.033913672
1	0xbcdb7893	-0.026790893
2	0xbc81aae6	-0.015828561
3	0xbcf7c57d	-0.030245537
4	0x3d3c9216	0.046037756
5	0x3bafac4b	0.005361115
6	0xbcd97948	-0.02654709
7	0x3d95409e	0.072877154
8	0x3cc749df	0.024327217
9	0x3dda3146	0.106539294
10	0xbc9067a3	-0.017627543
11	0x3dba8ce5	0.09108905
12	0xbd93f989	-0.072253294
13	0x3cf8b23c	0.030358426
14	0x3d228e32	0.03968639
15	0x3d23db35	0.040003974
16	0xbd5662c9	-0.052340303
17	0xbd0a442c	-0.03375642
18	0xbc739309	-0.014866599
19	0x3d83220b	0.064029776

fc1.weight f4 [50, 320]
0	0x3dd2cbd2	0.10292782
1	0x3d1f57b0	0.038901985
2	0xbcb55146	-0.02213348
3	0x3d6054a6	0.054768227
4	0x3e2945c2	0.16530517
5	0x3d155072	0.03645367
6	0x3c539795	0.012914558
7	0x3d33f2dd	0.043932784
8	0x3c272a3c	0.010202941
9	0xbde45d69	-0.11150629
10	0xbdf93e6e	-0.12170111
11	0xbd920ac7	-0.07130962
12	0xbc81c001	-0.015838625
13	0xbce47f62	-0.027892772
14	0x3bd3c0d8	0.0064621978
15	0xbd37dd91	-0.044889037
16	0x3cdcfef7	0.026977045
17	0xbd008da5	-0.031385083
18	0x3c831914	0.01600317
19	0x3d62b153	0.05534489
20	0xbd4aa7e9	-0.049476538
21	0xbd053703	-0.032523166
22	0x3d31feee	0.04345601
23	0xbd8789de	-0.06618093
24	0x3d1c5fe4	0.038177386
25	0xbd038cbd	-0.03211664
26	0x3d586579	0.052831147
27	0x3d9f97c2	0.077926174
28	0x3cd23b72	0.025663111
29	0xbd2e327f	-0.042528626
30	0xbdc8dfae	-0.098082885
31	0x3cbae902	0.022816185
32	0x3d79470d	0.060858775
33	0x3d248227	0.040163185
34	0xbd8caf1b	-0.06869336
35	0xbd1da942	-0.038491495
36	0xbc84f1ff	-0.016228674
37	0xbced04d4	-0.028932966
38	0x3aba0764	0.0014192876
39	0xbd548ce5	-0.05189218
40	0xbbdcdb69	-0.006740023
41	0x3dbf7e37	0.093502454
42	0xbcbeb837	-0.0232812
43	0xbccf0abd	-0.025273675
44	0x3e14d7eb	0.14535491
45	0x3d016bab	0.03159682
46	0x3c06902a	0.008213082
47	0x3abf8e6e	0.0014614591
48	0xbd2066c5	-0.03916051
49	0xbc0904e2	-0.008362981
50	0xbd6e99ab	-0.058252018
51	0xbcef0342	-0.029176358
52	0x3d056bb8	0.03257343
53	0xbd32555c	-0.043538436
54	0xbc11042e	-0.008851094
55	0xbd130c0b	-0.035900157
56	0xbbbf1628	-0.0058314987
57	0xbcf45fcb	-0.029830834
58	0x3da99fc6	0.082824275
59	0x3d972e07	0.07381826
60	0xbcc6455a	-0.024202991
61	0x3d828e7e	0.063748345
62	0x3da86028	0.08221465
63	0x3d5267ad	0.051368404
64	0xbd4b4f4f	-0.04963618
65	0xbd466299	-0.048433874
66	0xbdc2bcbe	-0.09508656
67	0x3c8962dd	0.016770774
68	0xbcfb956b	-0.030710896
69	0xbdfacaee	-0.12245737
70	0x3db8a5d7	0.090160064
71	0x3dc9390b	0.09825333
72	0x3d765e4e	0.06014853
73	0xbd64ac00	-0.055828094
74	0xbd11cf14	-0.035597876
75	0xbd83b70a	-0.06431396
76	0x3d418bb8	0.047252387
77	0xbd627420	-0.055286527
78	0xbe183811	-0.14865138
79	0xbe222f32	-0.15838316
80	0x3d94705a	0.07247992
81	0x3ccb8112	0.024841819
82	0x3d37047a	0.044682004
83	0x3d35372a	0.04424206
84	0x3d13b98a	0.036065616
85	0xbe23a1a5	-0.15979631
86	0xbdc3ad47	-0.095545344
87	0xbda8192f	-0.082079284
88	0xbdf6d693	-0.120526455
89	0x3cb0bed9	0.021575378
90	0xbad19fcb	-0.0015993057
91	0xbdf27933	-0.11839523
92	0x3bd4fdc1	0.0064999764
93	0x3d244062	0.040100463
94	0x3ce46bf1	0.027883502
95	0xbe1b11b1	-0.15143467
96	0x3d5295bb	0.051412325
97	0x3dfcb5e5	0.12339381
98	0x3dcc69c6	0.09981112
99	0x3d75687d	0.0599141
100	0xbd838be2	-0.06423165
101	0x3b95b16b	0.004568269
102	0x3d2379d1	0.039911095
103	0xbe1265b2	-0.14296606
104	0xbdaa9b37	-0.08330386
105	0xbc88004e	-0.016601708
106	0x3d3433ae	0.043994598
107	0xbda09af4	-0.07842055
108	0x3d8e7264	0.06955412
109	0xbc73c191	-0.014877693
110	0xbd3b51ad	-0.04573219
111	0xbd457444	-0.048206583
112	0x3d5a8a88	0.05335477
113	0xbcb08597	-0.021548076
114	0xbc20addd	-0.009807077
115	0x3d4eaea4	0.05045952
116	0x3b8fd586	0.0043894676
117	0xbd7453bf	-0.05965018
118	0x3cb50181	0.022095444
119	0x3d23c96e	0.03998702
120	0xbb016b35	-0.0019747738
121	0xbc2d7ecd	-0.010589314
122	0x3d7c9016	0.06166085
123	0x3d891819	0.066940494
124	0x3cc6905c	0.024238758
125	0xbd089b91	-0.033351485
126	0xbc3ebe4f	-0.011642053
127	0xbcce2e1b	-0.02516847
128	0xbaf28beb	-0.0018504834
129	0xbd13763b	-0.036001425
130	0xbcaa11a7	-0.02076037
131	0xbcbc0266	-0.022950362
132	0xbc3ddbce	-0.01158805
133	0xbc24d52b	-0.010060589
134	0xbdbc57c3	-0.09196427
135	0xbcb681a4	-0.022278614
136	0x3c2a419e	0.010391621
137	0x3d5b59b7	0.053552356
138	0xbdbd5237	-0.09244197
139	0x3cb9d5d0	0.022684962
140	0x3d7ce544	0.061742082
141	0x3dbda287	0.09259515
142	0x3a59e383	0.0008311795
143	0x3ca8cc32	0.02060518
144	0x3d1a913e	0.03773617
145	0xbd686c60	-0.05674398
146	0xbd817b0c	-0.063222975
147	0x3da1a34f	0.07892477
148	0x3d98a6c0	0.0745368
149	0xbe072d51	-0.1320088
150	0x3bc97222	0.006147639
151	0x3da939f4	0.08263007
152	0xbcd56e7d	-0.026053661
153	0xbe0f34bd	-0.13984962
154	0xbe0898b7	-0.13339506
155	0x3cb99b7a	0.022657145
156	0xbd5643cb	-0.052310746
157	0xbd65d1e3	-0.056108367
158	0xbe3bf58c	-0.18355387
159	0xbe0d2e82	-0.13787273
160	0xbd98fae7	-0.07469731
161	0xbd41564b	-0.047201436
162	0xbd92b84c	-0.07164058
163	0xbb1b5d13	-0.00237066
164	0x3d042eb2	0.032271095
165	0x3cc493d3	0.02399627
166	0xbdb6e0d9	-0.08929605
167	0xbd042aed	-0.0322675
168	0x3c91e5e4	0.017809816
169	0x3d02368a	0.031790294
170	0xbe1d8c8f	-0.1538565
171	0xbbb9fc16	-0.005675803
172	0x3cdaf96e	0.026730265
173	0x3d7d7341	0.061877493
174	0xbd90a934	-0.07063523
175	0xbcf15ccc	-0.029463194
176	0x3b491b20	0.0030686334
177	0x3ca10481	0.019655468
178	0xbc116901	-0.008875133
179	0x3cc5e8bf	0.024158834
180	0xbe392d0b	-0.18083589
181	0xbdbdf149	-0.09274537
182	0xbe16efe4	-0.14739949
183	0x3d49911c	0.049210653
184	0xbdc05dc6	-0.09392886
185	0x3cba0070	0.022705287
186	0x3c802f4a	0.01564755
187	0xbdd00f18	-0.10159129
188	0xbd8b3a96	-0.06798284
189	0x3dbed9de	0.093188986
190	0xbbd582d0	-0.006515838
191	0xbe6c5b6f	-0.23081754
192	0x3ce5f814	0.028072394
193	0xbd8b76b5	-0.06809751
194	0xbcc9d8b4	-0.024639465
195	0x3bc05691	0.0058696945
196	0x3bfd59cc	0.007731652
197	0x3cf9991d	0.030468518
198	0xbd66f4c3	-0.056385767
199	0x3d7562f1	0.05990881
200	0x3dcf178a	0.101119116
201	0xbcc30356	-0.023805302
202	0xbaaa76da	-0.0013005391
203	0x3d19e7b2	0.037574477
204	0x3ac32c25	0.0014890475
205	0x3d21ae39	0.039472792
206	0x3a088b27	0.00052087236
207	0xbb4ba632	-0.0031074402
208	0x3c8fc4d4	0.01754991
209	0xbc7f2ed9	-0.015575134
210	0x3d0959be	0.03353285
211	0xbba90fd3	-0.005159357
212	0xbd94f4cb	-0.07273253
213	0xbc4c293b	-0.012461002
214	0xbcdf48e1	-0.027256431
215	0xbd393a7d	-0.045221794
216	0x3d6315d1	0.055440728
217	0x3c87a5cd	0.016558552
218	0xbdb937e7	-0.09043866
219	0x3d68cf6e	0.056838445
220	0x3d43ffd3	0.047851395
221	0xbcba2060	-0.022720516
222	0x3d484c62	0.04890097
223	0x3cfdd0c1	0.03098333
224	0x3b1da822	0.0024056514
225	0x3ca9147d	0.020639652
226	0x3b89098f	0.0041820477
227	0x3d0d0f8c	0.034438655
228	0x3cd441b6	0.02591024
229	0x3d643391	0.05571324
230	0x3d526839	0.051368926
231	0xbd1e9a9d	-0.03872167
232	0x3c5e0930	0.013551995
233	0x3d6400e6	0.05566492
234	0xbd272118	-0.040803045
235	0xbc573c92	-0.013137
236	0x3b6b3fda	0.0035896213
237	0x3d4822fa	0.04886148
238	0x3ce96428	0.028490141
239	0x3cb6b31f	0.022302208
240	0xbd0bb910	-0.034112036
241	0xbc606101	-0.0136950025
242	0x3b51a5a9	0.003198961
243	0xbd9b3e7b	-0.075802766
244	0x3d646c5d	0.055767406
245	0xbd99536c	-0.074866146
246	0x3d9983d1	0.07495845
247	0xbc4c1078	-0.012455098
248	0xbd1af8d3	-0.037834954
249	0x3d7becf9	0.06150529
250	0x3b9cce56	0.0047853393
251	0x3cda2592	0.026629243
252	0x3b8596ae	0.0040768003
253	0x3e08f644	0.13375193
254	0x3a65c1e7	0.00087645504
255	0xbd90d48f	-0.07071792

fc1.bias f4 [50]
0	0x3d8ccac5	0.06874613
1	0x3c64df13	0.013969201
2	0x3dd35edb	0.103208266
3	0x3e1178c7	0.14206229
4	0x3d1437cb	0.03618602
5	0x3e0e5694	0.13900214
6	0x3d787de4	0.060666934
7	0x3e166b86	0.14689454
8	0x3d23d507	0.03999808
9	0xbd0a01ec	-0.03369324
10	0x3d61383f	0.05498528
11	0x3ccff3b7	0.025384767
12	0x3e1e8ab0	0.15482593
13	0x3e18086c	0.14846963
14	0x3df2051e	0.11817382
15	0x3dfad75d	0.122481085
16	0x3cb968ed	0.02263304
17	0x3e07bdad	0.1325595
18	0x3cc52a19	0.024067925
19	0x3df4499c	0.119281024
20	0x3dd76f15	0.10519234
21	0x3dafdfa5	0.08587579
22	0x3c2c0f43	0.010501686
23	0x3c5d1af4	0.013495196
24	0x3dbe9927	0.09306555
25	0xbc0326e2	-0.008004876
26	0xbd151475	-0.036396462
27	0x3ce0d4bd	0.027445192
28	0x3ded9a53	0.11601701
29	0x3d8676e2	0.06565644
30	0x3db790eb	0.08963188
31	0x3dd4bb4a	0.10387285
32	0x3da31834	0.07963601
33	0x3dd2b733	0.10288849
34	0xbc32604c	-0.010887217
35	0x3d7d653a	0.061864115
36	0x3e02b111	0.12762858
37	0x3dbe06be	0.0927863
38	0xbb5301a1	-0.0032197016
39	0x3d839499	0.06424827
40	0x3d249c0a	0.040187873
41	0x3dd49dec	0.10381684
42	0x3c9bf6fa	0.019038666
43	0xbc8f527f	-0.017495392
44	0x3e16d772	0.14730623
45	0x3c950881	0.018192532
46	0x3e1c2013	0.1524661
47	0x3d0fe33e	0.035128824
48	0xbce04cb9	-0.027380334
49	0x3d516a6f	0.051126894

fc2.weight f4 [10, 50]
0	0x3e575fbc	0.21032614
1	0xbe2ee344	-0.17078882
2	0x3ddf3bad	0.10900054
3	0xbe11e359	-0.14246882
4	0xbe5f9c96	-0.21837077
5	0xbe6e574e	-0.23275492
6	0x3dd48a87	0.103779845
7	0xbe2c7803	-0.16842656
8	0xbdfc5460	-0.12320781
9	0x3a1b7004	0.00059294724
10	0xbe66c88c	-0.2253744
11	0x3d89af2e	0.06722866
12	0xbe0d05f2	-0.13771799
13	0xbe17b1c5	-0.14813907
14	0xbda445d1	-0.08021129
15	0xbe47c019	-0.19506873
16	0xbe8103e8	-0.25198293
17	0xbe661cd6	-0.22471938
18	0x3e1262f1	0.14295556
19	0xbdfb1241	-0.12259341
20	0x3e1ed42b	0.15510623
21	0x3d275ce3	0.040860068
22	0xbe12b6cc	-0.14327544
23	0x3dcc3b4d	0.09972248
24	0xbe85887d	-0.26080695
25	0x3e13c24e	0.1442959
26	0xbd978f2a	-0.07400353
27	0xbe3796e6	-0.17928657
28	0xbde09101	-0.10965157
29	0x3e02c39d	0.12769933
30	0xbe3d21e1	-0.18469955
31	0xbd7aa063	-0.061188113
32	0x3e0748b0	0.13211322
33	0x3cee2d93	0.029074466
34	0xbd965fd6	-0.07342498
35	0x3dd9dbdf	0.1063764
36	0x3e07877e	0.1323528
37	0x3dbeb082	0.0931101
38	0x3e21e098	0.15808332
39	0x3e32135a	0.17390195
40	0x3dad5add	0.084645964
41	0x3dc11272	0.09427346
42	0xbdc766b8	-0.09736389
43	0x3e41009e	0.18847892
44	0xbe4f52ad	-0.20246382
45	0x3c0c87be	0.008577285
46	0x3e1e2115	0.15442307
47	0xbcec0a17	-0.028813405
48	0xbd55f771	-0.05223793
49	0x3d8829ec	0.06648621
50	0xbdc4c5de	-0.09608053
51	0xbd9bba88	-0.076039374
52	0xbe87ed13	-0.2654806
53	0x3e3a406f	0.18188642
54	0x3e068b36	0.13139042
55	0x3dc7ab39	0.09749455
56	0x3e034918	0.12820852
57	0x3e1eba0a	0.15500656
58	0xbe6f2fb5	-0.23358043
59	0xbe2b707b	-0.16742127
60	0xbdbe5d9c	-0.09295198
61	0xbd8fac6b	-0.07015308
62	0x3d78ba64	0.06072463
63	0x3dc613d3	0.0967175
64	0xbe60279e	-0.21890113
65	0x3e1403bc	0.1445455
66	0xbdfbbce1	-0.12291885
67	0x3e0edf9f	0.13952492
68	0x3dfc9567	0.12333184
69	0x3df42918	0.119219005
70	0xbe04ef2a	-0.12981859
71	0xbe55a8f6	-0.20865235
72	0xbe834520	-0.25638676
73	0x3e16108c	0.1465475
74	0x3dda3b3d	0.1065583
75	0xbe825b7a	-0.25460416
76	0xbe609f43	-0.21935754
77	0xbe02f473	-0.12788562
78	0x3dde0948	0.10841614
79	0xbc9a0f68	-0.018806174
80	0x3d95fe50	0.07323897
81	0x3de5aea9	0.112149544
82	0x3de4ea61	0.11177517
83	0x3d7f40c9	0.062317643
84	0xbe2096db	-0.15682547
85	0xbe28a998	-0.16470945
86	0xbe85540b	-0.26040682
87	0x3d4a1a86	0.0493417
88	0xbead73e7	-0.3387749
89	0xbe5d7d10	-0.21629739
90	0xbe371a14	-0.17881042
91	0xbd88c1c6	-0.06677584
92	0xbe360a52	-0.17777374
93	0xbd5083af	-0.050906833
94	0x3dad4aad	0.08461509
95	0xbe74d0a4	-0.23907715
96	0x3e29d9ae	0.16586944
97	0xbe80fabe	-0.251913
98	0xbdbc989d	-0.09208796
99	0xbe7d4533	-0.24733429
100	0xbd95669a	-0.0729496
101	0xbdff4e0d	-0.12466059
102	0xbe59a01d	-0.21252485
103	0xbc16c398	-0.009201907
104	0xbe205769	-0.15658344
105	0xbec80019	-0.39062575
106	0x3e0c3687	0.13692676
107	0xbdcade63	-0.09905698
108	0xbe49fa4d	-0.19724388
109	0x3decbb2d	0.115591384
110	0xbd44f0f5	-0.048081357
111	0x3d9106e9	0.07081396
112	0xbe436a95	-0.19083627
113	0xbddc6a6c	-0.10762486
114	0xbe5cc1f0	-0.21558356
115	0x3dedca15	0.1161081
116	0xbde41527	-0.11136847
117	0xbe751754	-0.2393468
118	0x3e0b7a3c	0.13620847
119	0x3e0423c7	0.12904273
120	0xbde1903d	-0.110138394
121	0x3d87ba9b	0.06627389
122	0x3c3bee59	0.011470401
123	0x3c1660fb	0.009178395
124	0x3e1a7747	0.15084563
125	0x3df42ab4	0.119222075
126	0x3dfba808	0.12287909
127	0xbdd69587	-0.10477739
128	0x3ddd5353	0.108069085
129	0x3dd886ee	0.10572611
130	0x3dc5e304	0.096624404
131	0x3e00d814	0.12582427
132	0x3dfc4248	0.1231733
133	0x3c87004d	0.016479636
134	0xbe5211f8	-0.20514667
135	0x3dbb5c47	0.0914846
136	0xbe39d252	-0.18146637
137	0x3ded40a5	0.115845956
138	0xbdc21d33	-0.094782256
139	0xbdbfec57	-0.0937125
140	0xbc1afa08	-0.009459026
141	0x3dc794c0	0.09745169
142	0x3e00c7f5	0.12576278
143	0x3e14d432	0.14534071
144	0x3d6a6c44	0.057232156
145	0x3dbe420d	0.09289942
146	0xbe4c2888	-0.19937336
147	0xbdeb756d	-0.114970066
148	0xbda6bf64	-0.081419736
149	0xbcbc522f	-0.022988407
150	0xbdb5d9d7	-0.0887944
151	0xbdc35b96	-0.09538953
152	0xbe493be9	-0.1965176
153	0xbe883765	-0.26604763
154	0xbdf7cabd	-0.12099216
155	0xbe07f3b2	-0.13276556
156	0xbdf88f05	-0.12136654
157	0xbe6c33dd	-0.2306666
158	0x3db1e733	0.08686676
159	0x3e0d1584	0.13777739
160	0x3e039fb4	0.1285389
161	0x3e04e36b	0.12977378
162	0x3dc0cc2f	0.09413945
163	0xbe598a80	-0.2124424
164	0xbdde018e	-0.1084014
165	0x3e0e758c	0.13912028
166	0xbb566a31	-0.0032717104
167	0x3ddafd10	0.10692799
168	0xbd1d632b	-0.038424652
169	0x3d86bf4a	0.06579454
170	0xbe040514	-0.12892562
171	0x3e000ca4	0.12504822
172	0xbe49a10d	-0.19690342
173	0xbe41b242	-0.18915656
174	0xbd910eb6	-0.07082884
175	0xbe0870e6	-0.13324317
176	0xbe0644ab	-0.13112132
177	0x3e06966e	0.13143322
178	0x3e0cc98a	0.13748756
179	0x3df693b2	0.120398894
180	0x3dc68569	0.09693415
181	0x3d146635	0.036230285
182	0xbe524157	-0.20532738
183	0x3dd085ba	0.10181756
184	0x3d473d27	0.048642304
185	0xbd8d979f	-0.06913685
186	0x3cbc6de4	0.023001619
187	0x3e0d9723	0.13827185
188	0xbe137793	-0.14401083
189	0xbb3f2887	-0.0029168443
190	0xbd3a09f0	-0.045419633
191	0x3dcd2175	0.10016147
192	0x3cd844e6	0.02640004
193	0xbd70fcdd	-0.0588349
194	0x3db7dd82	0.08977796
195	0xbd880ceb	-0.06643089
196	0xbe34d6d0	-0.1766007
197	0xbe447c22	-0.19187978
198	0xbdbcf9f9	-0.09227366
199	0x3db3d2c0	0.08780432
200	0x3c0c5a31	0.008566425
201	0x3db78def	0.089626186
202	0xbe32b0f5	-0.17450316
203	0x3e1f0bcb	0.15531842
204	0x3de63349	0.112402506
205	0x3b929f66	0.004474568
206	0x3e033896	0.12814555
207	0x3e282cb3	0.16423301
208	0x3ce44b9d	0.027868086
209	0x3e0656d8	0.13119066
210	0x3ddcdd14	0.10784355
211	0xbe148b16	-0.14506182
212	0x3d93b779	0.07212729
213	0x3d22f254	0.039781883
214	0x3da2bc0d	0.07946024
215	0x3e04d156	0.1297048
216	0x3e031e86	0.12804613
217	0x3b735c08	0.0037133712
218	0x3dbae502	0.09125711
219	0xbe2a6b4a	-0.1664249
220	0xbda855b2	-0.0821947
221	0xbdba4eca	-0.09097059
222	0x3e0a53c3	0.13508515
223	0x3e20a59b	0.15688173
224	0xbd671925	-0.056420464
225	0x3d3206b4	0.043463424
226	0x3e0b6f0d	0.13616581
227	0x3e05b76b	0.1305825
228	0xbd836329	-0.06415398
229	0xbe340aea	-0.17582288
230	0xbe02e132	-0.12781218
231	0xbd8624d1	-0.06549991
232	0x3d99c4d2	0.075082436
233	0xbe3d052a	-0.18459001
234	0x3dbc5a90	0.09196961
235	0xbe296af1	-0.16544701
236	0x3dc3e81f	0.09565758
237	0xbe07d681	-0.1326542
238	0x3e0c9ad7	0.13730942
239	0x3d8294e6	0.063760564
240	0xbe0474ba	-0.12935153
241	0xbe4de999	-0.20108642
242	0xbe65b2d4	-0.22431499
243	0x3bf898ab	0.007586559
244	0xbe14a956	-0.14517722
245	0x3dbe9d85	0.09307388
246	0xbdef6f61	-0.11691166
247	0x3e1377db	0.1440119
248	0x3e51605d	0.20446916
249	0xbe8e3f6d	-0.27782765
250	0xbd4b6d24	-0.04966463
251	0x3dc265ec	0.09492096
252	0x3dfd5435	0.12369577
253	0xbe01a80b	-0.1266176
254	0x3e1921bd	0.14954276
255	0x3d0826c2	0.033240087

fc2.bias f4 [10]
0	0xbe01611d	-0.12634702
1	0x3e887d43	0.26658067
2	0xbbc038cc	-0.0058661457
3	0x3c0e8a7a	0.008700008
4	0xbe68dc8c	-0.22740382
5	0x3dac38b3	0.08409252
6	0xbd708b21	-0.058726434
7	0x3cb1a26a	0.02168389
8	0x3e3f53c6	0.18684301
9	0xbeb00c76	-0.34384507

exp_avg f4 [10, 1, 5, 5]
0	0x3b0797fa	0.002068995
1	0x3ac51808	0.0015037069
2	0x3a86127f	0.0010228901
3	0x3b2cfeaa	0.0026396909
4	0xbb13437b	-0.0022470641
5	0x3aa165fe	0.0012313721
6	0x3a9f6f98	0.0012163995
7	0x39e90b65	0.00044449713
8	0x3b5b0ed3	0.0033425584
9	0x3b802441	0.003910572
10	0x3b39b2a8	0.0028335247
11	0x3ab87f26	0.0014075979
12	0x3ad00b27	0.0015872464
13	0x3c051fed	0.0081252875
14	0x3c238177	0.009979597
15	0x3b45bff7	0.0030174234
16	0x3b860ff7	0.0040912586
17	0x3bb5710e	0.005537159
18	0x3c4aa949	0.012369462
19	0x3c775f1a	0.015098358
20	0x3bbf079d	0.005829765
21	0x3c259c28	0.010108031
22	0x3c26c040	0.010177672
23	0x3c2cba19	0.010542416
24	0x3c1ca59d	0.00956097
25	0x3c043fb0	0.008071825
26	0x3bd09997	0.0063659656
27	0x3bafd069	0.0053654206
28	0x3b3c1aee	0.0028702575
29	0xb9341f30	-0.00017177756
30	0x3bc01a7b	0.0058625317
31	0x3ba66a81	0.005078614
32	0x3b9df5f0	0.004820578
33	0x3b843403	0.0040345206
34	0x3b32f5c4	0.0027307132
35	0x3a984960	0.0011618547
36	0x3a0e1e93	0.0005421426
37	0x3aa7d2ed	0.001280395
38	0x3b8f7255	0.004377643
39	0x3af9e899	0.0019066512
40	0xbab0f783	-0.0013501499
41	0x39fae397	0.00047853283
42	0xba4cf567	-0.000781855
43	0xb96ed7f7	-0.00022777902
44	0xbb186bd4	-0.002325763
45	0xbb40c788	-0.0029415805
46	0xbb0615f5	-0.0020459865
47	0xba81621d	-0.0009871159
48	0x38b668fb	8.6979904e-05
49	0xb6720487	-3.6063445e-06
50	0x3bbb25b3	0.005711281
51	0xbb106224	-0.0022031153
52	0xbbfdcb2f	-0.0077451686
53	0xbc22427d	-0.009903547
54	0xbbf1c3a5	-0.007378059
55	0xba280337	-0.00064091705
56	0xbba5920d	-0.005052811
57	0xbb83e630	-0.004025243
58	0xbb53cd30	-0.0032318346
59	0xbb0c77df	-0.0021433753
60	0x3a84cd84	0.0010132049
61	0x3b08fe5e	0.0020903568
62	0x3a8a7115	0.0010562266
63	0x3a2a6e8e	0.0006501459
64	0x3a126a6c	0.0005585316
65	0x3ba6690e	0.0050784415
66	0x3bcc986a	0.006243755
67	0x3b4e9ac5	0.0031525355
68	0x3ae1ea87	0.0017236032
69	0x3ac6eebd	0.0015177351
70	0x3c0012b6	0.007816961
71	0x3c06af41	0.008220495
72	0x3b1b7fa0	0.0023727193
73	0x3a262af2	0.0006338797
74	0x3b2dd19f	0.002652265
75	0x3ac709cc	0.0015185415
76	0x3b2ed1f7	0.0026675442
77	0x3b4358d5	0.0029807587
78	0x3b888bac	0.004167041
79	0x3aeb465e	0.0017950048
80	0x3b0505a2	0.0020297547
81	0x3b42db57	0.0029732788
82	0x3a470051	0.00075912947
83	0x3b34f728	0.0027613137
84	0xbabcadf0	-0.0014395099
85	0x3b48ed9b	0.0030659202
86	0x3b5b1795	0.0033430804
87	0x3adf2836	0.0017025534
88	0x3add3ef0	0.0016879719
89	0xbad5fba0	-0.00163256
90	0x3b2457ab	0.0025076668
91	0x3a71ceb3	0.0009224221
92	0xb806331a	-3.199568e-05
93	0x3b1b7f3b	0.0023726958
94	0x3aafd6a4	0.0013415408
95	0x3b22f241	0.0024863633
96	0x3aeb3bcd	0.0017946899
97	0x3b031e17	0.0020006949
98	0x3bce938a	0.006304209
99	0x3b5564d9	0.003256133
100	0x3c2a451a	0.010392452
101	0x3c1b0044	0.009460513
102	0x3be87822	0.007094399
103	0x3bc08044	0.0058746655
104	0x3bc4041e	0.005981936
105	0x3bf2524e	0.0073950654
106	0x3c1748ed	0.009233695
107	0x3bdb552f	0.0066935043
108	0x3bc02c5b	0.0058646626
109	0x3bdf9f99	0.0068244454
110	0x3b9fb757	0.0048741507
111	0x3bfaf141	0.0076581542
112	0x3bd0c364	0.0063709486
113	0x3bf5aee1	0.007497654
114	0x3c092be3	0.00837228
115	0x3b03a6df	0.0020088477
116	0x3bb7a013	0.005603799
117	0x3be14eb6	0.006875838
118	0x3c01566b	0.007894139
119	0x3c01bb4e	0.007918192
120	0x3a0afb23	0.00053017045
121	0x3b7dd974	0.0038734348
122	0x3bdb165c	0.006686015
123	0x3be94506	0.007118824
124	0x3befae15	0.0073144534
125	0x3adf6db6	0.0017046246
126	0x3bf3410b	0.007423525
127	0x3c0561ab	0.008140962
128	0x3c27f959	0.01025232
129	0x3c3c3f4d	0.011489701
130	0x3b5b2487	0.003343852
131	0x3bc8c7e9	0.006127347
132	0x3afc7ad4	0.001926268
133	0x3b6560b7	0.0035000273
134	0x3bdfc421	0.0068288003
135	0x3b7ae6c6	0.0038284524
136	0x3ace5e29	0.0015744615
137	0xbb61c948	-0.0034452248
138	0xbb9bd3c8	-0.004755471
139	0xb7edcbe7	-2.8347551e-05
140	0x3b4b1bf0	0.0030991994
141	0xb9f0acdf	-0.00045905166
142	0xbb9be4f1	-0.0047575166
143	0xbbb284e9	-0.005447973
144	0xbbb299de	-0.0054504713
145	0x3a673aab	0.0008820693
146	0xbba37e9b	-0.004989458
147	0xbbf162a1	-0.007366494
148	0xbbdf4006	-0.006813052
149	0xbb82146b	-0.003969719
150	0x3ae28265	0.0017281292
151	0x3ad4959d	0.0016218905
152	0x3b1a72c9	0.0023566952
153	0x3b803634	0.0039127115
154	0x3b78e602	0.0037978892
155	0x3b1d53a3	0.002400615
156	0x3b1bd8ff	0.0023780463
157	0x3b4c89f1	0.003121015
158	0x3b925526	0.004465717
159	0x3b71fa2b	0.0036922793
160	0x3a4cf165	0.0007817953
161	0x3aa558a2	0.0012614916
162	0x3a18675c	0.00058137416
163	0xba8168e5	-0.000987318
164	0xba98cfd1	-0.0011658614
165	0x3b69cb67	0.0035674216
166	0xb8d4e482	-0.00010151511
167	0xbb46191f	-0.0030227376
168	0xbb4b4d08	-0.0031021256
169	0xbb827d93	-0.003982255
170	0x3b81f2d6	0.003965716
171	0x3a42162f	0.00074038183
172	0x39903206	0.0002750309
173	0xbb1b52e8	-0.002370054
174	0xba6e7910	-0.0009097019
175	0x3ad8c9b2	0.0016539602
176	0x3b442da4	0.002993443
177	0x3b431685	0.0029768061
178	0x39d9f52d	0.00041572136
179	0xbc1da8f2	-0.009622799
180	0x3a7ee06c	0.00097227725
181	0x3a74e102	0.000934139
182	0xb9d570d3	-0.00040710586
183	0xba72a59e	-0.0009256246
184	0xbc0ec58d	-0.008714092
185	0x3ad5f3d5	0.0016323278
186	0xba6c0e35	-0.00090048026
187	0xbb83c67a	-0.004021463
188	0xbb19c129	-0.002346108
189	0xbbdd8327	-0.0067600193
190	0xb842c6e5	-4.643844e-05
191	0xbb966756	-0.0045899553
192	0xbbc5f32a	-0.0060409503
193	0xbb05a4e4	-0.0020392472
194	0xbb9e3992	-0.0048286403
195	0xbab32d70	-0.0013670158
196	0xbbb190b7	-0.0054188627
197	0xbb98718b	-0.0046522073
198	0xba64678e	-0.00087129406
199	0xbb58854c	-0.0033038436
200	0xbbcb9d32	-0.0062138075
201	0xbb64156e	-0.0034802812
202	0xbafa99f3	-0.0019119367
203	0xba3ef524	-0.00072844536
204	0xbaa4cf73	-0.0012574032
205	0xbb7c04d3	-0.0038455024
206	0x3a35fdcb	0.000694242
207	0x3af21d16	0.0018471803
208	0x3a5851f7	0.000825196
209	0xbb1a5ed3	-0.0023555055
210	0x3a2a42df	0.000649495
211	0x3b199cc4	0.0023439387
212	0x3a324623	0.00068006123
213	0xbb4d0f76	-0.0031289733
214	0xbb86a458	-0.004108947
215	0x3b38cc37	0.0028197893
216	0x3ad552c3	0.0016275275
217	0xb98c3323	-0.0002674098
218	0xbabddab9	-0.001448474
219	0x3ab83edc	0.001405682
220	0x3b9ea403	0.004841329
221	0x3acef221	0.0015788713
222	0x3a281b6e	0.0006412779
223	0x3b5605b5	0.003265721
224	0x3bc45bf6	0.005992408
225	0x3af0b4ca	0.0018364426
226	0x3ac36e11	0.0014910122
227	0x39e61a5d	0.0004388866
228	0x3b09bcaa	0.0021016994
229	0x3aaf00b6	0.0013351652
230	0x3af517ea	0.0018699144
231	0x3b51fd7c	0.0032041958
232	0x3b5a4f13	0.0033311292
233	0x3b242112	0.0025044126
234	0x3aa5f112	0.0012660346
235	0x3b0b29f7	0.002123473
236	0x3b8257b1	0.003977739
237	0x3b81be69	0.0039594662
238	0x3b3c241b	0.0028708044
239	0x3b26888f	0.0025410985
240	0x3b6e9ebf	0.0036410538
241	0x3b6c1a6a	0.0036026486
242	0x3bbfa463	0.005848454
243	0x3bb5f56b	0.0055529377
244	0x3b5806d6	0.003296306
245	0x3bc171c9	0.005903457
246	0x3b322535	0.0027182822
247	0x3b548cc0	0.0032432526
248	0x3bd2ef14	0.0064371917
249	0x3b1bd94f	0.002378065

exp_avg_sq f4 [10, 1, 5, 5]
0	0x3a1ee744	0.0006061683
1	0x39fc2d93	0.0004809914
2	0x39864395	0.00025608824
3	0x398aa032	0.00026440766
4	0x39f1cc27	0.00046119207
5	0x3a240318	0.00062565645
6	0x39d3448a	0.00040296122
7	0x396cf554	0.00022598106
8	0x39a49653	0.00031392518
9	0x3a36980a	0.00069654046
10	0x3a2db967	0.00066270534
11	0x3a0ad91b	0.00052966335
12	0x39d79ef9	0.0004112644
13	0x3a294b57	0.0006458065
14	0x3a932ae7	0.0011227996
15	0x3a47fb02	0.00076286506
16	0x3a4f9124	0.0007918051
17	0x3a7ea580	0.00097139925
18	0x3aaeac51	0.0013326501
19	0x3ac62ed3	0.0015120156
20	0x3a60ce04	0.00085756206
21	0x3a86eee3	0.0010294582
22	0x3ab296fe	0.0013625321
23	0x3adc94c5	0.0016829005
24	0x3ac33e8e	0.0014895962
25	0x397778df	0.00023600784
26	0x397befae	0.00024026513
27	0x39810dfb	0.00024615214
28	0x39651390	0.0002184643
29	0x392aea7c	0.00016299816
30	0x398832bb	0.0002597774
31	0x397a8d6e	0.00023894545
32	0x396a8858	0.00022366771
33	0x39592d84	0.00020711689
34	0x3944f949	0.00018784883
35	0x393e66ce	0.0001815811
36	0x39240df7	0.00015645461
37	0x39356e0e	0.00017302504
38	0x3940d6a8	0.00018390513
39	0x39561177	0.00020415137
40	0x390c498b	0.00013378837
41	0x3912525f	0.0001395433
42	0x39351243	0.00017268308
43	0x39753d0b	0.00023387761
44	0x397fac00	0.0002438277
45	0x39262680	0.00015845336
46	0x39444fc4	0.00018721732
47	0x397c19f7	0.00024042265
48	0x399921b4	0.00029207545
49	0x3991593b	0.00027723037
50	0x3a04cdfb	0.0005066094
51	0x3a1d99ff	0.0006012022
52	0x3a1997be	0.0005859098
53	0x39e7d099	0.0004421517
54	0x3997b4e2	0.00028935733
55	0x3a1a7844	0.0005892555
56	0x3a258c4d	0.0006315157
57	0x39ff93fa	0.0004874764
58	0x39850179	0.00025368834
59	0x393a27a3	0.00017753108
60	0x3a29edc1	0.00064822665
61	0x3a107001	0.0005509854
62	0x39741070	0.00023275777
63	0x38df551b	0.00010649321
64	0x38e42f0c	0.000108806504
65	0x3a193321	0.00058441056
66	0x39c4232d	0.0003741024
67	0x3908558a	0.00013001836
68	0x38a562c4	7.88621e-05
69	0x38f4afc8	0.000116675685
70	0x39fcf3f0	0.00048246933
71	0x399a5639	0.0002943741
72	0x391b4924	0.00014809199
73	0x38f861c3	0.00011843771
74	0x395ec988	0.00021246646
75	0x39a6474d	0.0003171511
76	0x39af885d	0.000334802
77	0x39b192e6	0.0003386952
78	0x39d8d165	0.00041354742
79	0x39f74ddf	0.0004716953
80	0x397612d2	0.000234674
81	0x398c2843	0.00026732878
82	0x39ad1980	0.0003301613
83	0x39dd4214	0.00042201637
84	0x39db9fce	0.0004189
85	0x393c97ef	0.00017985677
86	0x39811e62	0.00024627434
87	0x39b85949	0.00035161737
88	0x39ce640d	0.00039365925
89	0x39b31558	0.00034157443
90	0x397df1d8	0.00024218054
91	0x39a8dfc5	0.00032210178
92	0x39bd8770	0.00036149798
93	0x39b318e5	0.00034160088
94	0x39893383	0.00026169055
95	0x39a6d0f5	0.00031817672
96	0x39bd74f5	0.0003613603
97	0x39bc67bb	0.0003593544
98	0x39a69eb0	0.0003178022
99	0x3980767a	0.00024502334
100	0x39887e7f	0.00026034188
101	0x3942c9a4	0.00018576399
102	0x393df74d	0.00018116571
103	0x391b9143	0.00014836066
104	0x39020f27	0.00012403411
105	0x395ccd5f	0.00021057342
106	0x3959525b	0.00020725412
107	0x39730402	0.00023175779
108	0x393d6ba7	0.00018064548
109	0x3910525c	0.00013763591
110	0x393a38de	0.00017759527
111	0x3926402c	0.000158549
112	0x394f406c	0.00019765057
113	0x393dfa0e	0.00018117597
114	0x3928a6fc	0.00016083935
115	0x391586af	0.00014259921
116	0x391a6c9f	0.00014727049
117	0x39491653	0.0001917717
118	0x39598559	0.00020744409
119	0x396587dd	0.00021889755
120	0x3935bf05	0.00017332665
121	0x396c7039	0.0002254852
122	0x398500c3	0.00025368304
123	0x396e4238	0.00022722117
124	0x397b4fb0	0.00023966911
125	0x3a9c446d	0.0011922248
126	0x3a9e719d	0.0012088303
127	0x3a8d5949	0.0010784055
128	0x3a8d952b	0.0010801902
129	0x3a9ef41e	0.0012127196
130	0x3a9a8c02	0.0011790993
131	0x3a86f2e1	0.0010295772
132	0x3a6032dc	0.00085525005
133	0x3a6bc5d6	0.00089940184
134	0x3a8be5f3	0.0010673389
135	0x3a453833	0.0007523328
136	0x3a057083	0.0005090313
137	0x3a0008b6	0.00048841105
138	0x3a37633a	0.0006995682
139	0x3a6573c1	0.00087529054
140	0x39c352de	0.0003725504
141	0x39734104	0.00023198506
142	0x399a8ff1	0.00029480414
143	0x3a098bbd	0.0005246958
144	0x3a40bf83	0.0007352756
145	0x39701f83	0.00022899923
146	0x392e34f6	0.00016613663
147	0x39864644	0.00025610824
148	0x39e64031	0.00043916845
149	0x3a2a699e	0.00065007235
150	0x38f66fde	0.00011751031
151	0x38b9c328	8.857838e-05
152	0x38c2808e	9.274586e-05
153	0x38fe0109	0.000121118566
154	0x3932aa84	0.00017038925
155	0x3921e128	0.00015438034
156	0x38f615b8	0.000117342395
157	0x3901b40d	0.00012369473
158	0x3929ae18	0.00016181951
159	0x39820ad4	0.000248036
160	0x3970c9f6	0.0002296342
161	0x39692b34	0.00022236706
162	0x395d3055	0.00021094207
163	0x399119d0	0.00027675787
164	0x39ab276a	0.00032645027
165	0x3987198a	0.00025768235
166	0x3988322f	0.0002597733
167	0x398d771a	0.00026982353
168	0x39a14aca	0.00030764035
169	0x398c2f59	0.00026738158
170	0x395f62fd	0.00021303813
171	0x39593dfd	0.00020717825
172	0x39685e67	0.00022160412
173	0x3964d7e4	0.000218242
174	0x39339f63	0.00017130146
175	0x38aeec81	8.341019e-05
176	0x38fc3416	0.00012025998
177	0x39a5f19f	0.00031651274
178	0x3a22cb4f	0.0006210105
179	0x3a2aaa7c	0.00065103895
180	0x3870c982	5.7408128e-05
181	0x38cb5280	9.695161e-05
182	0x39bf7957	0.00036520764
183	0x3a3afc29	0.00071329117
184	0x3a32a811	0.0006815205
185	0x384ca981	4.8795253e-05
186	0x38c6f37a	9.486727e-05
187	0x39f1d78f	0.00046127706
188	0x3a666b2f	0.00087897753
189	0x3a3b1f2b	0.0007138128
190	0x38775bc5	5.8974856e-05
191	0x392b1029	0.00016313851
192	0x3a299d00	0.0006470233
193	0x3a811aa3	0.0009849857
194	0x3a419d1c	0.0007385777
195	0x38fa586d	0.000119373995
196	0x39c276ec	0.00037091167
197	0x3a4b1979	0.0007747631
198	0x3a7dcc48	0.00096816244
199	0x3a43c48c	0.00074679474
200	0x39a94e45	0.00032292507
201	0x391fa60f	0.00015225283
202	0x38ae6e48	8.317508e-05
203	0x388ee4a3	6.8136746e-05
204	0x390a8300	0.00013209507
205	0x391e2412	0.00015081491
206	0x388d1ac8	6.728392e-05
207	0x3853f07c	5.053029e-05
208	0x38884f97	6.49981e-05
209	0x3938f07f	0.00017637199
210	0x388d307b	6.732434e-05
211	0x38581665	5.151927e-05
212	0x3874a2e3	5.8325833e-05
213	0x38ef4d5e	0.00011410819
214	0x39a62b16	0.0003169409
215	0x387220e7	5.772794e-05
216	0x389027f8	6.8739e-05
217	0x38ff4088	0.000121713674
218	0x39a15b6c	0.00030776428
219	0x3a088f04	0.0005209299
220	0x38d1af22	9.9985176e-05
221	0x39212774	0.00015368854
222	0x39adf539	0.00033179836
223	0x3a0c958a	0.0005362859
224	0x3a2234c3	0.00061876717
225	0x3897a56b	7.2310526e-05
226	0x3861c210	5.3824915e-05
227	0x38af29f6	8.352466e-05
228	0x39521ec1	0.00020038617
229	0x39b6f565	0.00034896578
230	0x3866a074	5.4985707e-05
231	0x3859459f	5.180167e-05
232	0x38d49464	0.00010136588
233	0x3984b155	0.00025309125
234	0x39f053f0	0.00045838905
235	0x38bf9077	9.1344984e-05
236	0x38f989e5	0.0001189893
237	0x395078dc	0.0001988145
238	0x39c68cde	0.00037870457
239	0x3a1aa9ad	0.00058999175
240	0x392fcd1c	0.0001676571
241	0x39725f64	0.00023114454
242	0x39b7fd81	0.00035093355
243	0x3a195673	0.0005849369
244	0x3a2d1341	0.00066022953
245	0x3970a971	0.00022951305
246	0x39a6a4c6	0.00031784753
247	0x3a031ec2	0.00050018367
248	0x3a30e75d	0.0006748343
249	0x3a1d9028	0.00060105557
