saved/models/Mnist_LeNet/0502_095806/model_best.pth (torch, 361698 bytes, 32 tensors)

conv1.weight f4 [10, 1, 5, 5]
000000 bb f5 1c be ad 28 98 bd f3 cd 1f be 74 7e 04 3c
       -0.15328114 -0.07429633 -0.15605907 0.008086789
000010 79 e7 14 be 41 24 3f 3e 9e 21 8d be 4c 84 0a bf
       -0.14541425 0.18666174 -0.2756471 -0.5410812
000020 7d b5 e0 be 5c c2 01 be 45 89 ea 3d c1 53 4f 3e
       -0.43888465 -0.12671798 0.11451963 0.20246793
000030 15 ee 37 be 30 43 6c be e9 97 e0 bd a2 04 fb 3d
       -0.17961915 -0.23072505 -0.109664746 0.12256743
000040 4f 04 c3 3d 44 8b b5 3e 5c ea 02 3e 15 6b 4c 3e
       0.09522306 0.35457814 0.12784714 0.19962724
000050 bf aa 18 3e 64 2a 32 3e 45 ae 87 3e e6 a6 da 3e
       0.14908884 0.17398983 0.26500145 0.42705458
000060 0e 78 aa 3d 1a e8 c5 3d 46 0c 3f 3c 24 d5 69 3e
       0.0832368 0.096634105 0.011660641 0.22835213
000070 6f a5 24 3e 11 b6 9e be 98 8b 36 3e 82 da f2 3d
       0.16078733 -0.3099828 0.17826688 0.11858083
000080 01 7f 18 3e 83 d8 2f 3e a9 be 7b 3d 7f 98 cf bd
       0.14892198 0.17172436 0.061461125 -0.10136508
000090 99 1b 42 be 8d 97 ff ba 9a 48 e0 3b fc d4 03 3d
       -0.1895584 -0.0019500122 0.0068445923 0.03218554
0000a0 f1 34 3a be 0d b5 d0 bd ef 30 30 bc c8 d0 5f 3e
       -0.18184258 -0.10190783 -0.010753854 0.21856987
0000b0 f9 cf 21 3d 85 4e 31 bd 4d a9 2c 3d a5 46 f0 3c
       0.03950498 -0.043287773 0.042153645 0.029330561
0000c0 c6 0c 3a 3e 09 a3 50 3e 94 51 5d 3e 8c 44 3e 3e
       0.18168935 0.20374693 0.21613151 0.18580836
0000d0 91 ce 06 3e cd 96 20 3e 1e fa b4 bd 78 97 b1 3d
       0.13164736 0.15682526 -0.088367686 0.086714685
0000e0 ff 7a ad 3d 34 46 76 3e 15 d6 da bd 06 41 b1 be
       0.08470725 0.24050218 -0.10685364 -0.3461992
0000f0 f1 fb 87 3e e5 d3 b7 3e d4 f7 a1 bd 43 42 c9 be
       0.26559404 0.3590385 -0.079085976 -0.39308366
000100 21 bb 7b be 4b 16 60 3e 89 4c 82 3c 36 a7 38 be
       -0.24583103 0.21883504 0.015905635 -0.18032536
000110 7c da fd be 92 45 d2 3c 38 40 84 3e b0 8a da 3c
       -0.49580753 0.02566794 0.25830245 0.02667746
000120 bd fd ac be 1f 48 9d be 09 09 01 3e 07 d5 f4 3d
       -0.33787337 -0.30719087 0.12601103 0.11954694
000130 7a a4 0e 3e 90 6d e6 bd 8a 32 90 3d 6a 5f 90 3e
       0.1392993 -0.11251366 0.070408896 0.28197795
000140 54 96 8c 3a 9b 11 ce bd 56 c9 ac 3b d4 cb df 3d
       0.0010725954 -0.10061952 0.0052730246 0.10927549
000150 3f 73 cb 3d 76 e2 98 be d7 42 52 be 13 e8 64 3e
       0.09934091 -0.29860276 -0.2053331 0.22354154
000160 27 7a 76 3e 36 12 24 3e 05 21 83 be 9b 5a 67 3e
       0.24070035 0.16022572 -0.2561113 0.22593157
000170 2d 21 64 3e a0 9f 76 3e 28 75 c5 bd 28 c6 45 3e
       0.2227828 0.2408433 -0.096414864 0.19313872
000180 f6 17 62 3e c1 74 1f 3d ae ec 12 3b fe c1 27 be
       0.22079453 0.038929705 0.0022418904 -0.16382596
000190 b3 c7 1d 3e e0 94 31 be 28 6f 9f 3c 74 f7 4d be
       0.1540821 -0.17341948 0.019462183 -0.20113927
0001a0 92 a9 5a be 66 f7 9f bd 9d 52 c1 3a d5 45 9b 3e
       -0.21353748 -0.078108594 0.0014749352 0.30326715
0001b0 1b 32 03 3e 91 f4 71 be b7 55 82 3d f7 d0 6d be
       0.12812082 -0.23628451 0.06364005 -0.23224245
0001c0 64 1f e8 3d d1 2e 4e 3b b3 29 08 be 79 93 c6 bd
       0.11334112 0.003146101 -0.13297157 -0.09696097
0001d0 ae 32 9b be 61 89 2c bd 75 9d f0 3d 80 10 88 3e
       -0.30312103 -0.042123202 0.117487825 0.26575089
0001e0 c5 43 57 bd 3a ff 1b 3e 8f 04 41 3e a3 d6 08 be
       -0.052554864 0.1523408 0.18849395 -0.13363127
0001f0 54 da 24 3e 94 c2 0b 3e 3c 27 bb 3e d6 24 8a 3e
       0.1609891 0.13648444 0.3655337 0.2698123
000200 a5 70 4b 3e fa b8 aa 3e 3f 4a d0 3d 86 eb 67 3e
       0.19867189 0.3334425 0.10170411 0.22648439
000210 28 3a 16 3e 38 c7 9c bc 42 c4 76 3d dd ec 70 be
       0.14670622 -0.019137964 0.06024576 -0.23527856
000220 de 73 09 3c e6 b6 d3 3d 42 65 be 3d 5e bb 7a 3d
       0.008389441 0.103376195 0.09296657 0.061213844
000230 92 fa 91 be b0 ae 8c be 44 3a e5 bd dc 6b cf 3d
       -0.28511482 -0.27477026 -0.11192754 0.101279944
000240 01 d1 03 3e d8 fa 75 be 52 a8 d0 be 85 b8 ab be
       0.12872697 -0.2402147 -0.40753418 -0.33539215
000250 81 05 e1 be 56 7b 72 be ed 6b 26 be 8c b4 aa bd
       -0.43949512 -0.23679861 -0.16252108 -0.08335218
000260 aa 7c c9 bd 39 1e e7 bd e8 67 e3 bd da 69 25 3d
       -0.09838231 -0.112850614 -0.11103803 0.04038415
000270 b6 ad 67 be 4d 5d 0b be 3f eb a4 be eb 03 ef 3d
       -0.22624859 -0.1360981 -0.3221073 0.11670669
000280 4e 91 f9 3c 72 ca 62 3e 69 a0 a5 bd 9f 25 82 3e
       0.030464794 0.2214754 -0.080872364 0.25419328
000290 51 7f 9a 3e 7f a0 4b 3e ed f4 4e 3e 55 6e a8 3e
       0.3017526 0.19885443 0.2021062 0.32896677
0002a0 d2 74 7f 3e b7 7c 13 3e e3 19 38 be 77 e2 6b be
       0.24946907 0.14403044 -0.17978625 -0.23035608
0002b0 25 87 3a be 75 1a 23 be bb d0 b0 be 8a 19 6d be
       -0.18215616 -0.15928061 -0.3453425 -0.23154274
0002c0 43 65 94 be dd c1 6e bc f4 61 88 3e 72 be b6 3c
       -0.28983507 -0.014572588 0.26637232 0.022307608
0002d0 ea 68 a6 be 24 8f 7a be be 46 56 3e 26 a3 1d 3d
       -0.32501918 -0.24468666 0.20925424 0.03848567
0002e0 f6 47 8c bd ae 1e 97 be 1c 22 83 be 04 a0 15 3e
       -0.06849663 -0.29515594 -0.2561196 0.14611822
0002f0 76 69 99 3e 64 1b d6 bd aa ef 98 be 23 64 a1 be
       0.29963273 -0.10454443 -0.2987035 -0.3152171
000300 a5 24 cb 3d 79 52 92 3e 68 0c bf bc 41 12 92 be
       0.09919099 0.28578547 -0.023321345 -0.28529552
000310 80 0b 50 bd a2 bc 0f be 68 40 93 3e c0 d0 68 3e
       -0.050792217 -0.14036801 0.28760076 0.22735882
000320 d0 78 54 3d 91 50 9a 3d ff 10 0c bd 55 c7 cb be
       0.05187303 0.07534898 -0.034195896 -0.39800516
000330 f1 ed 1e bf 86 76 b6 3d 18 de 4d be 91 de ee be
       -0.6208182 0.08909325 -0.20104253 -0.4665418
000340 a4 d8 eb be 59 55 2d bd 09 74 52 be cc ff 0a bf
       -0.4606372 -0.042317722 -0.20552076 -0.54296565
000350 9a 32 b3 be 1c 84 36 be 72 14 87 3e 62 16 de be
       -0.34999543 -0.17823833 0.26382786 -0.43376452
000360 97 e1 90 be 3d e0 01 be f0 4f 56 3e 04 d1 6f 3e
       -0.2829711 -0.12683196 0.20928931 0.23419577
000370 85 e9 12 bf e5 b6 fd bd 7e d4 83 3e b7 de 06 3e
       -0.5738757 -0.123884 0.25748056 0.13170896
000380 a7 bf 37 3e 1e 41 82 be 8a 0e 5b be 6f 25 b1 be
       0.17944203 -0.25440305 -0.21392265 -0.34598872
000390 f0 7d 8d bd 2d 45 84 3d 20 14 2f be 89 5b 23 be
       -0.06908786 0.06458507 -0.17097521 -0.15952887
0003a0 67 e5 8a be a8 72 aa 3c 57 d3 df 3d 30 e6 83 be
       -0.27128145 0.020806625 0.10928982 -0.25761557
0003b0 07 a3 27 3c b6 8f ec bc d5 94 e6 bd c7 b6 60 3e
       0.01023174 -0.02887712 -0.11258856 0.21944724
0003c0 ac db 0c bd 43 ac 9c 3b 04 73 5a bd 33 e1 c7 3d
       -0.034389183 0.0047812774 -0.053332344 0.0975975
0003d0 83 5b 96 3e ac a0 a3 3c 46 71 81 bd 63 d8 da 3c
       0.29366693 0.019974075 -0.06320433 0.02671451
0003e0 da d6 79 3e 48 7b 95 3e
       0.24398366 0.2919562

conv1.bias f4 [10]
000000 d1 42 63 3e 49 58 19 be ce 69 bf 3d ed 9b 9a be
       0.22193457 -0.14975084 0.093463525 -0.30197087
000010 13 c6 40 3d 09 64 16 3e dc 27 70 3d 8b 5b 9f be
       0.0470639 0.14686598 0.058631763 -0.3112453
000020 b3 d1 b7 3d 74 d5 a0 bd
       0.08975544 -0.07853213

conv2.weight f4 [20, 10, 5, 5]
000000 5f 9c 74 3d a2 0d e0 bc 07 b8 02 be 60 b8 bf bd
       0.05971944 -0.02735025 -0.12765513 -0.093613386
000010 6e d5 fd bd 57 2a 06 3e 94 af 49 3e d6 bf f4 3d
       -0.12394224 0.13102089 0.19695884 0.11950652
000020 a3 d2 f3 3a c4 d4 f4 bd 3f ed 61 3d c9 30 c7 3d
       0.0018602203 -0.11954644 0.055157896 0.09726102
000030 0d a8 84 3d 00 3a cb bd eb d9 1f be b2 4d 44 bc
       0.06477366 -0.09923172 -0.15610473 -0.011981415
000040 b7 66 bb 3c d4 28 2c bd 53 ca 0f be db de 7f be
       0.022876127 -0.042031124 -0.14042024 -0.24987356
000050 62 05 9e 3d a2 c8 35 be 92 95 1e be aa bc 57 be
       0.077158704 -0.17752317 -0.15486744 -0.21068063
000060 b2 80 28 be 63 a0 eb bd 97 7b e3 bd 1b 08 51 bd
       -0.16455343 -0.11505201 -0.11107557 -0.05103312
000070 b3 9c d0 bb 65 3f 8b 3c da 97 7b 3d f8 52 2d bd
       -0.0063663363 0.016998002 0.061424114 -0.042315453
000080 cc 66 8d 3b 68 ad 7b 3c e4 0d f4 3c 6b 67 a2 3d
       0.004315233 0.0153611675 0.02979178 0.07929882
000090 36 51 77 3d ef 66 2a 3d 93 49 93 3d 84 63 15 3d
       0.060380183 0.04160207 0.071917675 0.03647186
0000a0 03 2d 90 3c f3 41 b2 3d 57 ec 25 3d 25 75 49 3d
       0.017599588 0.08703985 0.040508594 0.049183983
0000b0 ae 95 ab bc b4 c3 d2 bd fd 74 2b bd 97 6d ca bc
       -0.020945396 -0.10291234 -0.041859616 -0.02471046
0000c0 4d 6c 53 bc e7 3f 03 3b cc 64 0d 3d 2e 23 16 3e
       -0.012904239 0.0020027102 0.034519956 0.14661857
0000d0 68 91 06 3e 4a 4a 1c 3e 28 9d de bd de b7 b6 bd
       0.13141406 0.15262714 -0.10869819 -0.08921789
0000e0 61 13 16 be 3f e5 9e bc f9 8c 61 bc 4f d2 0f be
       -0.1465583 -0.019396422 -0.013766521 -0.1404507
0000f0 64 2d 0e be b7 f5 20 be 35 b8 7f 3c a1 72 34 bd
       -0.13884503 -0.15718733 0.015607883 -0.04405463
000100 2e 28 8e bd 41 44 0d bd 50 54 40 3d 9e fa d2 3d
       -0.069412574 -0.03448892 0.046955407 0.10301708
000110 5e 07 89 bd 19 b9 8c 3c bd b7 a7 3d 75 5d af 3d
       -0.06690858 0.017178105 0.08189342 0.085627474
000120 8d e6 9a 3d f5 1e 40 3d 54 7f 98 3d a8 8f ad 3c
       0.07563505 0.046904523 0.07446161 0.021186665
000130 43 c9 88 bd 5d 07 b4 bd 5c 99 be 3d 36 4c 84 3d
       -0.066790126 -0.08790467 0.09306595 0.064598486
000140 a7 a7 13 bc 4e 50 7c 3c 27 eb a1 bd 97 08 7a bd
       -0.009012139 0.0154000055 -0.0790618 -0.06104335
000150 f1 3a 83 bc 18 2d 01 39 b6 c4 26 bd bb 3b 11 bc
       -0.016019316 0.00012319197 -0.040714942 -0.0088643385
000160 83 df 6e 3d 4b 5d 60 3d 81 70 2d 3d 9b cf 4a 3d
       0.058318626 0.05477647 0.04234362 0.049514394
000170 6c 4b ca 3d ae 4c b9 3c 7b 36 36 3d f7 16 59 3d
       0.09877667 0.022619572 0.04448555 0.053000417
000180 f7 7c 2a 3d bd 28 96 3d dd 94 66 3d 76 71 10 bd
       0.041623082 0.07331989 0.05629431 -0.035264455
000190 1d 28 de bc b2 81 21 bd e5 d3 c7 bd 6e a2 1d 3c
       -0.027118737 -0.039430328 -0.097572125 0.009621246
0001a0 1a 78 1f 3c fc 9b fc 3d fb d3 dc 3d ab cf 07 3d
       0.009733224 0.12334439 0.107826196 0.033157032
0001b0 9d 9d 0b 3d e2 c2 88 bd 3c 82 d8 3d 7e 55 fe 3d
       0.03408586 -0.06677796 0.10571715 0.1241865
0001c0 57 93 b0 3d ce 6c 55 3c 59 11 a0 bd 66 7a 1f 3d
       0.08621853 0.013026429 -0.07815809 0.038935088
0001d0 1e 06 bc 3d ae a7 c1 3c d5 a7 b0 bd 6b fe b0 bd
       0.09180854 0.023639526 -0.086257614 -0.086422764
0001e0 d0 e6 24 bd 74 b2 64 bb d6 b3 8c 3d d9 e7 b9 bc
       -0.040259182 -0.0034896405 0.068702385 -0.022693561
0001f0 89 f7 03 be 54 06 2d be 47 53 6f be a4 55 67 bd
       -0.12887396 -0.16896945 -0.23371612 -0.056478158
000200 55 44 c3 bd 79 00 32 be f1 00 6c 3d 16 fa 7b bd
       -0.09534518 -0.17382993 0.057618085 -0.061517797
000210 16 ae e6 bd 08 be de 3a 31 57 83 bd 0a b7 87 3d
       -0.11263673 0.001699389 -0.06413115 0.06626709
000220 52 71 1f 3d 25 37 a4 3d be a4 e5 ba 5e 5d f0 bd
       0.03892643 0.080183305 -0.001752041 -0.117365584
000230 e1 6e 1a 3e fc 08 53 3d 8f c8 de bc b5 ed 5d 3d
       0.1508136 0.05152224 -0.027195243 0.054181773
000240 2b 73 78 bd d8 d4 42 bd 70 18 63 3d 67 d1 4e bd
       -0.060656708 -0.047566265 0.055443227 -0.05049267
000250 d0 30 d5 3c 44 ab 3d bc c1 e2 03 3e ad 32 a1 bc
       0.026024252 -0.011576477 0.12879469 -0.019677484
000260 05 3a fa bd 75 ef 3f bd d5 6b b9 bd a0 cc 0e bc
       -0.122180976 -0.046859223 -0.090537705 -0.008715779
000270 7a 9c 86 3c 76 74 84 3d 71 44 c5 bc 79 50 40 bc
       0.016432036 0.06467526 -0.024080487 -0.011737936
000280 60 66 59 3d d0 ac 01 3d a3 e3 25 3d 93 6f 6b bd
       0.053076148 0.031658947 0.040500294 -0.057479452
000290 f8 a2 b9 bd fe 82 b5 ba 50 10 de 3d 99 94 ba 3d
       -0.09064287 -0.0013848243 0.10842955 0.09110374
0002a0 a5 fd aa 3b 35 3e 2a bd 37 bf 68 bd 5f 8f 11 bd
       0.005218225 -0.04156323 -0.05682298 -0.03553712
0002b0 ca aa 04 bd 10 b5 14 bc 46 33 19 be 6c 4f b3 bd
       -0.03238944 -0.009076372 -0.14960966 -0.08755383
0002c0 79 70 ac bd 9a 5f 48 bd 5c a1 e5 3d 69 8c 99 3c
       -0.0841989 -0.048919298 0.112124175 0.01874371
0002d0 6a 76 41 bd 8f f5 b7 bc ec d3 6a bd d5 58 e7 3b
       -0.04723207 -0.022455959 -0.05733101 0.00706015
0002e0 2d e1 b0 3d ae 0e 28 be 62 e2 c8 bd 8e 34 6a bd
       0.08636699 -0.1641185 -0.09808804 -0.057179026
0002f0 46 09 f2 ba eb 62 57 3d 48 90 08 be a7 ab 31 be
       -0.0018465898 0.05258457 -0.13336289 -0.17350636
000300 49 d4 e7 3c 2d 20 c7 3d bb 11 11 3c e6 f6 db bd
       0.028299468 0.09722934 0.008854325 -0.107404515
000310 f9 38 b6 bd b6 0a 95 3d 50 f8 93 3c 99 42 ca 3c
       -0.088975854 0.072774336 0.01806274 0.02468996
000320 85 7b 8b 3d d0 41 06 bd 29 8b 61 3d ab 8d 3f 3d
       0.06810669 -0.032777607 0.055064354 0.046765964
000330 eb 44 14 3e 77 2c 01 be f7 1b e8 bd 07 d3 88 bd
       0.14479415 -0.12614618 -0.11333459 -0.06680875
000340 36 78 d1 bd cd 06 11 3d 00 6c 14 be b0 54 57 be
       -0.102280065 0.035406876 -0.14494324 -0.210284
000350 5b ba 30 be 92 5c f2 bd 8e 65 d8 bb 38 53 a7 3d
       -0.17258589 -0.11834063 -0.006603903 0.081701696
000360 3e 5b 97 3c 4c 04 a8 bc ae c3 08 bc 1d 5b c7 3d
       0.018476125 -0.020509861 -0.008347435 0.09734175
000370 d8 7e 8a 3e 56 e0 45 3e e4 11 89 3d 42 ab 06 3e
       0.270499 0.19323859 0.066928655 0.13151267
000380 b6 36 0b bc 12 fa 9e bb bf b1 26 be 20 11 09 bc
       -0.008496931 -0.004851588 -0.16278742 -0.008365899
000390 fb 56 87 3d 83 b6 54 3d 1f bb ed bd 2a 6b 17 be
       0.06608387 0.05193187 -0.11607956 -0.14786974
0003a0 71 af cb 3c 87 97 b7 3d 1a 7c 1b 3d 5a 12 a7 bd
       0.02486393 0.089644484 0.03796015 -0.08157797
0003b0 aa c9 38 bd b4 b4 bc bc 54 18 aa 3d 1c ea 96 3d
       -0.045114197 -0.023035385 0.083054215 0.073688716
0003c0 31 ae 5d 3c a3 a0 6f 3d e0 30 3d 3d 0e 28 b7 3d
       0.0135303 0.058502804 0.04618919 0.08943187
0003d0 36 0e d2 bd ac 5e c8 3c e6 6e 6e 3c db c1 dc 3d
       -0.10256617 0.024459206 0.014552807 0.107791625
0003e0 4d bb a6 3d 5f f0 86 bc aa 94 aa 3d ec 39 07 3b
       0.081411935 -0.01647204 0.08329137 0.002063389
0003f0 66 d1 01 3d a0 ed 60 bd 2a cd b1 bc 94 e9 32 3e
       0.03169384 -0.054914117 -0.021704275 0.17471915

conv2.bias f4 [20]
000000 9a 2f 1d 3d 37 b9 b5 bc 3a 4d 6d bc ff 0b 0f bd
       0.038375475 -0.022183044 -0.014483744 -0.03492355
000010 30 86 20 3d d5 7c 23 3c fa 0d 1d bd 23 1f a7 3d
       0.03919047 0.009978493 -0.038343407 0.08160236
000020 db 0d 97 3c 31 d5 da 3d 2c 5d 57 bc 28 2d ab 3d
       0.018439224 0.10685194 -0.0131447725 0.08358222
000030 67 42 8e bd a2 40 12 3d 32 8e 22 3d 3e 96 14 3d
       -0.06946259 0.03570617 0.03968639 0.036276095
000040 fc db 8d bd 1c 8a 9b bc 4f e1 c6 bb 7b 1b 45 3d
       -0.06926724 -0.018986754 -0.0060693393 0.04812191

fc1.weight f4 [50, 320]
000000 80 6c af 3d 8c e8 48 3d e0 92 ca bb af ef 4d 3d
       0.085656166 0.0490499 -0.0061820596 0.05027741
000010 64 46 4a 3e ae 51 3e 3d 4b 29 14 3d f9 73 1a 3d
       0.19753414 0.046464615 0.036172193 0.037708256
000020 fd de 42 3c 7b c2 fd bd 4e 15 05 be 45 e4 9f bd
       0.011893985 -0.1239061 -0.12996408 -0.07807211
000030 2a 11 a6 bc d5 a0 4d bd 0d 23 50 bc 05 e3 61 bd
       -0.020271856 -0.05020221 -0.012703669 -0.055148143
000040 62 0c ce 3c 45 08 31 bd da a5 80 3c fa 67 49 3d
       0.025152389 -0.043220777 0.015704084 0.049171425
000050 58 88 d9 bc 63 aa 92 3c 2e a6 3c 3d c0 65 29 bd
       -0.026554272 0.017903512 0.04605692 -0.041356802
000060 6b 84 f4 3c 73 ae 00 bd 64 ad 4e 3d 15 81 82 3d
       0.029848298 -0.031416368 0.050458327 0.06372277
000070 49 95 3f 3c 67 02 2c bd 2b 87 d4 bd f8 32 ff 3c
       0.011693307 -0.04199448 -0.10377344 0.031152233
000080 41 eb a8 3d 9c ef 4f 3d 28 d7 bf bd d9 54 28 bd
       0.08247996 0.05076562 -0.0936721 -0.041096542
000090 21 6d 24 3c fc 89 90 3b f4 12 79 3c d2 ad 9d bd
       0.010035784 0.0044109803 0.015202273 -0.07699169
0000a0 1f fc 02 3d 5e 0b fd 3d 24 aa 9f bb bf 97 4d bd
       0.031978723 0.12355684 -0.0048725773 -0.050193544
0000b0 c3 4e 07 3e 92 c4 ff 3c d7 8f 45 3c 15 a3 9c 3b
       0.13213639 0.031221662 0.01205822 0.004780183
0000c0 c4 15 46 bd 5c 44 6c bb d3 14 09 bd 5a 93 c1 bc
       -0.0483606 -0.0036051488 -0.033467125 -0.023629833
0000d0 fc f2 12 3d 85 0a c8 bc cd a4 ee bc 4b a8 12 bd
       0.03587626 -0.024419079 -0.029131318 -0.035805028
0000e0 c5 ea 95 bb 4f 38 46 bc 92 86 8c 3d a2 19 a6 3d
       -0.004575106 -0.012098386 0.06861605 0.08110358
0000f0 49 47 62 bd 15 52 7c 3d 2f 57 b4 3d 65 5f 7a 3d
       -0.055243764 0.061601717 0.088056915 0.06112613
000100 30 e5 37 bd 78 3f 81 bd 76 82 89 bd 4c 9c 0f 3c
       -0.044896305 -0.06310934 -0.067143366 0.008765291
000110 1f b1 75 bb ed 52 c3 bd 5f 1b b4 3d d2 7d c3 3d
       -0.0037489606 -0.09537301 0.08794283 0.09545483
000120 f3 44 9c 3d 7b 9e f0 bc 36 65 7a bd a7 10 82 bd
       0.076303385 -0.029372444 -0.06113168 -0.063508324
000130 78 92 3e 3d 13 33 94 bd 0a 41 45 be ca 17 38 be
       0.046526402 -0.07236304 -0.19263092 -0.17977825
000140 70 8c 40 3d fe 34 52 3c 78 78 24 3d ba 15 42 3d
       0.04700893 0.012830017 0.04015395 0.047384
000150 1d f3 0a 3d 63 05 35 be 5e 50 fa bd 01 00 d2 bd
       0.033923257 -0.17677836 -0.1222236 -0.10253907
000160 68 36 d1 bd ba 8c 6c 3c 99 6e 02 3b 85 d7 11 be
       -0.10215455 0.014437849 0.0019902347 -0.1424237
000170 55 f1 b0 3b 74 c4 ee 3c 7e 39 45 3c 2c 49 2d be
       0.005399863 0.02914641 0.012037633 -0.16922444
000180 8e 3c 72 3d b5 6f f2 3d a1 40 df 3d 70 0f 46 3d
       0.05913978 0.11837713 0.10900999 0.048354566
000190 55 e1 b5 bd 2c 97 e7 3b aa db 0f 3d 96 0f 3e be
       -0.08880869 0.0070675816 0.035121597 -0.18560633
0001a0 f0 9b a8 bd 18 f9 98 3b ad 82 5b 3d cc 8f 9d bd
       -0.08232868 0.004668366 0.05359142 -0.07693443
0001b0 ea b2 d1 3d f4 84 64 3c 12 98 d9 bc 11 60 70 bc
       0.10239203 0.013947714 -0.02656177 -0.0146713415
0001c0 93 6e 1c 3d 33 5f c8 bc 1d 0e 90 3a 5a 4d 2c 3d
       0.03819139 -0.024459457 0.0010990534 0.042065956
0001d0 e8 9b a4 3a 2d 6b 3e bd 71 24 46 3d 79 30 25 3d
       0.0012558671 -0.04648893 0.048374597 0.04032943
0001e0 37 4a 80 bc 89 03 2b 3c 8d d1 db 3d d0 d9 8d 3d
       -0.015660388 0.010437855 0.10733328 0.0692631
0001f0 ba 70 27 3c da 9d c5 bc de 66 0f 3d 4c dd 26 bb
       0.010219747 -0.024123121 0.03501021 -0.0025461493
000200 02 6c 06 3d 99 63 5e ba 10 9d 57 3c 76 c1 b0 bc
       0.032817848 -0.0008483469 0.013160005 -0.021576624
000210 40 18 71 bc a9 5b 47 bb 88 a6 a1 bd 4f 5e 8e bc
       -0.014715254 -0.0030419624 -0.078930914 -0.017378954
000220 1e 37 11 3c d7 13 44 3d e2 0e ee bd 78 e3 6a 3c
       0.008863239 0.047870483 -0.116239324 0.014336459
000230 09 92 26 3d 10 24 a8 3d 39 b0 62 bb c4 bd f3 3b
       0.040666614 0.082100034 -0.00345899 0.0074383933
000240 15 c0 1f 3d 21 be 32 bc 92 a2 5e bd 33 0b e2 3d
       0.039001543 -0.010909588 -0.054354258 0.11037292
000250 2f f0 77 3d 2e 06 15 be ab 40 f4 3c b8 ed c5 3d
       0.06053179 -0.14553139 0.029815992 0.09664482
000260 ad 8f 3f bd 37 09 2a be 56 64 22 be 9a 6a 0a 3d
       -0.04676788 -0.16605078 -0.15858588 0.03379307
000270 f0 02 08 bd 23 cf 46 bd e5 e7 3c be d9 5b 10 be
       -0.033205926 -0.048537385 -0.18447836 -0.14097537
000280 33 99 1f bd 06 81 b0 bc 7f c9 11 bd ce f2 0e 3d
       -0.03896446 -0.021545898 -0.035592552 0.034899525
000290 b0 82 0f 3d d9 45 5e 3d 05 29 56 bd 9c d8 52 3b
       0.035036743 0.05426583 -0.052285213 0.0032172566
0002a0 29 d1 23 3d 59 2d 8e 3d 31 fb 42 be 29 44 dd bb
       0.039994393 0.06942243 -0.19041134 -0.00675251
0002b0 d2 86 12 3d dc ec af 3d f0 cf 9f bd ff 0b 13 bd
       0.035773106 0.08590099 -0.07803333 -0.035900112
0002c0 d5 1f 0c bc dc 7f c2 3c 2f 67 b4 3b fd f8 49 3d
       -0.008552511 0.023742609 0.0055054645 0.04930972
0002d0 e2 5c 60 be 3c 96 e1 bd 37 86 2c be dd 74 47 3d
       -0.21910432 -0.11014983 -0.16848074 0.048695434
0002e0 f0 d3 05 be 7c cc c2 3c 26 25 65 3b 22 f0 18 be
       -0.13069129 0.023779146 0.003496477 -0.14935353
0002f0 37 71 5c bd 18 3d d3 3d 57 4a 8f bc 03 83 8f be
       -0.053818908 0.10314387 -0.017491503 -0.28029642
000300 68 d8 3c 3d 6b 1d d2 bd 97 34 f7 bc 97 5f 93 bc
       0.04610482 -0.10259517 -0.030176444 -0.017989917
000310 c3 48 35 3c 59 ce 26 bc c3 d5 1f bd cd 1e 67 3d
       0.011064711 -0.010181033 -0.03902222 0.05642586
000320 07 41 f3 3d 70 b6 15 bd d5 ae 46 ba 9a 4c cd 3c
       0.11877637 -0.03655094 -0.00075791526 0.02506094
000330 c3 10 d1 bb ed f7 51 3d b2 66 45 bb 26 03 b6 bb
       -0.006380172 0.05126183 -0.0030121026 -0.0055545745
000340 2e 46 51 3d 94 db be bc 12 08 0d 3d 52 49 d6 bc
       0.05109232 -0.023298062 0.034431525 -0.026158009
000350 7f 88 be bd 4e 20 22 bd dc f8 2b bd 59 d6 3a bd
       -0.09303378 -0.03958159 -0.041985378 -0.045614574
000360 93 26 8c 3c ab 40 42 bc ee 28 df bd 83 d7 58 3d
       0.017108237 -0.011856238 -0.108964786 0.052939903
000370 59 4e 06 3d 68 9f fb bc 1b 68 0a 3d 45 77 a9 3c
       0.032789562 -0.03071566 0.03379069 0.020686755
000380 22 a8 1d 3b 7d 14 a9 3c 8f 09 89 3b 8c 0f 0d 3d
       0.0024056514 0.020639652 0.0041820477 0.034438655
000390 b6 41 d4 3c 91 33 64 3d 39 68 52 3d 9d 9a 1e bd
       0.02591024 0.05571324 0.051368926 -0.03872167
0003a0 30 09 5e 3c e6 00 64 3d 18 21 27 bd 92 3c 57 bc
       0.013551995 0.05566492 -0.040803045 -0.013137
0003b0 da 3f 6b 3b fa 22 48 3d 28 64 e9 3c 1f b3 b6 3c
       0.0035896213 0.04886148 0.028490141 0.022302208
0003c0 06 56 0d bd 7e 11 90 bc a8 29 a4 b8 92 ea c1 bd
       -0.034505866 -0.017586466 -7.8278885e-05 -0.09468569
0003d0 08 03 79 3d d7 66 b0 bd 0b 69 c8 3d f8 e6 e4 ba
       0.060793906 -0.08613365 0.0978566 -0.0017463854
0003e0 d3 f1 4a bd 90 bb 86 3d fc a5 cc 3c c3 26 a4 3c
       -0.049547028 0.065787435 0.024981491 0.020038014
0003f0 4a a4 06 bc 9d 23 fd 3d 0b 45 86 bc a2 8f c9 bd
       -0.0082178805 0.12360308 -0.016390344 -0.09841849

fc1.bias f4 [50]
000000 5a f7 d5 3d 64 2a 36 3d 2e 49 f7 3d 77 67 2f 3e
       0.10447569 0.04447402 0.12074505 0.17129312
000010 dd b1 69 3d 4d 91 33 3e 8b 5f 87 3d b8 37 40 3e
       0.05705439 0.17535897 0.0661002 0.18771255
000020 bb 66 09 3d db c4 15 bd 4e 1b 82 3d 21 d7 c5 3c
       0.033545237 -0.03656469 0.06352864 0.024150433
000030 ad 02 38 3e 65 82 3e 3e 02 65 02 3e 83 26 26 3e
       0.1796977 0.18604429 0.12733844 0.16225629
000040 05 c4 f5 3c f2 07 27 3e f9 96 6e 3d 51 da 06 3e
       0.030000696 0.16311625 0.058249447 0.13169219
000050 99 ab ee 3d 88 4a c4 3d 58 05 0e 3d a4 e9 c2 3c
       0.116538234 0.09584528 0.034673065 0.02379305
000060 b9 69 01 3e a5 86 23 bc 13 7e 7f bc 22 a3 1d 3d
       0.12637986 -0.009980832 -0.015594023 0.038485654
000070 95 24 23 3e 06 8a 9d 3d 11 9b 0b 3e 6e 44 14 3e
       0.15931924 0.076923415 0.13633372 0.14479229
000080 1c 31 ed 3d 82 4e 01 3e e2 e7 5e bc 63 24 b1 3d
       0.115816325 0.12627605 -0.01360509 0.08649518
000090 e1 d0 0d 3e 08 16 d4 3d cb da c1 3a 0e 93 ba 3d
       0.13849212 0.103557646 0.0014789937 0.0911008
0000a0 5a d4 84 3d a5 d1 fc 3d d0 a7 02 3d aa 63 09 3b
       0.06485815 0.12344674 0.03189832 0.0020963945
0000b0 35 a7 45 3e b7 57 33 3c 27 cd 50 3e c3 dc 3c 3d
       0.19302066 0.010946206 0.2039076 0.046108972
0000c0 3c c3 cd bc 74 db 03 3d
       -0.025117509 0.03219171

fc2.weight f4 [10, 50]
000000 3b b6 62 3e 40 bf 51 be e2 c9 f2 3d 3c 97 12 be
       0.22139828 -0.20483112 0.11854912 -0.14315504
000010 3e c8 53 be 68 10 80 be eb 80 d7 3d a4 b6 36 be
       -0.20681855 -0.25012517 0.10522636 -0.1784311
000020 42 62 02 be 3f a2 4e bc 70 aa 69 be b7 ac 86 3d
       -0.12732795 -0.012611925 -0.22818923 0.065759115
000030 0c d5 26 be 3c c8 1f be ad d2 b0 bd d9 66 54 be
       -0.16292208 -0.15603727 -0.08633933 -0.20742358
000040 db 46 76 be a4 e9 5a be 22 b2 28 3e 60 90 f6 bd
       -0.24050467 -0.2137819 0.16474202 -0.12039256
000050 20 ca 29 3e 7b 3b 24 3d 48 69 11 be 64 7f c3 3d
       0.16581011 0.040095787 -0.14200318 0.09545782
000060 3b a5 80 be 66 60 1a 3e 59 4e 92 bd 6e 2d 2d be
       -0.2512606 0.15075836 -0.0714385 -0.16911861
000070 62 db 0b be f3 4c 07 3e c8 03 46 be 74 f9 90 bd
       -0.13657907 0.13212948 -0.1933738 -0.070788294
000080 c6 1e 12 3e 22 fa 9d 3c 2e b7 b2 bd 5a 8f dc 3d
       0.14269552 0.019284312 -0.08726345 0.1076953
000090 6a 2b f5 3d 98 1c b0 3d a8 43 2b 3e 43 c5 3c 3e
       0.11971171 0.08599204 0.16725028 0.18434624
0000a0 67 5f b5 3d 0a 53 a3 3d 77 34 f2 bd d2 ff 42 3e
       0.08856087 0.07974823 -0.11826413 0.190429
0000b0 c3 71 53 be 59 1a 21 3c 84 86 19 3e 46 77 74 bd
       -0.20648865 0.009832942 0.1499272 -0.05968406
0000c0 c5 96 09 bd 32 a0 8e 3d 38 6a e4 bd d0 aa a9 bd
       -0.03359105 0.069641486 -0.11153072 -0.08284533
0000d0 02 f6 91 be 20 d8 3e 3e f2 2f fd 3d 1b db b3 3d
       -0.28508002 0.18637133 0.123626605 0.087820254
0000e0 9d 89 01 3e 5b 03 32 3e 87 b3 80 be 89 92 38 be
       0.12650152 0.17384093 -0.25136968 -0.18024649
0000f0 46 80 e1 bd 67 06 af bd 6c 9b 9b 3d ed 02 be 3d
       -0.11010794 -0.08546143 0.07598004 0.09277902
000100 c7 df 66 be 9e 5d 12 3e ce f4 0a be 01 93 fe 3d
       -0.22546302 0.14293525 -0.13569948 0.124303825
000110 9c a2 11 3e e8 22 db 3d 58 7f ec bd ff 65 4c be
       0.14222187 0.10700017 -0.115477264 -0.19960783
000120 df 05 89 be 44 78 28 3e 13 b3 ec 3d 0a 0e 8a be
       -0.26762292 0.16452128 0.11557593 -0.26963836
000130 f1 38 70 be 1a d2 17 be 71 80 f1 3d 4a 07 19 bd
       -0.23459221 -0.14826241 0.117920764 -0.037360467
000140 77 a5 a3 3d bd 9d e9 3d c8 83 d6 3d 14 1e 9a 3d
       0.07990544 0.11407039 0.10474354 0.07525268
000150 9b 29 41 be 4f 19 30 be a1 27 86 be f8 11 9d 3d
       -0.18863527 -0.17197154 -0.2620211 0.07669443
000160 dc 02 b2 be ea bd 59 be fb c9 23 be 9e 20 9c bd
       -0.34767807 -0.21263853 -0.15995018 -0.07623409
000170 89 5e 2b be c4 01 15 bd f0 e2 bf 3d 15 23 72 be
       -0.16735281 -0.036378637 0.09369457 -0.23646195
000180 db 4a 20 3e b4 e0 89 be 2a 0c b1 bd b7 52 83 be
       0.15653555 -0.26929247 -0.08644898 -0.25649044
000190 62 b1 b4 bd 29 8f dd bd fa 59 6d be df 66 bb bb
       -0.088228956 -0.10818321 -0.23178855 -0.0057190503
0001a0 97 54 31 be 8f 74 c7 be af 94 13 3e 4b 9e 02 be
       -0.17317425 -0.38956115 0.14412187 -0.12755696
0001b0 69 58 63 be fa c1 09 3e 6b 72 22 bd 9f 1b 4b 3d
       -0.22201695 0.13452902 -0.0396599 0.04958689
0001c0 8c 81 5d be 19 cc db bd 50 21 67 be 18 d3 f0 3d
       -0.2163145 -0.10732288 -0.22571301 0.11759013
0001d0 2d b9 ff bd 2a 2b 85 be b8 2a 11 3e 6b 4b 0d 3e
       -0.12486491 -0.26009494 0.14176452 0.13798301
0001e0 c6 1d c3 bd 4f c9 9c 3d d2 bf d1 3a 25 c6 8b ba
       -0.09527163 0.07655584 0.0016002601 -0.001066391
0001f0 6b fc 13 3e ea 20 f6 3d 51 2e 06 3e 64 60 cd bd
       0.14451759 0.120179966 0.13103606 -0.10028151
000200 84 f3 d3 3d d1 00 f2 3d eb 2a b8 3d bd 11 03 3e
       0.10349181 0.11816562 0.08992561 0.12799735
000210 2c a6 e5 3d f5 f3 a2 39 3f 85 56 be a8 65 c1 3d
       0.112133354 0.0003108081 -0.20949267 0.094432175
000220 72 39 4b be ef 9c d9 3d f2 c7 b5 bd 40 c2 d8 bd
       -0.19846132 0.10625636 -0.08876027 -0.10583925
000230 4c 72 31 ba bf de d4 3d 7a 76 ff 3d eb 65 25 3e
       -0.0006769046 0.10394048 0.124737695 0.1615216
000240 57 d7 49 3d fc 72 d3 3d e4 3b 42 be d7 6a bf bd
       0.04927763 0.10324666 -0.18968159 -0.0934655
000250 d5 a0 59 bd c3 72 7c bc 36 05 f5 bd 78 ea cc bd
       -0.053131897 -0.015408221 -0.119638845 -0.10005659
000260 37 ea 59 be 62 32 a1 be 0a 30 00 be 48 b1 12 be
       -0.21280752 -0.31483752 -0.12518325 -0.1432544
000270 62 c0 c8 bd 66 39 7a be 0b aa c2 3d 79 d4 04 3e
       -0.09802319 -0.24435958 0.09505089 0.12971677
000280 37 b6 fc 3d 53 86 0a 3e c0 b2 dc 3d 79 a0 5d be
       0.12339442 0.13527803 0.10776281 -0.21643247
000290 bf 3a f5 bd fc 13 03 3e 01 4e 67 bc 48 ac f6 3d
       -0.119740956 0.12800592 -0.014117719 0.12044579
0002a0 98 c9 57 bd cb ce a8 3d c3 69 14 be b3 db 10 3e
       -0.05268249 0.08242568 -0.1449347 0.14146309
0002b0 d3 01 52 be 18 b7 46 be c9 7e b8 bd 0f 14 f5 bd
       -0.20508508 -0.19405782 -0.09008557 -0.119667165
0002c0 7d e7 15 be b8 a9 17 3e ac f6 03 3e 4f 73 fc 3d
       -0.14639087 0.14810836 0.12887067 0.12326681
0002d0 38 8c c6 3d 26 9b 05 3d ed ff 55 be d7 8b c7 3d
       0.09694713 0.032618664 -0.20898409 0.09743469
0002e0 9c d1 2e 3d 80 fa b2 bd d8 fb b8 3c 65 b0 0e 3e
       0.042680368 -0.08739185 0.022581026 0.13934477
0002f0 a6 09 20 be d7 35 86 bc 98 5f 84 bd da 39 c5 3d
       -0.1562868 -0.016383095 -0.064635456 0.09630175
000300 c8 db 18 3d 3e 7a b4 bd 91 d4 d5 3d ae 24 c4 bd
       0.037318975 -0.08812378 0.104409344 -0.095773086
000310 4c 67 49 be 80 84 46 be 5d d2 e6 bd d7 0d b0 3d
       -0.19668311 -0.19386482 -0.11270592 0.0859639
000320 37 1a 30 b9 fb 56 cd 3d 79 70 31 be ee b9 26 3e
       -0.00016794434 0.10026356 -0.17328061 0.16281864
000330 1c ed f4 3d b3 c1 2d 3c da fa 08 3e b8 64 2c 3e
       0.119592875 0.0106052635 0.13376942 0.16835296
000340 0e 20 19 3d 80 35 07 3e 4f 4c ef 3d b2 53 19 be
       0.037384085 0.13204002 0.116844766 -0.14973333
000350 9f 6e 73 3d d8 96 87 3d da e7 9a 3d d7 a6 e2 3d
       0.05943167 0.06620568 0.075637534 0.110669784
000360 94 3e 00 3e d5 9b 12 3c 34 e4 6b 3d 40 b7 19 be
       0.12523872 0.008948286 0.05759068 -0.1501131
000370 e6 57 cd bd b4 79 03 be 96 79 ff 3d e0 a7 20 3e
       -0.10026531 -0.12839395 0.124743626 0.15689039
000380 43 d1 34 bd 49 e4 e7 3c d7 5a 16 3e c8 48 07 3e
       -0.04414488 0.028307097 0.1468309 0.13211358
000390 0d df 55 bd 37 a1 49 be 11 f6 e4 bd ba 60 ce bc
       -0.05221467 -0.19690405 -0.11179746 -0.025192607
0003a0 57 c7 83 3d f2 b5 4f be 3f 06 a9 3d ce 37 01 be
       0.064345054 -0.2028425 0.082531445 -0.12618944
0003b0 6e 6f a2 3d 8b 9c 2f be d0 00 0b 3e 0e ab 5f 3d
       0.0793141 -0.1714956 0.13574529 0.05460649
0003c0 8f 38 14 be 5a 73 50 be 52 8b 5a be 57 fc 89 3c
       -0.144747 -0.20356503 -0.21342209 0.016843958
0003d0 1a 83 21 be 6f 8e ad 3d cb eb bc bd 6c e3 28 3e
       -0.15772668 0.08474433 -0.092246614 0.16493005
0003e0 46 19 58 3e 05 4f 96 be bf b1 11 bd 47 41 c6 3d
       0.21103391 -0.29357162 -0.035569903 0.096804194
0003f0 b8 e5 03 3e bd de 09 be c2 06 28 3e f6 de 59 3d
       0.128806 -0.13463874 0.16408828 0.053191148

fc2.bias f4 [10]
000000 7d a0 c8 bd 4f 70 b1 3e 5c 82 2d bd 7f 2a 7c bc
       -0.09796236 0.34655997 -0.04236065 -0.015390991
000010 83 c5 7f be 14 da a8 3d d1 8a 84 bd 01 a7 86 3d
       -0.24977688 0.0824472 -0.0647179 0.06574822
000020 89 3c 5f 3e a3 f0 d8 be
       0.21800436 -0.4237109

exp_avg f4 [10, 1, 5, 5]
000000 1c 1a 06 bc 7c 48 3e bc 55 2d 42 bc b1 7d 40 bc
       -0.008184936 -0.011613961 -0.011851628 -0.011748717
000010 33 3f 4c bc f1 0d 2a bc 3b 70 44 bc 51 35 30 bc
       -0.01246624 -0.0103793 -0.011989648 -0.010754899
000020 09 55 4d bc 5e e7 7c bc 98 d4 50 bc 27 60 2b bc
       -0.012532481 -0.015436022 -0.012745999 -0.010459936
000030 e9 a1 4d bc de 6b 8e bc 21 78 98 bc 20 29 53 bc
       -0.012550809 -0.01738542 -0.01861197 -0.012888223
000040 a7 bd 13 bc cf b1 74 bc a7 0d 90 bc bb cc 8f bc
       -0.009017385 -0.014934971 -0.017584635 -0.017553678
000050 32 5c 6f bc 88 6b 4b bc 7c c7 89 bc c7 4e 93 bc
       -0.014609383 -0.012415774 -0.016818754 -0.0179819
000060 08 cb 13 bc 97 0b 9e 3a 94 1c 47 3a 14 35 6c 39
       -0.009020574 0.0012057897 0.0007595506 0.00022526487
000070 9c 96 40 ba 79 a2 80 3a 0f f6 0d b9 05 97 d3 3a
       -0.00073466613 0.0009814046 -0.00013538472 0.001614303
000080 53 3e 28 3a 81 dd 44 38 36 45 21 3b ab ba b6 b9
       0.00064179784 4.6936333e-05 0.0024607903 -0.00034852824
000090 82 20 19 3b 0e a6 50 b8 3b 02 49 38 3a ef 3f 3b
       0.0023365323 -4.9745715e-05 4.792421e-05 0.0029286877
0000a0 6d d7 35 ba a8 8f 67 3a 22 8d c9 b9 eb 3e 19 ba
       -0.0006936703 0.0008833357 -0.0003844286 -0.00058458623
0000b0 48 3c 93 3a d0 b6 ed ba ce 07 4a b8 e5 20 1b 39
       0.0011233175 -0.0018136147 -4.816782e-05 0.00014794206
0000c0 96 d1 dd ba 9e d9 47 bb af a0 80 3a 9e a8 a7 3b
       -0.0016923423 -0.00304947 0.0009813512 0.0051165363
0000d0 99 f7 16 3c 65 e9 b1 3b 15 95 33 3a fb 9b c2 3b
       0.009214305 0.005429434 0.0006850523 0.0059390045
0000e0 c7 7d 12 3c 01 45 2a 3c 0d 68 b3 3b 1d 2a fb 39
       0.0089411205 0.010392428 0.0054750503 0.00047905828
0000f0 04 a9 35 3c a7 65 3d 3c ba 33 1f 3c c3 e7 66 3b
       0.01108766 0.01155988 0.009716922 0.0035233356
000100 ec e0 0e 3a dd 4d 64 3c dc e6 3c 3c 2e 0b b9 3b
       0.0005450386 0.01393458 0.011529651 0.0056470847
000110 8f 3e ef 3a 59 c4 02 3b bd 31 8c 3c 79 9d 0a 3c
       0.0018252897 0.0019953458 0.01711356 0.008460396
000120 ad d8 2e 3a ca 55 f8 3a e4 94 9d 3b 0b 2b 58 3b
       0.00066698604 0.0018946466 0.004809009 0.003298464
000130 2a 46 cb 3b 52 3e 12 3c 96 a3 03 3c 24 95 42 3c
       0.0062034326 0.008925991 0.008034607 0.011876378
000140 10 82 c2 3b 1e d7 40 3c 8e 12 69 3c d2 f2 3d 3c
       0.005935915 0.011770038 0.014225615 0.011593537
000150 f7 43 66 3c f6 eb a8 3b 31 99 19 3c e7 b0 62 3c
       0.01405429 0.005155082 0.009374903 0.013836122
000160 9a 44 57 3c 9e 4e 69 3c 68 de 52 3b 60 e8 06 3c
       0.0131389145 0.014239935 0.0032176021 0.008234113
000170 9b 26 2e 3c d5 42 28 3c c9 4c 03 3c 82 bc 56 3b
       0.010629321 0.01026984 0.0080139125 0.0032766168
000180 f4 85 dd 3b 8a 7c e2 3b 7e f9 c3 3b 1d e4 84 3b
       0.006760353 0.006911819 0.0059806695 0.0040555135
000190 59 bb e6 3a f4 db bb 3b dd dc d4 3b 80 2a 56 3b
       0.0017603441 0.0057330076 0.0064960555 0.003267914
0001a0 01 fd d1 3a a6 d8 92 3b bb a2 d6 3b cd dc f5 3b
       0.0016020836 0.004481393 0.0065501607 0.007503128
0001b0 57 ac e0 3b 7d ef 7f 3b b0 29 48 3b 44 80 b2 3b
       0.006856482 0.0039052658 0.0030542426 0.0054474194
0001c0 51 64 fb 3b 02 90 fd 3b f7 62 8a 3b 7c e3 4f b9
       0.0076718708 0.0077381143 0.0042232233 -0.00019825803
0001d0 a8 e1 f6 3a c9 2c 8f 3b 67 6e 23 3b 8b 2e 82 39
       0.0018835561 0.0043693525 0.002493763 0.0002483021
0001e0 de 82 4d bb 63 a7 62 bb d5 71 cc ba f0 a7 87 bb
       -0.003135852 -0.0034584634 -0.001559789 -0.0041398928
0001f0 08 42 ab bb 99 84 ff bb 92 5c 04 bc fc 07 27 bc
       -0.0052263774 -0.0077977893 -0.008078711 -0.010194775
000200 cb 55 78 bb ed df 49 3a 15 f9 4b bc 5c d3 2a bc
       -0.0037892933 0.0007700909 -0.0124495225 -0.010426369
000210 4e 4e 16 bc ea 8f 7e bb 2f 73 76 39 52 05 1e bc
       -0.009173943 -0.0038843104 0.00023503297 -0.009644823
000220 87 d4 fd bb 2e fc ac bb 68 4e af ba 88 81 98 3a
       -0.0077462825 -0.0052790856 -0.0013374807 0.0011635283
000230 9c 54 ff bb 84 a5 35 bb b9 12 32 ba f0 c5 74 3a
       -0.0077920686 -0.0027717063 -0.0006792951 0.00093373563
000240 3a 79 0f 3b e8 12 ee bb 06 73 7b b9 d0 62 1e ba
       0.0021892325 -0.0072654374 -0.00023980075 -0.0006041946
000250 2e 48 92 3b 88 2c af 3b 2b 97 69 3a 94 a1 4f 39
       0.004464171 0.0053458847 0.00089107704 0.00019801251
000260 ac cf d3 3a 49 35 50 3b 66 a5 02 ba ff f9 30 3b
       0.0016159914 0.0031770042 -0.0004983753 0.0027004478
000270 1c b5 9c 3a 8e 8f 8a ba ac d1 19 bb 55 44 cf bb
       0.001195583 -0.0010571347 -0.0023470921 -0.0063252845
000280 a3 5e 38 3b 4d 38 10 ba 1a ca 2b bb 7b 07 b6 bb
       0.002813258 -0.00055015535 -0.0026212991 -0.005555091
000290 ff 44 f4 bb fb 15 c9 3a 80 ca cb b9 be 76 89 bb
       -0.007454514 0.0015341634 -0.00038870052 -0.0041950634
0002a0 d8 3e e5 bb f2 cc 7d bb c7 8e b2 b9 d8 fa af ba
       -0.006996017 -0.0038726893 -0.00034057183 -0.0013426198
0002b0 d1 18 84 bb 54 79 86 bb 0c fd fe ba b8 49 b4 38
       -0.0040312787 -0.004103819 -0.0019454076 8.5968e-05
0002c0 58 0b 8d 3a 57 b6 45 bb 13 91 f6 bb d2 38 8f bb
       0.0010760827 -0.0030168497 -0.0075246184 -0.004370787
0002d0 69 57 1c 3b bf cb be 3a 63 5d c6 bb 00 11 06 bc
       0.0023855811 0.0014556571 -0.006053613 -0.008182764
0002e0 d7 41 aa bb 95 f3 00 3a a3 84 83 ba 82 c0 d1 bb
       -0.005195837 0.0004919109 -0.0010034036 -0.0064011225
0002f0 57 50 22 bc 03 63 91 bb d9 51 b5 3a 7f 6e 88 3a
       -0.00990685 -0.004436852 0.0013833597 0.0010408907
000300 d3 85 8a bb 4d a0 0f bc a1 4f fd bb 08 85 b4 3a
       -0.004227379 -0.008766246 -0.00773044 0.0013772557
000310 1e fa 58 3b b6 fd 70 ba d6 0c 0a bc 4c 28 17 bc
       0.0033108066 -0.00091930793 -0.008425912 -0.009225916
000320 3d 65 2c bc 91 5b ea bb e1 6e c1 ba 14 84 f9 ba
       -0.010522184 -0.007152029 -0.0014757776 -0.0019036555
000330 63 42 32 3b c7 e1 af bb e0 85 7a ba 46 02 cb 3a
       0.0027200214 -0.005367491 -0.0009556692 0.0015488348
000340 bc bb ac 3a b4 0d 9c 3b b4 80 12 3b b3 f3 74 3b
       0.0013178508 0.0047623757 0.0022354545 0.0037376701
000350 8e da 73 3b 57 55 0a 3b d0 f4 a0 3b 60 65 a8 3a
       0.0037209126 0.0021107995 0.0049119964 0.0012847595
000360 0e b1 04 3b 00 ac 2c 3b 7a 56 39 3b 20 cc 97 3b
       0.0020247134 0.0026347637 0.0028280304 0.004632488
000370 71 5c 56 3b ad e5 4b 3b 08 76 cc 3b 2e 33 fd 3b
       0.0032708908 0.003111224 0.0062396564 0.0077270484
000380 99 ee 14 3c a8 ba 39 ba b3 5e 9a 3a ea fe 91 3b
       0.009090089 -0.0007085004 0.001177749 0.004455437
000390 96 6c bd 3b 04 14 98 3b 3e db 15 b9 67 d2 cb 3a
       0.0057807667 0.004641058 -0.00014291421 0.0015550376
0003a0 0e df dd 3b 0b 9f 13 3c 86 95 ff 3b 80 bc 05 3b
       0.006770975 0.009010087 0.007799807 0.0020406544
0003b0 00 5a 91 3b f2 90 32 3c 29 c7 70 3c e0 a2 71 3c
       0.0044357777 0.0108988155 0.014695921 0.014748305
0003c0 f9 1f 9a 3b 9e 3b 0e 3c 47 ae 82 3c 77 f2 b2 3c
       0.0047035185 0.008681206 0.015952243 0.021844132
0003d0 b8 94 80 3c 3b ef ed 3b 05 bc 55 3c 84 8a bf 3c
       0.015695915 0.0072611845 0.013045316 0.02338148
0003e0 39 b1 d3 3c 15 cd 4c 3c
       0.025841342 0.012500067

exp_avg_sq f4 [10, 1, 5, 5]
000000 f2 b7 58 3a 73 28 25 3a cd 82 a2 39 e1 85 99 39
       0.0008267156 0.0006300278 0.00030996502 0.00029282182
000010 9b ab ff 39 af fb 5f 3a c3 1d 0b 3a 20 1a 87 39
       0.00048765246 0.00085442787 0.0005306864 0.0002576867
000020 39 4e ac 39 f8 60 41 3a 42 57 66 3a 5f ee 2c 3a
       0.00032864677 0.0007376815 0.0008786806 0.00065967994
000030 f8 25 eb 39 01 94 30 3a 5e 51 a1 3a 8a de 6f 3a
       0.00044850982 0.00067359215 0.0012307575 0.00091502874
000040 d8 0f 6d 3a 48 49 86 3a 03 e9 ba 3a 7c 7d de 3a
       0.00090431934 0.0010245228 0.0014260117 0.0016974653
000050 62 4b 81 3a 39 dd 96 3a d0 41 c4 3a 97 45 f5 3a
       0.0009864385 0.0011510021 0.0014973227 0.0018712756
000060 4f c1 db 3a 88 bb 8a 39 5b 68 91 39 70 a3 93 39
       0.0016765984 0.00026461133 0.00027734306 0.00028159795
000070 88 45 82 39 ca 4d 33 39 e4 88 96 39 e5 a2 86 39
       0.00024847337 0.00017099749 0.0002871222 0.00025679838
000080 a3 99 82 39 a5 a6 7f 39 6c c6 54 39 a2 a4 43 39
       0.0002491 0.00024380775 0.00020291813 0.0001865798
000090 57 8c 26 39 c9 85 4b 39 a9 fc 66 39 eb ce 74 39
       0.00015883274 0.00019409427 0.00022028633 0.00023346736
0000a0 d4 cb 0b 39 98 46 18 39 6f 79 4e 39 62 49 8e 39
       0.00013332005 0.00014522148 0.00019690928 0.00027139025
0000b0 2c 74 97 39 b8 ba 29 39 84 16 55 39 fc 70 8b 39
       0.0002888752 0.00016186654 0.0002032165 0.00026596326
0000c0 2d 90 a8 39 56 5d a6 39 7c f5 23 3a 95 f0 3b 3a
       0.00032150876 0.00031731528 0.00062545366 0.00071693334
0000d0 38 ef 2d 3a 42 c0 ff 39 ae 0e a8 39 ee 1b 39 3a
       0.00066350726 0.00048780633 0.00032054394 0.0007061352
0000e0 a4 7a 41 3a 36 17 0e 3a fd bb 90 39 ce bc 4e 39
       0.00073806406 0.0005420329 0.00027605882 0.00019716026
0000f0 ce ef 4b 3a c3 48 25 3a 50 83 82 39 ce ec f1 38
       0.0007779569 0.0006305093 0.00024893368 0.00011535884
000100 99 ba fe 38 4d e8 36 3a 4e 94 dd 39 5a f2 13 39
       0.0001214642 0.00069773645 0.000422629 0.00014109295
000110 a8 80 bc 38 de 2d 0f 39 3c 94 1a 3a 3a 42 b7 39
       8.988503e-05 0.0001365463 0.00058967224 0.00034953823
000120 f8 de 2e 39 3b 0e 0b 39 74 e2 84 39 44 d0 cf 39
       0.00016676995 0.00013261374 0.00025345723 0.00039637287
000130 62 08 d4 39 42 0e d1 39 01 95 fb 39 ed f7 0f 3a
       0.00040442037 0.0003987421 0.00047985467 0.0005491961
000140 f1 7c 9b 39 97 62 aa 39 1c fa cd 39 3f 80 02 3a
       0.00029656992 0.00032498382 0.00039286993 0.00049782166
000150 16 e3 03 3a e5 9c 64 39 b1 6b 97 39 f0 d0 e0 39
       0.0005031092 0.00021802222 0.000288812 0.0004288028
000160 d8 40 fc 39 f8 c9 da 39 0a 7c 9c 39 81 5c cf 39
       0.00048113498 0.0004173068 0.00029847055 0.00039551037
000170 48 75 e9 39 49 d9 d4 39 86 0f a3 39 41 f6 d7 39
       0.00044528604 0.0004059768 0.0003110135 0.0004119147
000180 3f fd e5 39 eb 62 d8 39 8c 3d bf 39 35 59 9b 39
       0.00043866967 0.0004127243 0.00036476215 0.00029630368
000190 b6 37 91 39 1b 9e 4c 39 24 21 52 39 6c e5 20 39
       0.00027698063 0.00019513855 0.00020039506 0.00015344255
0001a0 33 14 ee 38 cb a3 63 39 ef 5a 5f 39 83 d9 88 39
       0.00011352487 0.00021709425 0.00021300813 0.00026102
0001b0 cb 9c 52 39 ac 0d 0c 39 68 be 37 39 ce 6b 2a 39
       0.0002008557 0.00013356534 0.00017523172 0.00016252624
0001c0 c5 f7 74 39 bb fb 66 39 c9 c1 38 39 91 33 17 39
       0.00023361955 0.00022028286 0.00017619798 0.00014419692
0001d0 69 ba 1d 39 68 a7 67 39 ca 73 7c 39 49 bb 84 39
       0.0001504213 0.0002209224 0.00024075728 0.0002531654
0001e0 65 60 40 39 ba cb 72 39 96 9f 90 39 0c 07 81 39
       0.00018346457 0.00023154813 0.0002758472 0.00024610048
0001f0 d0 de 8e 39 69 a2 b6 3a ca 79 af 3a 4e 0c 98 3a
       0.0002725036 0.00139339 0.0013387736 0.0011600347
000200 99 2b 98 3a c5 0e b1 3a 69 55 b1 3a 3d ae 94 3a
       0.0011609673 0.001350843 0.0013529483 0.0011343431
000210 f1 53 72 3a 90 5c 7f 3a e2 f0 97 3a 19 54 66 3a
       0.00092440756 0.0009741271 0.0011592174 0.0008786335
000220 05 43 16 3a 67 61 11 3a 1d 88 47 3a 4a 1b 79 3a
       0.00057320326 0.0005545825 0.000761153 0.00095026626
000230 84 d7 df 39 11 3d 8b 39 46 68 b5 39 6e 58 1b 3a
       0.00042694446 0.00026557644 0.000346007 0.0005925958
000240 c8 ff 55 3a 7c 22 8d 39 29 1d 55 39 54 ff a2 39
       0.00081634196 0.0002691931 0.00020324126 0.00031089282
000250 b2 b5 01 3a 94 d7 40 3a 5a 0d 1b 39 23 f4 f0 38
       0.0004948034 0.00073563424 0.00014786926 0.00011489566
000260 00 32 ee 38 9c 8b 14 39 6c ca 6b 39 2b 97 4f 39
       0.000113580376 0.00014166388 0.00022486754 0.00019797373
000270 25 df 1b 39 c2 1e 1d 39 af b1 55 39 0b a8 c4 39
       0.0001486508 0.00014984145 0.00020379455 0.00037509235
000280 2c ac 8f 39 cc 47 8a 39 05 20 85 39 af e3 c9 39
       0.00027403363 0.00026374904 0.00025391593 0.00038507345
000290 64 2e f7 39 dd c6 9d 39 19 40 a0 39 fa 46 b3 39
       0.00047146075 0.00030093538 0.00030565335 0.00034194422
0002a0 4d 04 dd 39 74 36 bd 39 ac 13 82 39 c4 24 81 39
       0.0004215561 0.0003608946 0.0002481019 0.0002463219
0002b0 82 f9 99 39 6e fd 99 39 42 6f 68 39 8c 9f cc 38
       0.00029368332 0.00029371254 0.00022166691 9.757196e-05
0002c0 fd 04 12 39 3f c7 ba 39 75 2c 34 3a 7a 6b 3c 3a
       0.00013925503 0.00035625134 0.00068730797 0.0007187646
0002d0 1e fc 8e 38 74 e4 df 38 c7 73 d1 39 97 60 4c 3a
       6.818048e-05 0.00010676021 0.00039949847 0.00077963754
0002e0 c0 e7 3d 3a 86 b8 72 38 10 f8 d5 38 5e 31 01 3a
       0.0007244311 5.7869147e-05 0.00010202837 0.0004928316
0002f0 99 94 71 3a 01 86 41 3a 8a a4 85 38 70 36 23 39
       0.0009215563 0.0007382334 6.372582e-05 0.00015565171
000300 9e 66 2d 3a 70 c5 86 3a ce 78 4b 3a 8a f5 f1 38
       0.00066147174 0.001028223 0.0007761837 0.00011537511
000310 b2 1b bc 39 d3 35 58 3a 22 38 89 3a 03 c3 52 3a
       0.0003587879 0.00082477665 0.0010468999 0.0008039923
000320 82 9d d8 39 00 8b 57 39 42 ba d3 38 09 12 9e 38
       0.00041316083 0.0002055578 0.00010095957 7.5373864e-05
000330 60 c5 1f 39 a7 b6 52 39 ff f9 a1 38 b2 ac 70 38
       0.0001523695 0.00020095204 7.723644e-05 5.7381294e-05
000340 74 1f 94 38 55 7b 51 39 e3 f0 af 38 73 ef 7f 38
       7.0630485e-05 0.00019977738 8.389519e-05 6.1019742e-05
000350 ec 46 85 38 1e 99 00 39 ee 53 bd 39 01 35 94 38
       6.3551444e-05 0.00012264072 0.00036111422 7.067063e-05
000360 71 00 ac 38 21 0e 0f 39 47 5c ae 39 7d 4c 18 3a
       8.201681e-05 0.00013642806 0.00033256618 0.00058097375
000370 1d 77 f1 38 0e 2e 38 39 37 7f bf 39 23 16 18 3a
       0.00011513962 0.00017564764 0.0003652514 0.00058016385
000380 d3 2e 35 3a 58 01 ac 38 98 09 7e 38 de 17 c7 38
       0.00069115794 8.2018494e-05 6.0567254e-05 9.493505e-05
000390 98 7b 80 39 f2 de d9 39 78 09 86 38 6d 91 62 38
       0.00024506147 0.00041555573 6.3913816e-05 5.4018037e-05
0003a0 35 ee ee 38 77 84 9e 39 b5 64 0d 3a 05 0c d4 38
       0.00011393094 0.00030234802 0.00053937297 0.000101111866
0003b0 c0 25 05 39 b8 63 6a 39 af 84 e7 39 af fc 31 3a
       0.00012697931 0.00022353127 0.0004415861 0.0006789667
0003c0 48 e1 48 39 7d fd 8c 39 6a 75 da 39 47 22 33 3a
       0.0001915741 0.00026891744 0.0004166768 0.0006833416
0003d0 2c 68 49 3a b2 6c 8d 39 1b 31 c5 39 b6 d6 1a 3a
       0.00076830643 0.000269746 0.00037611354 0.0005906628
0003e0 41 b8 4f 3a d0 32 3d 3a
       0.00079238793 0.00072173495
